trained_models/H1_intra_cell_line_model.pth (torch, 70772 bytes, 26 tensors)

lstm.weight_ih_l0 f4 [64, 9]
0.20105973 -0.117120504 0.15735444 0.16017029 -0.17011154 0.031565435 -0.076681495 0.08075502
0.064119294 -0.036530565 0.100025974 -0.011650582 0.16187458 -0.142917 0.17598665 -0.21128435
0.07158989 -0.11531239 0.1338242 0.13585639 -0.121253766 -0.18453227 0.12099088 -0.11422056
-0.052022316 0.13796335 0.08500798 0.08222831 -0.12075647 0.06656502 0.006707465 0.2117383
0.15513134 -0.20347926 -0.3287446 -0.24792944 0.18504459 -0.09086093 0.045674212 -0.20705487
0.15669891 -0.06033356 0.19198981 -0.0050885268 -0.21512362 0.14011203 -0.040649377 -0.017920624
-0.014792849 0.010333101 -0.32215327 -0.0693694 0.13735361 -0.13355109 0.3016652 -0.075975604
0.03118009 -0.073313154 0.19253679 0.09080937 -0.24498168 0.042110182 0.16295056 0.121439405
-0.42078802 -0.089571826 0.024876516 0.110145435 -0.21923685 -0.19504301 0.11761358 0.00972354
0.174176 0.029761791 0.039416745 0.23743698 0.038009036 0.34639657 -0.25236613 0.15274975
0.04343125 -0.17876358 -0.1735973 -0.011559384 -0.06042899 -0.050756596 -0.16486159 0.04417212
-0.035564218 0.03792577 0.082709484 -0.19684573 0.16711856 0.07200138 -0.04493029 -0.10908729
0.10324972 0.12061237 0.100552164 0.021946326 0.34475282 0.11282131 0.19989838 0.20551674
-0.08774883 -0.26259983 0.041704588 0.058205996 0.23775442 -0.042742126 -0.07122923 0.32629284
0.26226088 -0.071792096 -0.19219893 0.1662735 0.04053043 0.19161361 -0.046102334 -0.12326445
-0.048866544 0.11369158 0.25953642 -0.24515378 -0.0837621 -0.094036624 -0.20302327 -0.07619067
-0.0030170784 0.08102251 -0.20263188 0.12516682 0.14826973 0.09416013 0.020981705 0.17663285
0.24773355 0.25925502 -0.08887973 -0.35790586 -0.18650426 -0.026497306 0.047990415 -0.008049934
0.01957085 0.112407096 0.21715786 0.094131835 0.12110514 0.085092716 -0.12476563 0.15316302
0.02453147 -0.09624753 -0.28871486 -0.2711973 -0.2349799 -0.18026477 0.11597357 -0.05839579
-0.18088123 0.07866411 0.06609055 -0.10354367 -0.13350365 0.002739808 -0.0753147 -0.0433821
-0.23819506 0.0013125832 -0.0432135 0.024035841 0.03946201 -0.047254495 0.1351706 0.14715686
0.3347539 0.0051466264 -0.13760754 0.074363485 -0.061205108 -0.022882003 -0.19811206 -0.08804221
-0.26292065 0.12097619 -0.18578357 -0.23477434 -0.02796084 -0.1544493 0.012621733 -0.14945698
-0.18421218 0.020802485 0.11882553 -0.10176926 0.1529334 0.11028964 0.17955598 -0.1928375
0.015958067 -0.20267107 0.20120065 -0.034853034 0.0143428175 -0.022269508 0.023086367 -0.120549865
0.13894148 0.12876058 0.024002654 0.24087131 -0.22448081 0.055250302 0.10343215 0.25924462
0.060583923 -0.10801043 -0.07800633 0.2730744 -0.14852557 0.51342154 -0.16404317 -0.1292072
0.38199124 -0.18224499 -0.060475774 0.08224649 0.18798226 0.19116017 -0.13679929 -0.19310777
0.20243895 -0.079622306 -0.11951904 -0.0108870985 -0.118565254 0.17415069 0.16587764 -0.21522546
-0.24760455 -0.097578906 0.24206115 -0.0028430147 -0.024934849 -0.033521898 -0.20171782 -0.13583872
-0.29988024 0.24761601 0.15826218 0.032027666 0.09458718 0.06374261 0.11783569 -0.0034409992
00000000: 9ae2 4d3e e0dc efbd 8621 213e ae03 243e
00000010: b831 2ebe c24a 013d 300b 9dbd e362 a53d
00000020: fa50 833d 13a1 15bd 6bda cc3d 15e2 3ebc
00000030: 73c2 253e d658 12be d835 343e ed5a 58be
00000040: b89d 923d e728 ecbd 3609 093e f01d 0b3e
00000050: e553 f8bd 07f6 3cbe 11ca f73d 78ec e9bd
00000060: 5a15 55bd 4446 0d3e aa18 ae3d 5167 a83d
00000070: 2b4f f7bd 3e53 883d 4bca db3b edd1 583e
00000080: c0da 1e3e de5c 50be 3651 a8be 37e1 7dbe
00000090: 547c 3d3e 4c15 babd e214 3b3d 3106 54be
000000a0: ae75 203e 5320 77bd fa98 443e a8bd a6bb
000000b0: 5e49 5cbe 8779 0f3e f67f 26bd 46ce 92bc
000000c0: b55d 72bc 2b4c 293c 46f1 a4be 8b11 8ebd
000000d0: 6da6 0c3e 9ec1 08be dc73 9a3e 1999 9bbd
000000e0: 636d ff3c 3525 96bd 5d28 453e 43fa b93d
000000f0: 7adc 7abe ba7b 2c3d 83dc 263e 39b5 f83d
00000100: 8771 d7be 6f71 b7bd d6c9 cb3c ee93 e13d
00000110: a07f 60be 5bb9 47be 63df f03d 7c4f 1f3c
00000120: 315b 323e 00cf f33c 7473 213d ae22 733e
00000130: 5daf 1b3d e45a b13e 2236 81be 6e6a 1c3e
00000140: f7e4 313d cd0d 37be 7ec3 31be 9263 3dbc
00000150: 6384 77bd 26e6 4fbd 7ad1 28be d3ed 343d
00000160: c9ab 11bd 0d58 1b3d 9763 a93d ed91 49be
00000170: 2121 2b3e 7675 933d d308 38bd 2869 dfbd
00000180: 9774 d33d 9e03 f73d 4bee cd3d c8c8 b33c
00000190: 7183 b03e dc0e e73d 29b2 4c3e fb72 523e
000001a0: a9b5 b3bd 7c73 86be 6ed2 2a3d 6969 6e3d
000001b0: e575 733e 5e12 2fbd a1e0 91bd db0f a73e
000001c0: 0f47 863e bc07 93bd cccf 44be 9a43 2a3e
000001d0: 3c03 263d 5c36 443e cdd5 3cbd 1272 fcbd
000001e0: 4928 48bd 22d7 e83d f5e1 843e 9809 7bbe
000001f0: 778b abbd 4696 c0bd 55e5 4fbe db09 9cbd
00000200: 2dba 45bb 21ef a53d bb7e 4fbe bb2b 003e
00000210: 05d4 173e 07d7 c03d d3e1 ab3c 3edf 343e
00000220: ddad 7d3e 13bd 843e 9306 b6bd 703f b7be
00000230: f9fa 3ebe e110 d9bc 9991 443d dfe3 03bc
00000240: 0c53 a03c b135 e63d a15e 5e3e 31c8 c03d
00000250: f905 f83d 1745 ae3d 1f85 ffbd c4d6 1c3e
00000260: 39f6 c83c 6d1d c5bd 6fd2 93be 5fda 8abe
00000270: 929e 70be 5497 38be 8d83 ed3d 6d30 6fbd
00000280: ee38 39be a61a a13d 7b5a 873d b40e d4bd
00000290: 2eb5 08be 5a8e 333b 983e 9abd 6eb1 31bd
000002a0: 68e9 73be fc0a ac3a a400 31bd d0e6 c43c
000002b0: eba2 213d ee8d 41bd 296a 0a3e 4ab0 163e
000002c0: dd64 ab3e 08a5 a83b fee8 0cbe e24b 983d
000002d0: 35b2 7abd 0a73 bbbc e3dd 4abe 794f b4bd
000002e0: 899d 86be 5dc2 f73d 0c3e 3ebe af68 70be
000002f0: 220e e5bc f527 1ebe 63cb 4e3c 400b 19be
00000300: 1ea2 3cbe f969 aa3c cd5a f33d 676c d0bd
00000310: 939a 1c3e 89df e13d 86dd 373e 3277 45be
00000320: 7eba 823c 0189 4fbe 8b07 4e3e 0ec2 0ebd
00000330: 23fe 6a3c 8b6e b6bc 9f1f bd3c d9e2 f6bd
00000340: ad46 0e3e d0d9 033e 37a1 c43c f8a6 763e
00000350: 4cde 65be 244e 623d 3cd4 d33d b6bb 843e
00000360: d926 783d 9334 ddbd c8c1 9fbd 68d0 8b3e
00000370: 1617 18be 986f 033f effa 27be e44e 04be
00000380: 5b94 c33e 6e9e 3abe 72b5 77bd d970 a83d
00000390: 6c7e 403e 7ebf 433e 1d15 0cbe 0bbe 45be
000003a0: 284c 4f3e 0511 a3bd 66c6 f4bd cd5f 32bc
000003b0: 57d2 f2bd 8f54 323e d4db 293e 1064 5cbe
000003c0: 0c8c 7dbe 73d7 c7bd e1de 773e df51 3abb
000003d0: 2b44 ccbc 424e 09bd 1e8f 4ebe 4e19 0bbe
000003e0: e789 99be 0d8f 7d3e 7b0f 223e 712f 033d
000003f0: ecb6 c13d 7c8b 823d d753 f13d 6382 61bb

lstm.weight_hh_l0 f4 [64, 16]
-0.07548687 0.012678162 0.011146432 -0.058723606 0.21649846 0.0580479 -0.14444824 0.4409199
-0.041121732 -0.113069125 0.06923896 -0.07659321 0.09941962 0.19308002 -0.16985269 0.17253795
0.07829738 0.15219747 -0.017368423 0.2797742 0.11904415 -0.11985809 -0.07932796 0.41019386
-0.1082568 -0.11271669 0.39833674 0.09957296 -0.23011996 -0.055852417 0.12184335 0.13216941
-0.19062188 0.25421384 -0.0031196706 -0.051887818 -0.060623202 0.10576378 -0.04836093 0.15129313
0.1010898 0.013154275 0.19174024 0.05125955 -0.14350466 -0.046435058 0.17201371 0.055394467
0.28306156 0.26834354 -0.052282326 0.24167493 -0.13111581 0.2510354 0.22841083 -0.15388331
0.022062872 -0.24721684 -0.25972852 0.052216917 -0.054968536 -0.046579022 -0.3288508 -0.074997894
-0.005750267 -0.022944283 0.16389796 0.20797913 0.1563526 0.12158215 -0.23562686 0.22657558
-0.21418507 -0.07219243 -0.1746862 0.055571325 -0.16368446 -0.10348818 -0.24403296 -0.07810028
-0.14170179 0.2444811 -0.052815467 0.10893109 -0.24342643 0.27373555 -0.043552496 -0.17666963
0.16602036 -0.18959425 0.2376253 -0.12596123 -0.32362348 -0.06213126 0.11706751 -0.024719175
-0.2703523 0.1297451 -0.13453129 0.16771172 -0.15994623 -0.18125337 0.20453714 -0.06137748
0.10852549 0.3106538 -0.058163147 -0.17654185 0.12951791 -0.3009725 0.010907172 -0.11492338
-0.14648691 -0.21373193 0.022076732 0.15843336 -0.34840283 0.04733309 -0.00353473 -0.17140429
-0.040551834 0.23490262 0.28758693 0.19818926 -0.2981941 -0.18448806 -0.05257904 -0.11455184
-0.051922534 0.025905408 0.17075251 0.42537442 -0.005511989 -0.11438039 0.0068671755 0.016057845
0.11543982 -0.010311054 -0.12160636 -0.017887833 -0.058057792 0.13889375 0.026724 -0.31484693
0.28255808 0.3536363 -0.20921741 0.02030203 -0.06836354 0.38182652 0.023916258 0.0767177
-0.130376 -0.18266964 0.33991694 0.14746949 -0.27812663 -0.016521512 -0.11054763 0.4300971
0.119596526 -0.050883166 0.051498562 -0.09864872 -0.23874612 -0.15641412 0.08261795 0.1044848
-0.21202864 0.11377358 0.22495024 0.1474151 -0.06386507 -0.057943653 0.08811848 0.21475476
0.08899151 -0.10770715 -0.15327758 0.20223287 0.22767591 0.0654652 -0.23405676 0.00030335307
-0.21317387 -0.24529779 0.26891926 -0.25519294 0.046953946 -0.0040148897 -0.20642939 0.121195674
-0.10856581 0.23917897 -0.38740042 0.009149871 -0.20104751 0.24553575 0.17828883 -0.0103666615
-0.054438014 -0.22144647 -0.06997936 -0.14110166 0.016874542 0.13524874 0.040283244 0.16297038
-0.18074231 -0.106064804 -0.23552765 -0.15172394 0.19252372 0.09760564 -0.23272759 0.036230896
-0.05077287 0.06282366 0.3262578 0.045681622 0.14486942 -0.07180598 0.010836591 -0.15475073
0.041441787 0.22226185 0.09112798 0.3096955 -0.104780115 -0.013761973 0.002708379 0.28239214
-0.38364658 -0.108646534 0.106435224 -0.25840333 0.09229124 0.026786076 -0.16580941 0.15706582
0.12499526 0.22734635 0.03132887 0.019790987 0.14503348 0.122231245 -0.24790889 0.31919494
-0.17201713 -0.13981059 0.10113777 -0.2250312 0.03476082 -0.1263837 -0.062813304 0.24593046
00000000: dc98 9abd 11b8 4f3c 869f 363c 2a88 70bd
00000010: c6b1 5d3e a3c3 6d3d 3dea 13be 41c0 e13e
00000020: 436f 28bd c990 e7bd 28cd 8d3d e7dc 9cbd
00000030: 849c cb3d c5b6 453e dded 2dbe caad 303e
00000040: 605a a03d a7d9 1b3e 3948 8ebc 903e 8f3e
00000050: 6bcd f33d 2978 f5bd b376 a2bd ee04 d23e
00000060: beb5 ddbd 02d8 e6bd cbf2 cb3e e8ec cb3d
00000070: 91a4 6bbe 81c5 64bd 0289 f93d 6b57 073e
00000080: 6232 43be 5128 823e 6373 4cbb 5288 54bd
00000090: 0950 78bd ae9a d83d 1c16 46bd 96ec 1a3e
000000a0: 2b08 cf3d 0785 573c 8e57 443e 89f5 513d
000000b0: e3f2 12be b032 3ebd 5d24 303e 4fe5 623d
000000c0: 72ed 903e 5364 893e fe25 56bd a279 773e
000000d0: 3943 06be b687 803e 87e4 693e 9693 1dbe
000000e0: 32bd b43c 6926 7dbe 23fb 84be 68e1 553d
000000f0: b026 61bd a5c9 3ebd 225f a8be 7f98 99bd
00000100: bc6c bcbb a6f5 bbbc ded4 273e 7bf8 543e
00000110: e51a 203e 1000 f93d 2b48 71be 6e03 683e
00000120: 5553 5bbe a0d9 93bd f0e0 32be c29e 633d
00000130: e69c 27be 9cf1 d3bd c7e3 79be 0af3 9fbd
00000140: 461a 11be 4159 7a3e 0855 58bd 4317 df3d
00000150: c744 79be 1127 8c3e 1a64 32bd e2e8 34be
00000160: 3e01 2a3e ff24 42be 0c54 733e fbfb 00be
00000170: fab1 a5be 597d 7ebd 17c1 ef3d de7f cabc
00000180: 9e6b 8abe e6db 043e 92c2 09be 9fbc 2b3e
00000190: f2c8 23be 7c9a 39be 2f72 513e f466 7bbd
000001a0: 9d42 de3d 040e 9f3e 7b3c 6ebd 63c7 34be
000001b0: 58a0 043e 1119 9abe ffb3 323c f35c ebbd
000001c0: aa00 16be 8bdc 5abe 43da b43c 5b3c 223e
000001d0: db61 b2be 58e0 413d eea6 67bb 9b84 2fbe
000001e0: ae19 26bd 508a 703e 983e 933e 20f2 4a3e
000001f0: e6ac 98be 70ea 3cbe 1f5d 57bd 289a eabd
00000200: b9ac 54bd 9437 d43c bfd9 2e3e adca d93e
00000210: ea9d b4bb 4440 eabd 0b06 e13b be8b 833c
00000220: b66b ec3d b2ef 28bc c10c f9bd 8189 92bc
00000230: 02ce 6dbd 2a3a 0e3e 4aec da3c 9e33 a1be
00000240: 74ab 903e d10f b53e 173d 56be 7150 a63c
00000250: 2f02 8cbd c47e c33e 07ec c33c 2b1e 9d3d
00000260: 4981 05be c00d 3bbe 9809 ae3e 3e02 173e
00000270: 9d66 8ebe 1f58 87bc cc66 e2bd b035 dc3e
00000280: 06ef f43d de6a 50bd 28f0 523d 5708 cabd
00000290: dd79 74be 062b 20be 9a33 a93d 20fc d53d
000002a0: 091e 59be 1f02 e93d 5b59 663e fcf3 163e
000002b0: b1cb 82bd 5356 6dbd 7677 b43d ace8 5b3e
000002c0: 2e41 b63d 9195 dcbd ccf4 1cbe 2216 4f3e
000002d0: e023 693e 9e12 863d 93ac 6fbe 5c0b 9f39
000002e0: 404a 5abe 582f 7bbe c9af 893e a6a8 82be
000002f0: c852 403d 568f 83bb 3a62 53be 7035 f83d
00000300: c057 debd 55eb 743e 5959 c6be 57e9 153c
00000310: 66df 4dbe b96d 7b3e 5991 363e eed8 29bc
00000320: 65fa 5ebd ddc2 62be 5751 8fbd f47c 10be
00000330: 7b3c 8a3c a57e 0a3e 0b00 253d b5e1 263e
00000340: 8314 39be 8138 d9bd 292e 71be 855d 1bbe
00000350: f024 453e 77e5 c73d 2450 6ebe d966 143d
00000360: 37f7 4fbd b1a9 803d 430b a73e a71c 3b3d
00000370: a658 143e 030f 93bd f58b 313c fa76 1ebe
00000380: ddbe 293d 9c98 633e 4ea1 ba3d 6990 9e3e
00000390: f596 d6bd e679 61bc 0f7f 313b b495 903e
000003a0: 536d c4be 1382 debd b6fa d93d 714d 84be
000003b0: 3103 bd3d 796e db3c f1c9 29be ddd5 203e
000003c0: 84fd ff3d 7bcd 683e b452 003d b520 a23c
000003d0: a883 143e 6054 fa3d d4db 7dbe 856d a33e
000003e0: 4225 30be 822a 0fbe 5221 cf3d 946e 66be
000003f0: 5d61 0e3d bb6a 01be 43a4 80bd 32d5 7b3e

lstm.bias_ih_l0 f4 [64]
0.15427543 0.16208546 -0.08797335 0.22352652 0.2238959 -0.049159754 0.32645404 0.4591759
-0.011536187 0.2697985 0.31632346 -0.11129362 0.08768239 -0.044642 0.27243966 0.18690893
0.14266488 0.094080165 -0.008525902 -0.20415603 -0.05027718 -0.029335639 0.1342805 0.20979975
0.0043674675 -0.02168652 0.18523036 0.10826129 0.0517921 0.13102904 0.15639602 -0.19916739
-0.03955504 0.017254328 -0.2905861 0.05337003 0.022384174 0.1678852 -0.3158253 0.48024774
-0.19180316 0.15482298 0.21987896 -0.11019439 -0.09646454 -0.020125547 -0.20931028 0.040501777
0.29414845 0.23031142 -0.07228419 0.16796467 0.29714674 0.004612888 0.25796667 0.21437289
0.3982905 0.08599499 -0.14070816 0.020044949 -0.0674546 0.2576719 0.28315023 0.13485356
00000000: 61fa 1d3e bbf9 253e 5f2b b4bd 23e4 643e
00000010: f844 653e bd5b 49bd fc24 a73e 1b19 eb3e
00000020: 4602 3dbc 0723 8a3e 26f5 a13e e9ed e3bd
00000030: d392 b33d 88da 36bd 367d 8b3e 0e65 3f3e
00000040: be16 123e 1aad c03d 3ab0 0bbc 470e 51be
00000050: 72ef 4dbd 4b51 f0bc d480 093e bfd5 563e
00000060: f91c 8f3b eea7 b1bc 07ad 3d3e 18b8 dd3d
00000070: f423 543d 7a2c 063e 4726 203e 89f2 4bbe
00000080: 7704 22bd f358 8d3c b4c7 94be 889a 5a3d
00000090: 045f b73c 19ea 2b3e dbb3 a1be 08e3 f53e
000000a0: 0c68 44be ea89 1e3e f327 613e 99ad e1bd
000000b0: 338f c5bd 55de a4bc 6f55 56be 31e5 253d
000000c0: a09a 963e c2d6 6b3e bc09 94bd eefe 2b3e
000000d0: 9e23 983e b627 973b 3514 843e 9184 5b3e
000000e0: bbec cb3e 241e b03d cd15 10be 4e35 a43c
000000f0: a325 8abd 92ed 833e 11f9 903e 0d17 0a3e

lstm.bias_hh_l0 f4 [64]
0.19322501 0.1971752 -0.0599913 0.017715018 0.113698386 0.28786287 -0.10120147 0.22110774
-0.068500005 0.25628823 0.060589783 -0.05323682 0.28018576 0.2984484 -0.0049390257 0.11152861
-0.038031038 -0.078579076 0.11354264 0.2768771 -0.29183117 0.09154708 -0.106937215 -0.1110517
0.32120952 0.002306339 -0.11255757 0.10567211 -0.057497893 -0.20911124 -0.090251125 -0.124140665
-0.07901574 -0.17168464 -0.28986776 0.13936259 -0.18895555 -0.056297086 0.1373865 0.15306148
-0.23478891 0.074299954 0.2533531 -0.106746465 0.016689407 0.13819323 -0.022081077 0.05749192
0.32135427 0.2922757 -0.107354224 -0.06733176 0.23852158 0.11925719 0.18638608 0.47097954
0.45227128 0.36405346 0.3119959 -0.1927676 0.1819888 0.2328897 0.005650968 0.06648399
00000000: c7dc 453e 4ce8 493e 70b9 75bd 161f 913c
00000010: b3da e83d c362 933e b742 cfbd 116a 623e
00000020: bb49 8cbd 3638 833e fe2c 783d da0e 5abd
00000030: 8274 8f3e 3bce 983e 8dd7 a1bb 1d69 e43d
00000040: 6fc6 1bbd 11ee a0bd 0b89 e83d d6c2 8d3e
00000050: e56a 95be 097d bb3d e601 dbbd 136f e3bd
00000060: 9375 a43e f325 173b 9584 e6bd 9f6a d83d
00000070: e982 6bbd 4221 56be 95d5 b8bd 763d febd
00000080: 01d3 a1bd 19ce 2fbe 8c69 94be 11b5 0e3e
00000090: 907d 41be c697 66bd 0caf 0c3e 26bc 1c3e
000000a0: 816c 70be 932a 983d 7fb7 813e e49d dabd
000000b0: 39b8 883c 8782 0d3e 60e3 b4bc a67c 6b3d
000000c0: 8c88 a43e 29a5 953e 88dc dbbd 3ce5 89bd
000000d0: 003f 743e 1d3d f43d fedb 3e3e 3b24 f13e
000000e0: 1a90 e73e 3765 ba3e edbd 9f3e df64 45be
000000f0: 465b 3a3e a37a 6e3e c12b b93b c228 883d

lstm.weight_ih_l0_reverse f4 [64, 9]
0.08820743 -0.23794907 -0.120232545 0.21333916 -0.16069604 -0.23666163 0.32842317 -0.09027288
0.08732224 -0.24357092 0.40168062 -0.29188126 -0.006985268 -0.2850134 -0.2188264 0.1667497
-0.13670734 -0.009712114 -0.04445116 0.2700964 0.1557477 0.123862535 -0.18137124 -0.0040951385
0.1150362 0.076070756 0.23278533 -0.14909768 -0.21770458 0.10027693 -0.21546416 0.03244536
0.10370816 -0.16197346 -0.13448146 0.13059092 0.0073406803 -0.068864174 -0.18819098 -0.022528721
0.15501134 0.027747443 0.17932892 0.13572069 -0.11925002 0.3854433 -0.16203348 0.005275821
0.36438915 -0.095941566 0.065768495 -0.03873893 0.005517729 -0.011420725 -0.12947714 0.21318346
0.036434717 -0.20169756 0.04016575 0.26869473 0.04324665 -0.039999943 -0.08652595 0.2364906
0.02459726 -0.07247956 0.25816727 0.40935495 -0.08607039 0.09046379 0.18064551 0.14999542
0.25477773 0.034351237 -0.34915224 0.1453779 -0.2675509 0.23522095 -0.17254047 0.032227647
-0.20186007 0.12586442 0.01332628 0.14325063 0.23547018 -0.2965382 0.19475074 -0.18728063
-0.015624723 0.04710278 0.20678398 -0.054296657 -0.037550233 0.012931694 -0.030949771 -0.11268681
0.042264804 -0.030303637 -0.21642007 0.034548894 0.34216937 -0.15751925 -0.117861785 -0.10247074
0.05667974 0.20427369 -0.22819218 -0.108134925 0.14434357 0.106684715 -0.12863094 -0.08168513
0.08802906 -0.25886634 0.07283406 -0.37153882 -0.0009779533 0.17169628 -0.43133882 -0.2473475
-0.2705174 0.07471764 -0.10274881 -0.02429517 0.048871852 0.14434178 -0.16237038 0.034949996
0.08338395 -0.035459053 0.25501975 -0.10402514 -0.030364342 0.12657137 -0.1560781 -0.11464934
-0.1692618 0.26319852 0.1585964 0.06912322 0.2878819 -0.14671285 0.07806833 -0.1582474
-0.1446188 0.052906778 -0.024304908 0.17155957 0.2948748 0.1335859 0.1307216 -0.4087552
0.085679494 0.099444665 -0.04368809 -0.12299053 -0.19932604 0.008000094 -0.19537969 -0.16203965
-0.3708554 -0.051709052 0.09482385 -0.20227043 0.009022213 0.12499385 -0.05278903 0.10858167
-0.11909499 -0.10531604 -0.06197833 0.3279948 -0.01747873 0.30441895 0.15922843 0.112040736
-0.25352228 -0.013586263 -0.13085704 0.07558674 -0.091694266 -0.036621932 -0.15547156 0.15218213
0.13939257 -0.047386512 -0.2938317 0.098202124 -0.2913442 -0.094429515 0.03156858 0.20888609
0.094820395 -0.044226654 0.043976746 -0.17513178 -0.15683669 0.081377596 -0.19628896 0.18187404
-0.28639776 -0.12541914 -0.27967057 -0.10389857 -0.0036014942 0.14445902 0.061719216 0.094903365
0.043603417 -0.12005721 -0.14740227 -0.26799586 -0.22928827 -0.13873711 -0.23111336 0.2583164
-0.1589169 -0.00044912024 -0.18300787 -0.11195049 0.2848907 -0.09321353 -0.25669834 0.13268147
-0.26290166 0.17207652 -0.034353696 0.043937597 0.080847025 0.091078386 0.05889341 0.20895022
0.057090294 0.036547743 -0.15045798 -0.28139457 0.16053662 0.032147087 0.06571414 -0.05935144
0.18759146 0.12796871 -0.22508322 -0.069050215 0.09032962 0.21725248 -0.049382284 0.010071272
0.05519578 0.08815972 0.035004646 -0.12377897 -0.26903316 -0.11661015 0.14907128 -0.21857588
00000000: 19a6 b43d eca8 73be 7b3c f6bd 9575 5a3e
00000010: 818d 24be 6d57 72be 1527 a83e fde0 b8bd
00000020: 01d6 b23d a86a 79be 15a9 cd3e 7671 95be
00000030: ade4 e4bb 47ed 91be 0714 60be 6fc0 2a3e
00000040: 02fd 0bbe 8f1f 1fbc 6b12 36bd 134a 8a3e
00000050: 537c 1f3e a4ab fd3d 62b9 39be 8330 86bb
00000060: 1998 eb3d fcca 9b3d 475f 6e3e 10ad 18be
00000070: f3ed 5ebe fe5d cd3d a3a2 5cbe 6de5 043d
00000080: f264 d43d 5fdc 25be 82b5 09be a0b9 053e
00000090: 178a f03b a908 8dbd 23b5 40be 278e b8bc
000000a0: 4bbb 1e3e 9b4e e33c 00a2 373e 5dfa 0a3e
000000b0: 5b39 f4bd d358 c53e 1bec 25be cbe0 ac3b
000000c0: 3791 ba3e 037d c4bd a2b1 863d b6ac 1ebd
000000d0: 11ce b43b fe1d 3bbc a895 04be c44c 5a3e
000000e0: 923c 153d ce89 4ebe d784 243d 5b92 893e
000000f0: 6623 313d fbd6 23bd 8434 b1bd 982a 723e
00000100: 3180 c93c 2a70 94bd 802e 843e f996 d13e
00000110: ac45 b0bd 1445 b93d 23fb 383e 6698 193e
00000120: 3a72 823e e2b3 0c3d 15c4 b2be f2dd 143e
00000130: 6efc 88be c3dd 703e 73ae 30be 2301 043d
00000140: 68b4 4ebe 9ae2 003e 7856 5a3c 4bb0 123e
00000150: 181f 713e dbd3 97be bd6c 473e 7ec6 3fbe
00000160: d7fe 7fbc d8ee 403d 2ebf 533e 2c66 5ebd
00000170: 46ce 19bd 75df 533c 608a fdbc 58c8 e6bd
00000180: dc1d 2d3d 553f f8bc 399d 5dbe 2483 0d3d
00000190: d330 af3e ba4c 21be 8561 f1bd 2edc d1bd
000001a0: 0429 683d 1f2d 513e 36ab 69be d875 ddbd
000001b0: cdce 133e 847d da3d d4b7 03be 894a a7bd
000001c0: 9448 b43d 218a 84be 062a 953d 563a bebe
000001d0: ab2e 80ba 26d1 2f3e 71d8 dcbe aa48 7dbe
000001e0: 4281 8abe 9005 993d f86d d2bd aa06 c7bc
000001f0: da2d 483d 55ce 133e 6c44 26be ba27 0f3d
00000200: 34c5 aa3d 833d 11bd f391 823e 220b d5bd
00000210: a4be f8bc ed9b 013e f0d2 1fbe 46cd eabd
00000220: f752 2dbe f5c1 863e 1867 223e 7a90 8d3d
00000230: 4265 933e e53b 16be 4ae2 9f3d 9b0b 22be
00000240: f316 14be c7b4 583d 161b c7bc 50ad 2f3e
00000250: d4f9 963e beca 083e e2db 053e 5d48 d1be
00000260: bb78 af3d a5a9 cb3d 48f2 32bd 76e2 fbbd
00000270: 201c 4cbe d412 033c 9d11 48be b9ed 25be
00000280: c2e0 bdbe dfcc 53bd 0233 c23d fb1f 4fbe
00000290: e7d1 133c c7fc ff3d 4f39 58bd 1160 de3d
000002a0: 13e8 f3bd f0af d7bd fddc 7dbd efee a73e
000002b0: 8e2f 8fbc cddc 9b3e c70c 233e 9d75 e53d
000002c0: accd 81be eb98 5ebc 63ff 05be 39cd 9a3d
000002d0: 34ca bbbd e100 16bd f033 1fbe a2d5 1b3e
000002e0: edbc 0e3e 5c18 42bd 1c71 96be 321e c93d
000002f0: 112b 95be 4364 c1bd 0e4e 013d 3ce6 553e
00000300: 3231 c23d 0227 35bd f620 343d bf55 33be
00000310: cc99 20be 4ca9 a63d f9ff 48be 303d 3a3e
00000320: baa2 92be e06d 00be fb30 8fbe c6c8 d4bd
00000330: 0c07 6cbb 11ed 133e 4acd 7c3d b25c c23d
00000340: 7f99 323d 8ee0 f5bd 9ff0 16be c136 89be
00000350: 8bca 6abe 1a11 0ebe fba8 6cbe 0c42 843e
00000360: 1dbb 22be e677 ebb9 6a66 3bbe 4c46 e5bd
00000370: 32dd 913e bce6 bebd f76d 83be a7dd 073e
00000380: 0c9b 86be d434 303e 76b6 0cbd e9f7 333d
00000390: 2093 a53d 4e87 ba3d 373a 713d 0cf7 553e
000003a0: 83d7 693d 16b3 153d a811 1abe f312 90be
000003b0: b663 243e aaac 033d 2395 863d 7f1a 73bd
000003c0: fa17 403e 3b0a 033e 377c 66be 336a 8dbd
000003d0: bcfe b83d 6f77 5e3e 1445 4abd fa01 253c
000003e0: f814 623d 158d b43d 0861 0f3d d47f fdbd
000003f0: b7be 89be 4dd1 eebd 24a6 183e 5bd2 5fbe

lstm.weight_hh_l0_reverse f4 [64, 16]
-0.050632153 0.10436978 0.1332387 0.047847293 -0.18099315 -0.2638484 -0.0066869943 0.27234608
-0.11728989 -0.06858415 0.15254559 0.19612578 -0.22361946 0.008504023 0.09862914 0.2689313
-0.037578236 0.05268751 -0.037009947 0.16259274 -0.052500203 -0.23380709 0.020472469 -0.09745646
0.06469758 0.17433251 -0.20341803 -0.20827529 -0.021336466 0.054828875 -0.013146217 0.14376308
0.0073973453 -0.18871517 -0.012043382 0.01960301 -0.22013012 0.021471526 -0.28177902 0.22553067
0.31579608 -0.12827016 -0.04037947 0.16564591 0.16669042 -0.015468585 0.06861324 -0.28698528
-0.08512973 0.14599283 0.26517466 -0.062104594 0.36933613 -0.0027594338 -0.39322504 0.06650398
-0.32005173 0.38129342 -0.17629512 -0.23233315 -0.032837518 0.08384565 -0.046727594 -0.08317192
0.2168835 -0.22404823 -0.20519814 0.01952809 0.30667195 -0.035676695 0.040999524 0.060576227
-0.030330325 0.26687625 0.13473691 -0.23024738 -0.05845464 -0.08558672 -0.07235903 -0.09812842
0.24161133 -0.25799718 0.21449123 -0.12240023 0.17159598 -0.12409997 -0.07457749 -0.18746519
-0.2509284 0.12734713 -0.00562736 -0.17962566 0.15579955 0.11663595 -0.38026527 0.031301003
-0.24207051 0.31127676 0.35030308 0.17239097 0.32444263 -0.18806534 -0.4426939 -0.012073061
-0.05147415 -0.03147713 0.0063933274 -0.36370477 -0.05319881 0.34832224 0.0956849 -0.22923023
0.050047502 0.15794902 -0.15683335 0.23465547 -0.015578271 -0.2736902 -0.25405473 0.20140119
-0.1885666 -0.14827614 0.19235946 -0.008860937 0.23678921 0.17169715 -0.02088999 0.010539769
0.12916861 -0.04600469 0.13136132 -0.1059501 -0.19323191 0.042460773 -0.24992353 -0.10566975
-0.24965517 0.35303485 -0.26329446 0.024279613 0.20736913 0.35166252 0.110432625 -0.32595137
-0.14219952 -0.31932977 -0.12342118 -0.089663275 -0.32701555 0.015229406 -0.10699167 0.41043255
0.13192095 0.013474568 -0.2239313 -0.0998313 -0.27961555 -0.052198254 0.17399426 0.007042055
0.1921497 0.004065308 -0.13481799 -0.008693844 -0.066912696 0.028040824 -0.22418317 -0.02367579
0.03710093 -0.038521975 -0.0516181 -0.09139787 -0.23203251 -0.18840584 -0.11805585 -0.29793125
-0.17587082 0.23820361 -0.1389661 0.17129415 -0.19483654 0.052365907 -0.11213198 -0.15567632
-0.00020073334 0.31560075 -0.17143476 0.17102599 0.011269925 -0.010538567 0.054574486 0.1203048
0.17551555 0.12994255 -0.31936148 -0.049622227 -0.0033607555 -0.20664111 -0.014989152 0.04691711
-0.15156206 0.030813178 -0.17482284 0.0077367 -0.1390533 0.055106144 0.05953616 -0.017793212
-0.32285276 0.17326744 -0.109482065 -0.25248766 0.08904732 -0.26096824 0.21445452 0.3610928
-0.2324024 0.068261795 -0.22401792 -0.1652782 0.08400612 0.070904836 -0.14506756 -0.37268612
-0.08742282 0.1028095 0.21291924 -0.20747441 -0.15530582 -0.27252975 0.2209965 -0.04171821
-0.0870177 0.0018093385 -0.031954166 -0.2097877 0.14995173 -0.019658834 0.013211005 -0.048009545
0.25084135 -0.21589968 -0.027421242 0.1897811 0.07790995 -0.4516883 0.25864223 0.16763717
-0.0042654066 0.10633936 0.060187753 0.18125898 -0.081801824 -0.1849443 0.07009357 0.12881817
00000000: a963 4fbd d3bf d53d ba6f 083e 86fb 433d
00000010: 4556 39be 2317 87be 931e dbbb f270 8b3e
00000020: af35 f0bd d975 8cbd e934 1c3e 32d5 483e
00000030: 80fc 64be 7554 0b3c 13fe c93d 5db1 893e
00000040: a3eb 19bd dcce 573d be97 17bd b67e 263e
00000050: 740a 57bd 206b 6fbe e1b5 a73c 4197 c7bd
00000060: 2a80 843d 3984 323e d14c 50be 1e46 55be
00000070: d0c9 aebc 3e94 603d 3b63 57bc a136 133e
00000080: 6e65 f23b 8d3e 41be 9b51 45bc 7e96 a03c
00000090: ca69 61be 0ee5 af3c 5745 90be 83f1 663e
000000a0: 06b0 a13e 4159 03be f164 25bd 159f 293e
000000b0: e5b0 2a3e f36f 7dbc 1985 8c3d bcef 92be
000000c0: 7f58 aebd 257f 153e f9c4 873e 6361 7ebd
000000d0: a019 bd3e 9ed7 34bb cb54 c9be 3d33 883d
000000e0: d2dd a3be e438 c33e b586 34be bee8 6dbe
000000f0: a280 06bd 45b7 ab3d 6f65 3fbd 0a56 aabd
00000100: b516 5e3e e66c 65be 761f 52be 5ff9 9f3c
00000110: 1b04 9d3e ba21 12bd 1eef 273d c71e 783d
00000120: 4d77 f8bc 01a4 883e 79f8 093e f8c5 6bbe
00000130: 226e 6fbd 1748 afbd f930 94bd 8ef7 c8bd
00000140: f668 773e 3518 84be 97a3 5b3e f9ac fabd
00000150: dbb6 2f3e 2028 febd 15bc 98bd e0f6 3fbe
00000160: b079 80be 4967 023e b865 b8bb caef 37be
00000170: eb89 1f3e d4de ee3d 21b2 c2be 7b35 003d
00000180: 55e1 77be ab5f 9f3e ed5a b33e 4287 303e
00000190: 581d a63e 3394 40be c6a8 e2be 17ce 45bc
000001a0: 8fd6 52bd 2aee 00bd 1e7f d13b 8337 babe
000001b0: ffe6 59bd 4b57 b23e 72f6 c33d 54bb 6abe
000001c0: 9cfe 4c3d 63bd 213e ec98 20be 8649 703e
000001d0: 013c 7fbc 1f21 8cbe 7613 82be 1d3c 4e3e
000001e0: 9a17 41be b3d5 17be e1f9 443e 772d 11bc
000001f0: df78 723e 61d1 2f3e 7c21 abbc ffae 2c3c
00000200: c744 043e 6a6f 3cbd 9583 063e 5efc d8bd
00000210: 96de 45be 59eb 2d3d f4eb 7fbe 6269 d8bd
00000220: 9ba5 7fbe fcc0 b43e 88ce 86be 0ae6 c63c
00000230: 9358 543e 1c0d b43e 802a e23d 19e3 a6be
00000240: c09c 11be 317f a3be 3ec4 fcbd 61a1 b7bd
00000250: 956e a7be c284 793c 731e dbbd 3724 d23e
00000260: 4916 073e 6fc4 5c3c 3f4e 65be 5a74 ccbd
00000270: c529 8fbe d6cd 55bd 8d2b 323e 0ac1 e63b
00000280: e4c2 443e 4636 853b ba0d 0abe a070 0ebc
00000290: 8609 89bd dfb5 e53c 4690 65be bbf3 c1bc
000002a0: 25f7 173d 38c9 1dbd 806d 53bd ce2e bbbd
000002b0: ee99 6dbe 76ed 40be 44c7 f1bd 728a 98be
000002c0: 7b17 34be a6eb 733e 214d 0ebe bc67 2f3e
000002d0: 3b83 47be a27d 563d 74a5 e5bd 9d69 1fbe
000002e0: f27b 52b9 6c96 a13e 988c 2fbe 7021 2f3e
000002f0: 7ea5 383c f4a9 2cbc 7f89 5f3d 5d62 f63d
00000300: 59ba 333e a90f 053e 5983 a3be ad40 4bbd
00000310: 1f40 5cbb ba99 53be 0f95 75bc 282c 403d
00000320: 1633 1bbe eb6b fc3c c204 33be 2584 fd3b
00000330: fd63 0ebe fbb6 613d 30dc 733d 12c3 91bc
00000340: f54c a5be 056d 313e 2238 e0bd 1046 81be
00000350: 715e b63d a19d 85be f799 5b3e 28e1 b83e
00000360: e5fa 6dbe d7cc 8b3d f464 65be b03e 29be
00000370: 670b ac3d 8e36 913d 978c 14be b7d0 bebe
00000380: bc0a b3bd ca8d d23d 8007 5a3e 2c74 54be
00000390: 7d08 1fbe 0589 8bbe e84c 623e b7e0 2abd
000003a0: 5636 b2bd 5327 ed3a 5fe2 02bd 96d2 56be
000003b0: f28c 193e 900b a1bc f972 583c a8a5 44bd
000003c0: 476e 803e ce14 5dbe 83a2 e0bc fa55 423e
000003d0: 408f 9f3d b043 e7be c16c 843e 14a9 2b3e
000003e0: d3c4 8bbb 73c8 d93d 6f87 763d f49b 393e
000003f0: b787 a7bd 0a62 3dbe 388d 8f3d e9e8 033e

lstm.bias_ih_l0_reverse f4 [64]
0.0135643575 0.052644502 -0.08463196 0.11194623 0.31948182 0.2137093 0.13387756 0.06652007
-0.05182313 0.36394364 0.044570304 0.11669648 -0.05561892 0.13569225 0.24696246 0.013861541
0.037951257 -0.0064374637 0.056124624 0.055763315 0.19189626 0.049211167 -0.111750744 0.0598877
0.26199555 0.021291643 0.076574564 -0.0268997 -0.16513894 0.34039924 0.013610043 -0.12351024
-0.33624074 -0.15659003 -0.21275376 0.17580561 0.21959782 -0.16179967 -0.2555383 0.2573292
-0.126408 0.53684044 -0.22925647 -0.104752265 -0.21551318 0.10050801 0.18919492 -0.11888987
-0.08716036 0.20058933 0.009423211 0.29624015 0.40772638 0.29222906 0.30529886 0.027223136
0.039934 -0.099792175 0.30830452 0.10546101 0.20068671 -0.032455653 0.18948366 0.29504448
00000000: 0a3d 5e3c c3a1 573d 8553 adbd 1144 e53d
00000010: 1f93 a33e 9cd6 5a3e 3317 093e ad3b 883d
00000020: 7e44 54bd d256 ba3e 5a8f 363d 90fe ee3d
00000030: aad0 63bd e9f2 0a3e bae3 7c3e 841b 633c
00000040: c772 1b3d 5cf1 d2bb efe2 653d 1368 643d
00000050: 7480 443e a691 493d 93dd e4bd ce4c 753d
00000060: 4824 863e d06b ae3c 20d3 9c3d c25c dcbc
00000070: 2f1a 29be cf48 ae3e a8fc 5e3c f0f2 fcbd
00000080: bf27 acbe 2359 20be 1fdc 59be 6306 343e
00000090: 40de 603e d0ae 25be ebd5 82be a7c0 833e
000000a0: 1971 01be 606e 093f 35c2 6abe 5b88 d6bd
000000b0: 7daf 5cbe 25d7 cd3d 50bc 413e 887c f3bd
000000c0: 2181 b2bd 4a67 4d3e d063 1a3c caac 973e
000000d0: 83c1 d03e 0c9f 953e 2250 9c3e 0e03 df3c
000000e0: d591 233d d75f ccbd 17da 9d3e f1fb d73d
000000f0: d180 4d3e 38f0 04bd 0108 423e 1210 973e

lstm.bias_hh_l0_reverse f4 [64]
0.13423455 0.24010146 -0.039215736 0.24366112 0.062109176 -0.118283175 0.010743287 0.1433158
-0.0995769 0.41629848 0.014097304 0.111836426 0.09136407 -0.013575979 0.123874135 0.09188048
-0.015814425 0.18903036 0.030001119 0.10170987 0.10817074 0.07398519 -0.10655093 0.1815682
-0.011963174 0.16942176 0.1532525 0.031097395 0.19022809 0.33420455 -0.10986101 -0.054259107
-0.052097373 -0.011249985 0.084880814 -0.23917 -0.10569864 0.040148854 0.089322336 -0.047572732
-0.002478705 0.32435986 -0.21013395 0.10069407 0.21020557 0.3855933 -0.037204165 -0.0904385
0.13192649 0.20896977 0.014064016 0.28425637 0.30748755 0.31978902 -0.003761222 0.35734957
0.01573191 0.066672646 0.34249538 0.03477048 0.11408836 0.36517945 0.20141892 0.062436894
00000000: c874 093e 28dd 753e aea0 20bd 4d82 793e
00000010: 3166 7e3d 733e f2bd 9d04 303c 61c1 123e
00000020: f9ee cbbd 1325 d53e 61f8 663c 7f0a e53d
00000030: 161d bb3d c86d 5ebc b9b1 fd3d d52b bc3d
00000040: 418d 81bc 2d91 413e e8c4 f53c 444d d03d
00000050: 9f88 dd3d 8c85 973d 6037 dabd 04ed 393e
00000060: 3001 44bc e67c 2d3e 39ee 1c3e f7bf fe3c
00000070: 27cb 423e dc1c ab3e cffe e0bd cc3e 5ebd
00000080: 0e64 55bd db51 38bc fed5 ad3d fbe8 74be
00000090: 8778 d8bd 2073 243d a1ee b63d a0db 42bd
000000a0: c571 22bb 7f12 a63e 5b2d 57be b138 ce3d
000000b0: 2140 573e 7c6c c53e 6563 18bd d237 b9bd
000000c0: bd17 073e 2cfc 553e c26c 663c 0d8a 913e
000000d0: 026f 9d3e 63bb a33e d57e 76bb 86f6 b63e
000000e0: 35e0 803c ab8b 883d 8e5b af3e 7e6b 0e3d
000000f0: 28a7 e93d cdf8 ba3e c340 4e3e d4bd 7f3d

lstm.weight_ih_l1 f4 [64, 32]
-0.06425079 -0.2719042 -0.24734525 0.09870585 0.043882225 0.09027452 -0.08873564 0.21370277
-0.20230976 -0.006709744 -0.16589327 -0.34842268 0.08620193 -0.16447872 -0.14535357 -0.19865297
-0.010218726 -0.19120272 -0.40711272 0.310282 -0.14701487 -0.272172 0.093503155 -0.0016639062
0.04622807 -0.22217593 -0.18757346 0.22917661 -0.25467238 0.17051688 -0.21490835 -0.089641556
-0.26234987 -0.03899397 -0.4063578 0.012642873 -0.12707709 0.14336209 -0.22764908 0.4408597
-0.33723316 -0.045783732 0.3434735 0.14019084 0.17166385 0.004262233 -0.22461967 0.25443935
-0.2857414 0.23964827 0.27094963 -0.48845628 0.31526327 0.10666535 0.092427365 0.35153756
-0.1784469 0.15608326 -0.13406438 -0.08790475 0.23186395 0.104003705 -0.027143408 0.056426656
-0.4247876 -0.33814082 -0.14427046 -0.081074886 0.021784825 -0.15989111 0.038740862 0.094520986
-0.34434092 0.3564455 0.40672246 -0.6670655 0.2514835 -0.31767032 -0.109764926 0.16811596
-0.27592593 -0.32430875 -0.009388528 -0.11503347 -0.017225262 -0.45400423 -0.14667186 0.31766036
-0.18813555 -0.005384308 -0.29662523 0.40586478 -0.16383427 0.5640741 0.34758753 -0.4715799
0.18080485 -0.3453294 0.19688949 0.20121354 0.12507187 0.21167752 -0.014495409 -0.00301197
-0.10650225 -0.062076565 -0.18184829 -0.10708438 -0.1912669 0.21366245 0.14964813 -0.24358352
-0.31699908 -0.07900306 -0.28709838 0.075308844 0.0904934 0.08591086 -0.02045034 0.11580799
-0.41191137 -0.08105872 -0.3085786 -0.24341571 -0.16812097 0.22635205 -0.090347566 -0.086039
-0.25647327 -0.21979065 -0.24372625 0.17828038 0.16932699 0.22213112 -0.0070185782 0.40449932
-0.46467862 0.21098173 0.47746277 -0.22183333 -0.2821716 0.08038387 0.14060976 0.10047495
-0.17629425 -0.15010439 -0.12251432 -0.03675185 0.04037468 -0.585364 -0.33272648 0.22828497
-0.39043993 0.41065133 -0.21889181 0.06607691 0.29983553 0.43418688 -0.16891493 -0.20556541
-0.07273045 -0.037660934 -0.018742202 0.26580003 0.09951762 -0.019602794 -0.08237291 0.20727326
-0.2628831 0.045291767 0.10416715 -0.103522316 0.0036792294 0.20613004 -0.111066915 -0.091859736
0.19680533 0.049757224 -0.011194568 -0.23359054 -0.04381654 0.06207454 -0.15529916 -0.010838764
-0.16985972 -0.03711553 0.03803235 -0.26452416 0.33030933 -0.0033556535 0.11461128 -0.10138468
-0.09141925 0.16679254 -0.04850177 0.10613668 -0.33762512 -0.029021565 -0.14551902 0.29288748
-0.19725837 -0.08327569 0.25638962 -0.05416139 -0.08529061 0.2500007 -0.5292873 0.30967233
-0.24199542 0.13499267 0.054865193 -0.32634667 0.2767386 -0.2643525 -0.17202984 0.18011412
-0.3197533 0.04482259 -0.031001935 -0.2540277 -0.1908044 -0.104076825 -0.35675207 0.22254984
-0.3870964 -0.10452351 -0.49317297 -0.11643656 -0.15329994 0.082654215 -0.26082548 0.48586857
-0.48433715 0.06994042 0.37646773 -0.2759137 0.012475567 0.21945012 0.008408373 0.3675197
-0.25585833 -0.3536081 0.030796062 -0.024577588 0.3499148 -0.3916034 -0.0986514 0.56541336
-0.1381709 0.680352 -0.5124 -0.02956805 0.19122994 0.57560295 0.17113893 0.038983487
00000000: eb95 83bd 0737 8bbe 1348 7dbe 4b26 ca3d
00000010: d9bd 333d d9e1 b83d 08bb b5bd e6d4 5a3e
00000020: 4a2a 4fbe 6add dbbb eddf 29be 7564 b2be
00000030: a38a b03d 1c6d 28be 91d7 14be af6b 4bbe
00000040: 716c 27bc a5ca 43be 1471 d0be 48dd 9e3e
00000050: 118b 16be 215a 8bbe 957e bf3d 6d17 daba
00000060: a559 3d3d 1682 63be 4213 40be 46ad 6a3e
00000070: 6b64 82be fa9b 2e3e ef10 5cbe fe95 b7bd
00000080: b952 86be 24b8 1fbd 210e d0be 0e24 4f3c
00000090: 7f20 02be 83cd 123e d71c 69be 5db8 e13e
000000a0: d3a9 acbe b987 3bbd c2db af3e 308e 0f3e
000000b0: a6c8 2f3e 34aa 8b3b b302 66be e045 823e
000000c0: b24c 92be 5b66 753e e9b9 8a3e f116 fabe
000000d0: 306a a13e 5d73 da3d 8f4a bd3d bbfc b33e
000000e0: c9ba 36be 4ad4 1f3e 2c48 09be 6807 b4bd
000000f0: be6d 6d3e e5ff d43d da5b debc a31f 673d
00000100: c37d d9be cb20 adbe a3bb 13be 970a a6bd
00000110: 1776 b23c 7fba 23be bdae 1e3d 3894 c13d
00000120: 744d b0be 0680 b63e ed3d d03e cec4 2abf
00000130: 72c2 803e afa5 a2be 6fcc e0bd 9726 2c3e
00000140: 2a46 8dbe cc0b a6be 57d2 19bc ab96 ebbd
00000150: fe1b 8dbc 3e73 e8be 2631 16be 61a4 a23e
00000160: 9ba6 40be d96e b0bb 43df 97be 82cd cf3e
00000170: 2cc4 27be 2967 103f fef6 b13e ec72 f1be
00000180: e824 393e 04cf b0be 669d 493e ec0a 4e3e
00000190: d712 003e fec1 583e 277e 6dbc 7964 45bb
000001a0: da1d dabd ff43 7ebd 7036 3abe 0e4f dbbd
000001b0: 78db 43be 54ca 5a3e 5c3d 193e f56d 79be
000001c0: b44d a2be 5bcc a1bd 8ffe 92be 863b 9a3d
000001d0: 9b54 b93d 08f2 af3d 7987 a7bc bd2c ed3d
000001e0: 0ce6 d2be 1d02 a6bd 04fe 9dbe f841 79be
000001f0: e727 2cbe d5c8 673e 2508 b9bd 3735 b0bd
00000200: 7750 83be cd10 61be 6093 79be 228f 363e
00000210: 0e64 2d3e 5776 633e 1afc e5bb 891a cf3e
00000220: 5bea edbe 980b 583e 0076 f43e 4728 63be
00000230: cc78 90be 4ca0 a43d 01fc 0f3e d0c5 cd3d
00000240: 7b86 34be f7b4 19be cae8 fabd 1c89 16bd
00000250: ec5f 253d 6ada 15bf 205b aabe 89c3 693e
00000260: bee7 c7be e440 d23e 2d25 60be 5553 873d
00000270: 0b84 993e be4d de3e 09f8 2cbe bd7f 52be
00000280: b4f3 94bd 5a42 1abd 3f89 99bc f116 883e
00000290: e5cf cb3d 0a96 a0bc 21b3 a8bd 713f 543e
000002a0: 9d98 86be dc83 393d 9655 d53d 8203 d4bd
000002b0: 3a1f 713b c113 533e 0d77 e3bd f520 bcbd
000002c0: 5687 493e 3bce 4b3d 6c69 37bc 5c32 6fbe
000002d0: f978 33bd df41 7e3d be06 1fbe 1295 31bc
000002e0: b5ef 2dbe 7406 18bd cfc7 1b3d b66f 87be
000002f0: 4e1e a93e 86ea 5bbb 52b9 ea3d c5a2 cfbd
00000300: 043a bbbd aacb 2a3e cba9 46bd 305e d93d
00000310: 33dd acbe a2be edbc f002 15be 59f5 953e
00000320: 19fe 49be 728c aabd 8045 833e 55d8 5dbd
00000330: d8ac aebd 1700 803e 5f7f 07bf 5f8d 9e3e
00000340: a6cd 77be 853b 0a3e 53ba 603d e916 a7be
00000350: afb0 8d3e 3659 87be 9728 30be d66f 383e
00000360: b4b6 a3be e497 373d c5f7 fdbc eb0f 82be
00000370: 3b62 43be 3b26 d5bd 35a8 b6be 1be4 633e
00000380: 8031 c6be 6c10 d6bd 2b81 fcbe 4b76 eebd
00000390: a9fa 1cbe 9d46 a93d eb8a 85be c4c3 f83e
000003a0: 0afb f7be ec3c 8f3d 61c0 c03e 8f44 8dbe
000003b0: 5266 4c3c 88b7 603e 46c3 093c 8b2b bc3e
000003c0: ddff 82be 1f0c b5be 0648 fc3c f056 c9bc
000003d0: 0828 b33e 3e80 c8be bf09 cabd eebe 103f
000003e0: ac7c 0dbe 8c2b 2e3f a52c 03bf b238 f2bc
000003f0: c8d1 433e b75a 133f 0b3f 2f3e 26ad 1f3d

lstm.weight_hh_l1 f4 [64, 16]
0.119737305 0.13247126 -0.16131888 -0.22916795 0.13639128 0.02169478 -0.14867969 -0.20552887
-0.15720363 0.065193735 -0.084181584 -0.15964453 -0.017346732 0.0083105415 -0.23624705 0.3143835
0.4219329 0.1198577 -0.10890538 -0.23725085 -0.040002298 0.22157873 -0.2181258 0.19514352
0.045359503 0.045876835 0.24972697 -0.044171534 -0.0360084 0.23257 0.17497937 -0.18018311
0.018143484 0.14171836 -0.0152728 -0.20684986 0.35196072 0.19219217 0.03748462 -0.24164368
0.022757698 -0.09809079 0.016157484 0.00665438 -0.38363647 -0.024202386 0.035977438 -0.11911045
0.14883645 -0.07336042 -0.16209249 0.013803925 -0.056538247 0.27763614 -0.17764404 -0.20444266
0.30637687 0.056517556 0.23997575 0.28923988 0.20544009 0.19504479 0.20059136 -0.23109515
0.18023509 0.11631579 0.26934168 0.11506943 0.2664572 -0.30139422 -0.20941585 -0.17966712
0.1502694 -0.3324475 0.16949216 0.023295984 -0.033939414 0.39480326 -0.049308985 -0.28048933
0.2935728 -0.10156611 0.08244044 -0.26632315 0.23131311 0.2336928 0.110560454 0.15310952
0.23165484 -0.2893956 0.1268277 0.347093 0.045313694 -0.10394926 0.21806408 0.12657773
-0.13112259 -0.15414073 -0.1134463 -0.36722705 -0.0048574223 -0.018668724 -0.24897535 -0.28804258
-0.119475506 0.0152720995 -0.047941886 0.42693514 0.15023336 0.3698047 0.2534432 0.24316944
0.12320668 0.2590729 -0.08912732 -0.311276 0.3804269 0.15769921 0.13899381 -0.033744823
0.16839145 -0.0915566 0.07107949 0.038904916 -0.1691605 0.05468373 0.23460555 0.0750598
0.14373839 -0.036470804 0.1282524 -0.0578495 -0.15628411 0.18674916 -0.22256154 0.09441702
-0.21066861 0.102211006 0.108281694 -0.14580661 -0.16173366 -0.19467878 0.061886802 -0.008365961
0.27123007 0.27065673 0.14384197 -0.1466381 -0.000934145 0.18085448 -0.2876632 0.051922407
0.40970197 -0.2748394 0.20193443 0.09816992 -0.13276632 0.31463343 0.17575167 0.19671798
0.2666256 -0.030983644 0.23397215 0.15706265 0.15050402 -0.2319891 -0.016936053 -0.19999553
0.08959534 -0.1989229 0.22755992 -0.10114588 -0.21035573 0.26379058 -0.060174286 0.2666259
0.007280902 0.15306339 -0.14222802 -0.023422252 0.14556117 -0.009952442 -0.055674 0.07066834
0.09128429 -0.18133599 -0.14038906 0.17655112 0.1288915 -0.04185866 0.08839613 0.12113316
0.32933664 -0.09578198 0.24922256 -0.2009374 0.16287088 0.026744723 -0.033103 0.16154595
0.20110983 0.15757853 -0.10518233 -0.17436005 0.07932826 -0.03230462 0.009647457 0.0067938883
0.19764018 0.065939724 -0.042190697 -0.29307228 0.07246856 0.103984706 -0.308664 0.20799237
0.212535 -0.011126407 0.22170182 0.10234455 -0.09100196 -0.0028830073 0.10919501 0.036146753
0.1273242 0.25992823 0.22093569 -0.23463975 0.2518244 0.09044216 -0.28348053 0.24862266
0.22628008 0.20235406 -0.20028332 -0.08753272 -0.026883047 -0.121901 0.028217446 0.0195303
0.26036784 0.07590077 0.15782282 0.0076193507 0.38677654 0.0003673571 -0.36215585 -0.29318362
0.35305387 -0.08895208 0.059063803 0.062428255 -0.2772273 -0.038843468 0.22633912 0.19189486
00000000: d538 f53d 8ca6 073e c730 25be 01ab 6abe
00000010: 28aa 0b3e 40b9 b13c 7d3f 18be 2976 52be
00000020: fdf9 20be 4b84 853d 6567 acbd db79 23be
00000030: bc1a 8ebc f028 083c bfea 71be e0f6 a03e
00000040: 9707 d83e f477 f53d c909 dfbd e3f1 72be
00000050: 73d9 23bd 89e5 623e 5f5c 5fbe b4d3 473e
00000060: e3ca 393d 59e9 3b3d 6db8 7f3e 36ed 34bd
00000070: 8b7d 13bd d526 6e3e cb2d 333e ec81 38be
00000080: a5a1 943c 9e1e 113e c43a 7abc 73d0 53be
00000090: 3234 b43e 06ce 443e 7989 193d 7171 77be
000000a0: 5a6e ba3c d3e3 c8bd b35c 843c fc0c da3b
000000b0: 006c c4be 1544 c6bc 145d 133d 2ef0 f3bd
000000c0: 9568 183e fd3d 96bd 93fb 25be dc29 623c
000000d0: a694 67bd 5326 8e3e 52e8 35be 6b59 51be
000000e0: 6edd 9c3e f47e 673d 34bc 753e 4017 943e
000000f0: e35e 523e d2b9 473e d267 4d3e 35a4 6cbe
00000100: 8c8f 383e f936 ee3d 27e7 893e 85a9 eb3d
00000110: 146d 883e 5850 9abe 1c71 56be a8fa 37be
00000120: 39e0 193e 8f36 aabe 5a8f 2d3e 38d7 be3c
00000130: 0e04 0bbd a723 ca3e 38f8 49bd 4c9c 8fbe
00000140: 2d4f 963e e501 d0bd 89d6 a83d 825b 88be
00000150: 58dd 6c3e 2a4d 6f3e 856d e23d bec8 1c3e
00000160: ed36 6d3e a92b 94be 1fdf 013e 2cb6 b13e
00000170: da9a 393d 5ae3 d4bd 314c 5f3e 989d 013e
00000180: 0045 06be 11d7 1dbe 8956 e8bd 2f05 bcbe
00000190: 032b 9fbb 27ef 98bc 65f3 7ebe 517a 93be
000001a0: 93af f4bd d437 7a3c b65e 44bd 3e97 da3e
000001b0: c6d6 193e 0b57 bd3e 4fc3 813e 6901 793e
000001c0: c953 fc3d 34a5 843e 6288 b6bd 915f 9fbe
000001d0: 51c7 c23e e77b 213e 6554 0e3e 0338 0abd
000001e0: cf6e 2c3e 0782 bbbd 2092 913d c35a 1f3d
000001f0: 6938 2dbe 0cfc 5f3d 703c 703e f4b8 993d
00000200: 2830 133e 6962 15bd 9954 033e 99f3 6cbd
00000210: f108 20be 2c3b 3f3e 2ce7 63be b65d c13d
00000220: 83b9 57be 0154 d13d cbc2 dd3d 544e 15be
00000230: 829d 25be e059 47be 047d 7d3d 6211 09bc
00000240: abde 8a3e 8593 8a3e 4f4b 133e 4c28 16be
00000250: 69e1 74ba eb31 393e 9748 93be 97ac 543d
00000260: 75c4 d13e c0b7 8cbe e6c7 4e3e 500d c93d
00000270: e5f3 07be a217 a13e 3ff8 333e 7070 493e
00000280: 2783 883e 69d1 fdbc 6596 6f3e 08d5 203e
00000290: ba1d 1a3e 8d8e 6dbe 7abd 8abc a1cb 4cbe
000002a0: c37d b73d 72b2 4bbe 7805 693e 9225 cfbd
000002b0: 7e67 57be 8f0f 873e 5079 76bd 3183 883e
000002c0: a294 ee3b a6bc 1c3e 39a4 11be 06e0 bfbc
000002d0: fd0d 153e 910f 23bc 6c0a 64bd 90ba 903d
000002e0: 42f3 ba3d 24b0 39be 26c2 0fbe d1c9 343e
000002f0: 22fc 033e fc73 2bbd 0809 b53d aa14 f83d
00000300: d09e a83e 5829 c4bd 3334 7f3e 89c2 4dbe
00000310: a0c7 263e c017 db3c 0397 07bd 4d6c 253e
00000320: bcef 4d3e 445c 213e d569 d7bd 718b 32be
00000330: db76 a23d d951 04bd 5e10 1e3c 449f de3b
00000340: 3062 4a3e 680b 873d 27d0 2cbd 920d 96be
00000350: 656a 943d eff5 d43d 3509 9ebe f4fb 543e
00000360: c6a2 593e 894b 36bc cd05 633e 059a d13d
00000370: 3c5f babd d6f0 3cbb a2a1 df3d 9e0e 143d
00000380: 4661 023e 5015 853e f73c 623e 6745 70be
00000390: 21ef 803e bd39 b93d 5c24 91be f096 7e3e
000003a0: f7b5 673e e735 4f3e 1217 4dbe 5b44 b3bd
000003b0: d639 dcbc 3ba7 f9bd 4628 e73c 02fe 9f3c
000003c0: ef4e 853e dd71 9b3d 4e9c 213e bfab f93b
000003d0: 9307 c63e d699 c039 7e6c b9be 2a1c 96be
000003e0: 7ac3 b43e 822c b6bd e3ec 713d c5b4 7f3d
000003f0: bdf0 8dbe 541a 1fbd 71c5 673e 1680 443e

lstm.bias_ih_l1 f4 [64]
0.003251305 0.2720649 0.2105704 0.2802924 0.5274599 0.1457042 0.33119947 0.6375034
0.30153385 0.37440184 0.023066644 0.23314798 0.24243315 0.06399053 0.22454315 0.21042606
-0.035399765 0.03719041 0.25976452 0.04314957 0.02454969 -0.07334611 0.13550884 0.2382708
0.10136767 0.2703458 0.20735864 -0.08811311 0.0030835213 -0.041449428 0.24790935 0.0088593075
0.26539034 0.15545516 0.19598092 0.094786935 -0.005863847 0.10265143 -0.20409702 -0.18233497
0.2554166 -0.19274817 0.1320849 0.13665909 -0.09198779 -0.030439997 0.11418793 -0.054550003
-0.1825791 0.5160996 0.19775066 0.16100061 0.32421455 0.43897766 0.16809943 0.09676041
0.40671837 -0.017831875 0.13901778 0.036375877 0.30011654 0.4221659 -0.01770091 0.6088575
00000000: d913 553b 174c 8b3e c49f 573e 7c82 8f3e
00000010: 9d07 073f 7b33 153e fa92 a93e 6c33 233f
00000020: a562 9a3e 99b1 bf3e 42f6 bc3c 58be 6e3e
00000030: 6540 783e 780d 833d a4ee 653e ee79 573e
00000040: 58ff 10bd f954 183d dbff 843e 9abd 303d
00000050: 6e1c c93c 7c36 96bd d4c2 0a3e 43fd 733e
00000060: da99 cf3d c46a 8a3e d355 543e a574 b4bd
00000070: e714 4a3b e0c6 29bd f3db 7d3e a126 113c
00000080: 3ee1 873e a32f 1f3e 39af 483e a71f c23d
00000090: 8425 c0bb ea3a d23d cffe 50be 05b6 3abe
000000a0: f7c5 823e c75f 45be 4441 073e 5cf0 0b3e
000000b0: 1864 bcbd 4d5d f9bc 5ddb e93d d36f 5fbd
000000c0: 04f6 3abe 1a1f 043f 267f 4a3e 58dd 243e
000000d0: 73ff a53e aec1 e03e 4222 2c3e 522a c63d
000000e0: 643d d03e 2714 92bc ad5a 0e3e dffe 143d
000000f0: e0a8 993e 2126 d83e 8001 91bc 16de 1b3f

lstm.bias_hh_l1 f4 [64]
0.2002889 0.09258167 0.32642832 0.0046127927 0.18388014 0.4351166 0.4084592 0.52590704
-0.05897428 0.4325459 0.2925585 0.1317126 -0.084373444 0.52587146 0.1353089 0.23809993
-0.21470779 0.121216945 0.2484588 0.12866415 0.33257443 0.06842662 -0.03770035 -0.12862091
0.26143968 0.12926093 -0.18816958 -0.17602497 0.2791334 -0.08457587 0.121040486 -0.06161844
0.13300009 -0.020374056 0.119976655 -0.16704224 0.28759372 -0.10170989 -0.33617684 0.020010078
0.1397603 -0.13527173 -0.07555104 0.20820153 -0.105958 0.118950434 0.25741267 0.09980136
0.1965476 0.17311071 -0.014109069 0.008336572 0.121667735 0.25121447 0.2598005 0.02680273
0.31772035 0.3980129 0.2602217 0.29178712 0.30618733 0.22489789 0.014099779 0.19296311
00000000: 8918 4d3e 759b bd3d 9d21 a73e e926 973b
00000010: 134b 3c3e 9ac7 de3e 9021 d13e d8a1 063f
00000020: 048f 71bd a876 dd3e 3aca 953e abdf 063e
00000030: fccb acbd 839f 063f 6b8e 0a3e 78d0 733e
00000040: 5cdc 5bbe 9740 f83d fc6b 7e3e 89c0 033e
00000050: 3247 aa3e 4123 8c3d af6b 1abd 33b5 03be
00000060: 6cdb 853e fa5c 043e 87af 40be e43f 34be
00000070: 93ea 8e3e 1d36 adbd 13e4 f73d 9e63 7cbd
00000080: 2d31 083e 7ee7 a6bc 52b6 f53d 1f0d 2bbe
00000090: 7c3f 933e 464d d0bd 5f1f acbe 2dec a33c
000000a0: 531d 0f3e ac84 0abe 81ba 9abd c832 553e
000000b0: 8200 d9bd 499c f33d 98cb 833e a864 cc3d
000000c0: c643 493e ef43 313e b929 67bc 1e96 083c
000000d0: ef2c f93d 2f9f 803e 9204 853e 6691 db3c
000000e0: 3eac a23e 59c8 cb3e c73b 853e 1f65 953e
000000f0: 96c4 9c3e a24b 663e c202 673c 1f98 453e
