trained_models/H1_left_out_model.pth (torch, 588134 bytes, 10 tensors)

lstm.weight_ih_l0 f4 [512, 9]
0.052673846 -0.026990764 -0.04600536 0.059011195 -0.07922644 0.07412728 0.00782188 0.028986521
-0.057509754 -0.059227787 -0.018955272 -0.059224553 0.05155212 -0.089415886 0.045854043 -0.06589152
-0.041714586 -0.09333612 0.11091351 0.0037898235 -0.074244864 -0.100846805 -0.07499649 -0.042563956
-0.039241303 -0.031330965 -0.0791549 0.07254126 -0.1515448 0.088560335 0.05170812 0.112472
0.10144263 -0.0675513 -0.08095859 -0.1535353 0.13589232 0.0030202377 0.047687326 -0.013069885
0.09886326 -0.05971899 0.086882934 -0.0076786685 -0.10757232 0.06781573 -0.03499756 0.020773964
-0.028988631 -0.01767806 -0.09562827 -0.047091987 0.023549952 -0.0708805 0.07290164 0.07923425
-0.018958505 -0.06798123 0.028858611 0.008007108 -0.052726798 0.016105643 0.055670436 0.0061816485
-0.026585286 -0.077418655 -0.040548347 -0.0006237507 -0.038622692 -0.12059533 0.085458584 -0.09757265
-0.0108862035 0.07786649 -0.002648383 0.024504766 0.012121425 0.06509398 -0.12343417 0.061330795
-0.15287676 -0.06650545 -0.0007296122 0.005825608 0.052457985 -0.055207387 -0.07744093 0.078960225
-0.018161967 -0.031344935 -0.016304877 -0.038690843 -0.00041616478 0.028973928 -0.06910836 -0.057735957
-0.016003093 0.039352283 0.0011817272 -0.02334104 0.037146464 -0.011398993 0.032358512 0.09626755
-0.061475284 -3.899371e-05 0.147126 0.058102615 0.08459169 0.020854821 0.05440364 0.06691221
0.12419336 -0.087150685 0.101331435 0.10902748 0.14138708 0.012009322 -0.1709609 -0.08193613
-0.058875337 -0.050495896 0.09676494 -0.24205683 -0.013437843 -0.07782741 -0.12811978 -0.08046472
5.1211282e-05 0.052758683 -0.10222778 -0.01449547 0.15386432 0.04172372 0.08428545 0.10422023
0.06535697 0.06363386 -0.041235812 -0.042236846 -0.031767122 0.017613959 -0.051615022 0.02115184
0.04937924 -0.033783846 0.07234889 0.10944103 0.12328096 0.079462394 -0.045454673 0.12687501
0.012405243 0.06775504 -0.13539833 -0.09889294 -0.029356213 -0.102750376 0.08208096 -0.027549103
-0.09843676 -0.050473522 -0.007857062 0.02699162 -0.101171784 -0.012147082 -0.07420323 -0.06794252
0.06764321 -0.02303476 0.113613024 -0.027890088 0.1088746 0.06382231 0.1290324 0.16003196
0.16995768 -0.08451435 -0.04720444 0.019875828 -0.098218575 -0.07046372 -0.13218346 -0.05197007
-0.109058805 0.04059956 -0.10384252 -0.11778306 -0.043743115 -0.12158036 -0.003017997 -0.10854328
-0.09576107 -0.04594071 0.03061953 0.01441745 0.04660523 0.121983975 0.110523775 0.0040673865
0.0032388142 -0.03513299 0.07431729 -0.075295426 0.14386368 0.005232062 0.02161625 -0.033267137
-0.10489787 -0.037419617 -0.037485775 -0.0989129 -0.069704264 0.108514056 0.051453255 0.049216356
0.027537683 -0.020294271 -0.05667614 0.063688874 -0.04119028 0.11693865 -0.12260124 -0.1047857
-0.053338565 -0.06541993 -0.07063979 0.0014972908 0.050814796 0.047538992 0.0030928687 -0.09061024
0.040690128 -0.07320809 -0.049750164 -0.09567751 -0.055593483 0.05059861 0.082214594 -0.13840206
-0.026956642 0.0413164 -0.073647186 -0.016761394 0.051772088 0.00048092828 -0.10984393 -0.1598183
-0.021146424 0.051791925 0.024382925 -0.03140353 0.0011641395 0.05226598 0.017760865 -0.021585846
00000000: 88c0 573d bc1b ddbc 1e70 3cbd b9b5 713d
00000010: 7941 a2bd 0bd0 973d 5827 003c 2475 ed3c
00000020: 598f 6bbd d698 72bd 1648 9bbc 7295 72bd
00000030: 5128 533d ad1f b7bd 73d1 3b3d 22f2 86bd
00000040: eadc 2abd 0227 bfbd 9f26 e33d b05e 783b
00000050: b10d 98bd c588 cebd c297 99bd 8b57 2ebd
00000060: 7dbb 20bd e654 00bd f71b a2bd 8390 943d
00000070: 8f2e 1bbe 1f5f b53d e5cb 533d b857 e63d
00000080: 27c1 cf3d 5658 8abd 9ecd a5bd 5c38 1dbe
00000090: 5b27 0b3e 2eef 453b c953 433d 1223 56bc
000000a0: d278 ca3d e69b 74bd aeef b13d 579d fbbb
000000b0: e04e dcbd f9e2 8a3d 9a59 0fbd 292e aa3c
000000c0: 9179 edbc 94d1 90bc c1d8 c3bd 87e3 40bd
000000d0: d4eb c03c cc29 91bd 744d 953d 9145 a23d
000000e0: de4e 9bbc be39 8bbd e568 ec3c 3f30 033c
000000f0: 0ef8 57bd fbef 833c af06 643d 6d8f ca3b
00000100: 63c9 d9bc ac8d 9ebd 0616 26bd 3383 23ba
00000110: d432 1ebd affa f6bd e904 af3d 2bd4 c7bd
00000120: 0c5c 32bc 7778 9f3d 7e90 2dbb 38be c83c
00000130: f198 463c fe4f 853d 0ecb fcbd 0036 7b3d
00000140: ba8b 1cbe 0234 88bd 7243 3fba bee4 be3b
00000150: 2fde 563d 2421 62bd 5a99 9ebd e6b5 a13d
00000160: 68c8 94bc 8c63 00bd ce91 85bc 4a7a 1ebd
00000170: b130 dab9 bb5a ed3c af88 8dbd 8a7c 6cbd
00000180: eb18 83bc dc2f 213d 2fe4 9a3a b535 bfbc
00000190: e426 183d d8c2 3abc 5c8a 043d ec27 c53d
000001a0: 82cd 7bbd 2d8d 23b8 33a8 163e 02fd 6d3d
000001b0: 683e ad3d bbd7 aa3c 5ad6 5e3d 4509 893d
000001c0: 1759 fe3d 0f7c b2bd db86 cf3d cd49 df3d
000001d0: c6c7 103e bfc2 443c 6010 2fbe 21ce a7bd
000001e0: 4427 71bd c9d4 4ebd b22c c63d bfdd 77be
000001f0: 662a 5cbc fa63 9fbd d531 03be b0ca a4bd
00000200: b2cb 5638 7d19 583d cc5c d1bd 687e 6dbc
00000210: 9c8e 1d3e 7ee6 2a3d da9d ac3d 6a71 d53d
00000220: e0d9 853d 7852 823d e2e6 28bd 8b00 2dbd
00000230: 3e1e 02bd 264b 903c 466a 53bd a046 ad3c
00000240: e341 4a3d ee60 0abd a82b 943d 9e22 e03d
00000250: ba7a fc3d 2ebd a23d ae2e 3abd 86eb 013e
00000260: 5c3f 4b3c 28c3 8a3d dca5 0abe 6288 cabd
00000270: 717c f0bc ca6e d2bd 101a a83d a8ae e1bc
00000280: 3699 c9bd 53bd 4ebd e8ba 00bc 881d dd3c
00000290: 2733 cfbd 8e04 47bc ddf7 97bd 7325 8bbd
000002a0: 8688 8a3d 65b3 bcbc f2ad e83d c179 e4bc
000002b0: a5f9 de3d 45b5 823d 1221 043e 6bdf 233e
000002c0: 6309 2e3e dc15 adbd 7159 41bd a2d2 a23c
000002d0: d226 c9bd 484f 90bd 1a5b 07be 91de 54bd
000002e0: 395a dfbd b94b 263d 63ab d4bd 3f38 f1bd
000002f0: fb2b 33bd 20ff f8bd 96c9 45bb f04b debd
00000300: 611e c4bd 532c 3cbd cfd5 fa3c 2b37 6c3c
00000310: 20e5 3e3d bcd2 f93d 4a5a e23d b647 853b
00000320: 4942 543b 9ce7 0fbd aa33 983d 7d34 9abd
00000330: 0051 133e b871 ab3b 9014 b13c 1f43 08bd
00000340: b2d4 d6bd 5045 19bd af8a 19bd d992 cabd
00000350: 1cc1 8ebd 9e3c de3d a6c0 523d 1797 493d
00000360: b596 e13c 2c40 a6bc 3d25 68bd 506f 823d
00000370: 24b7 28bd 887d ef3d 5c16 fbbd e399 d6bd
00000380: 8a79 5abd e2fa 85bd 98ab 90bd be40 c43a
00000390: 2d23 503d 3fb8 423d bab1 4a3b dd91 b9bd
000003a0: b1aa 263d 20ee 95bd d4c6 4bbd 92f2 c3bd
000003b0: feb5 63bd 7d40 4f3d 2060 a83d 45b9 0dbe
000003c0: 2dd4 dcbc 633b 293d 56d4 96bd 314f 89bc
000003d0: f80e 543d 1a25 fc39 dbf5 e0bd 69a7 23be
000003e0: 443b adbc c523 543d b3be c73c fda0 00bd
000003f0: 0a96 983a da14 563d 3c7f 913c cdd4 b0bc

lstm.weight_hh_l0 f4 [512, 128]
0.056726728 0.01930485 0.16895881 0.063146785 0.10873484 -0.007917429 -0.14964645 -0.051842816
0.015500356 0.027197558 -0.041939307 0.022448145 0.101792775 -0.037723336 -0.0045683053 0.15702157
-0.01609332 0.062146485 -0.02554918 0.01006815 0.051713504 0.13842274 -0.069453284 0.019855423
-0.01045137 0.019681154 -0.08050259 0.07224161 0.005266022 -0.0086554885 0.026491705 0.080615684
-0.010794793 -0.0022204267 0.04205473 0.025074936 0.043143142 -0.1443798 -0.018797785 0.05507542
-0.060132906 -0.10306325 0.05948171 -0.06155523 0.09068203 0.09420422 -0.10591324 -0.027381402
0.021466915 0.04108351 0.15867805 0.051211096 0.061385565 0.10647716 -0.114201866 0.0038508996
-0.053094577 -0.088878945 0.05858621 0.14854762 0.01488445 0.039293457 0.0482403 -0.02766705
-0.023983045 -0.038963053 -0.027944889 -0.06144561 0.027651956 0.060962442 -0.036377046 -0.01163436
0.09768229 0.0040313913 -0.020674821 -0.13820863 0.00995396 -0.07843446 0.047238674 0.02201196
-0.0665314 0.0745068 0.11855163 -0.009614925 -0.050620534 -0.025547562 -0.10709499 0.089285836
-0.022119531 -0.0031269875 0.04906412 0.07547987 0.05065742 0.013954934 0.04683928 -0.10253104
-0.009413213 0.0015835151 0.033923976 -0.04826062 0.08856657 -0.036738742 -0.056850195 0.0033330326
0.005291825 0.1144235 -0.012048522 0.0693261 0.0854465 -0.023867678 0.096462406 -0.014093571
-0.028104417 -0.021260021 0.033192966 -0.05055718 -0.045829445 -0.082399994 0.1507609 -0.052689325
0.02690553 -0.08475327 -0.06674934 0.104185835 -0.036653638 0.06544414 0.052745283 0.10561216
0.15037581 -0.083935395 0.036501437 0.104778424 0.086704396 -0.16490151 -0.17855272 0.10260158
-0.15912622 -0.054571792 -0.022000423 0.09380975 0.04952014 0.18937968 0.14206861 0.17379096
-0.01718318 0.06183023 -0.10057158 0.009962219 0.03974813 0.12597185 0.036203217 0.11112237
-0.04996626 0.06326181 -0.18859532 -0.0052989284 0.07784195 -0.062975496 0.030087728 0.13636881
0.035840172 0.083050065 -0.055834576 0.016635275 0.067469865 -0.06027977 -0.15263422 0.11508361
-0.02459483 0.0035593766 0.02221417 -0.11438574 -0.020892208 0.04137385 -0.031245895 0.046336338
-0.021092983 0.04373548 0.011803593 -0.058196593 0.10903411 0.07510196 -0.119612224 0.028814059
-0.054686625 -0.15086164 0.1646803 0.11648171 0.00052444567 0.08399681 -0.055504233 -0.049562078
0.09588764 0.08821792 0.075555615 -0.15073603 -0.019573076 0.118755 0.11919129 0.16757905
0.14968987 0.12366085 0.13521981 -0.14264429 0.09972761 -0.043110307 -0.038389485 -0.14047085
-0.03776257 0.0130758695 0.093545705 -0.09126934 -0.093264714 -0.07463815 -0.068117626 -0.028590571
-0.07586261 -0.05619358 -0.07790526 0.13516663 0.10818167 0.03012195 0.036822245 -0.05687218
0.09628017 0.049351685 0.09948403 -0.07523631 0.04601527 -0.030660046 0.05568356 0.05026897
0.1578448 0.027626228 -0.064938605 0.14935137 0.14531201 -0.15419148 0.04005437 -0.04186532
-0.043604903 -0.014569362 -0.07885082 -0.01664775 -0.16546214 0.10068924 0.13980483 -0.037874766
0.031101441 -0.09615521 -0.04388912 0.06767268 -0.049643088 0.06745268 -0.09458325 0.19965678
00000000: 495a 683d 3425 9e3c 8a03 2d3e 1a53 813d
00000010: 5fb0 de3d 1bb8 01bc eb3c 19be 2259 54bd
00000020: 35f5 7d3c 6acd de3c 8dc8 2bbd 2ce5 b73c
00000030: bb78 d03d c983 1abd b9b1 95bb 43ca 203e
00000040: 23d6 83bc 508d 7e3d 844c d1bc e2f4 243c
00000050: 8ad1 533d b1be 0d3e 863d 8ebd d7a7 a23c
00000060: 393c 2bbc 5f3a a13c 8bde a4bd 69f3 933d
00000070: 988e ac3b c0cf 0dbc 2205 d93c d619 a53d
00000080: a5dc 30bc 9484 11bb 9541 2c3d f469 cd3c
00000090: ddb6 303d 4cd8 13be d0fd 99bc c396 613d
000000a0: ec4d 76bd d312 d3bd 18a3 733d 5621 7cbd
000000b0: 80b7 b93d 24ee c03d 0ae9 d8bd f64e e0bc
000000c0: 62db af3c 2f47 283d 807c 223e bac2 513d
000000d0: 6e6f 7b3d b210 da3d abe2 e9bd 605f 7c3b
000000e0: b379 59bd 2a06 b6bd 18f8 6f3d de1c 183e
000000f0: e8dd 733c 2df2 203d 9f97 453d 02a6 e2bc
00000100: 1778 c4bc b997 1fbd aeec e4bc 64ae 7bbd
00000110: 5b86 e23c c1b3 793d 1900 15bd 0b9e 3ebc
00000120: a70d c83d c319 843b 3e5e a9bc 9086 0dbe
00000130: ef15 233c 3fa2 a0bd 577d 413d 6d52 b43c
00000140: 9d41 88bd 0597 983d 32cb f23d eb87 1dbc
00000150: 7a57 4fbd 1f49 d1bc 9e54 dbbd 7edb b63d
00000160: 0534 b5bc 25ee 4cbb 75f7 483d 3195 9a3d
00000170: 287e 4f3d 3ca3 643c 8bda 3f3d cbfb d1bd
00000180: e039 1abc f38d cf3a def3 0a3d eeac 45bd
00000190: 6462 b53d 5d7b 16bd c0db 68bd 026f 5a3b
000001a0: 0c67 ad3b de56 ea3d 2a67 45bc d8fa 8d3d
000001b0: 93fe ae3d 2686 c3bc 158e c53d b9e8 66bc
000001c0: 3c3b e6bc 7f29 aebc 59f5 073d 0c15 4fbd
000001d0: a8b7 3bbd 54c1 a8bd 1161 1a3e c3d0 57bd
000001e0: fc68 dc3c 1f93 adbd e1b3 88bd 625f d53d
000001f0: 2022 16bd 9407 863d 700b 583d 304b d83d
00000200: 1efc 193e 52e6 abbd 8882 153d 1296 d63d
00000210: 1392 b13d f1db 28be 86d6 36be c720 d23d
00000220: fcf1 22be ac86 5fbd 3b3a b4bc 541f c03d
00000230: a1d5 4a3d bfec 413e 6f7a 113e 42f6 313e
00000240: bec3 8cbc b241 7d3d 79f8 cdbd 9338 233c
00000250: efce 223d c4fe 003e d349 143d 2094 e33d
00000260: 6ca9 4cbd 688f 813d 221f 41be a2a2 adbb
00000270: 9a6b 9f3d 4cf9 80bd 8a7a f63c 44a4 0b3e
00000280: 25cd 123d 2716 aa3d ccb2 64bd b346 883c
00000290: a42d 8a3d ece7 76bd 254c 1cbe f5b0 eb3d
000002a0: 197b c9bc 6e44 693b 7efa b53c 1243 eabd
000002b0: 2326 abbc a077 293d 64f7 ffbc 2ccb 3d3d
000002c0: 31cb acbc fa23 333d db63 413c 8d5f 6ebd
000002d0: 474d df3d 0ecf 993d 41f7 f4bd 760b ec3c
000002e0: 15ff 5fbd 797b 1abe f4a1 283e f68d ee3d
000002f0: f47a 093a 8506 ac3d 6858 63bd 9b01 4bbd
00000300: bd60 c43d 99ab b43d e7bc 9a3d 8c5a 1abe
00000310: b757 a0bc d235 f33d 901a f43d d899 2b3e
00000320: 4d48 193e e641 fd3d 1077 0a3e 5811 12be
00000330: fd3d cc3d 6f94 30bd 4b3e 1dbd 97d7 0fbe
00000340: edac 1abd 2c3c 563c e494 bf3d 6beb babd
00000350: 9201 bfbd e3db 98bd 4181 8bbd c636 eabc
00000360: db5d 9bbd 3d2b 66bd cb8c 9fbd 1f69 0a3e
00000370: 5a8e dd3d 4fc2 f63c ecd2 163d cef2 68bd
00000380: 8a2e c53d fe24 4a3d 48be cb3d 7f15 9abd
00000390: 827a 3c3d c72a fbbc 7214 643d d6e6 4d3d
000003a0: 11a2 213e 6650 e23c 88fe 84bd 91ef 183e
000003b0: accc 143e 5fe4 1dbe 0d10 243d f87a 2bbd
000003c0: 0e9b 32bd 55b4 6ebc 8a7c a1bd dd60 88bc
000003d0: e86e 29be 2936 ce3d ff28 0f3e 9222 1bbd
000003e0: 73c8 fe3c 06ed c4bd 14c5 33bd f997 8a3d
000003f0: 8d56 4bbd a124 8a3d ddb4 c1bd d472 4c3e

lstm.bias_ih_l0 f4 [512]
0.09945606 0.21492806 0.09672729 0.065385096 0.04158893 0.107543245 0.10003644 -0.025305694
0.14987142 0.090437576 0.05743905 0.016580593 0.13170086 0.13088953 0.0073925327 0.18944182
0.1321817 -0.0035768226 0.04608161 0.05681836 0.08573003 0.12294876 0.088831276 0.10730998
0.17346649 0.06594173 0.032445215 0.096237436 -0.0066855527 0.089631535 0.03157234 0.114725366
0.025697408 0.11331624 0.14056107 0.06550469 0.14635733 0.13496858 0.028615808 0.10076044
0.0396347 0.1556514 0.17288047 0.2061737 -0.029930243 0.07758141 0.11108801 0.08847398
0.18873945 0.1295332 0.07805209 0.10269555 -0.016386094 0.06626375 0.13551894 0.13968463
0.09390045 0.06619313 -0.02530531 0.021265162 0.11289732 0.19810918 0.0904562 0.10976565
0.04735182 0.1434771 0.04028531 0.05462007 0.00043960038 0.10472502 0.13326712 0.07730051
0.035424594 0.1250968 0.16037603 0.13372713 0.15507348 0.15538293 0.15102066 0.16289547
0.017903527 0.06093996 0.093415424 0.05341972 0.1255539 0.26931334 0.16327181 0.07135787
0.047562063 0.06050069 0.0902972 0.14222592 0.15579338 0.19053806 -0.026359955 0.07820431
0.10695736 0.1298188 0.045895934 0.10993174 0.056771547 0.12545276 -0.010507596 0.16138601
0.13713285 0.11272307 0.20847411 -0.006108942 0.038031835 0.104311496 0.20457609 0.065699
0.044235 0.056098163 0.080568425 0.054946028 0.14250173 0.03150808 0.2446698 0.16352156
0.1685485 -0.015038697 0.0701403 0.09843882 0.05219998 0.03792367 0.05908316 0.07343409
-0.004272407 -0.036073748 0.034331746 0.09363379 0.070884734 0.03533726 0.14119247 0.06332467
0.058311857 -0.041126303 0.02241731 0.10931351 0.063577436 0.00083791104 0.058621675 0.09849574
0.11432691 0.03429627 0.013993681 0.060962602 -0.035693914 -0.017512122 0.06480932 0.06417005
0.0019386682 -0.076519944 -0.0054421197 -0.000576221 -0.050460797 -0.019191636 0.09010994 0.03688375
-0.053476904 -0.054200005 0.056611307 0.036057565 0.03995033 0.06542141 0.05365978 0.0941283
0.05129114 0.050604247 0.036817905 -0.020787252 0.09415586 -0.04796169 0.05163279 -0.02685143
-0.05005313 -0.056662183 -0.059148744 0.08917692 0.062431887 0.09214951 0.08399319 -0.03737489
0.042088773 0.00104858 0.033937756 -0.055643156 0.092907555 0.068997666 0.11104766 0.0807833
0.015581315 -0.054654144 0.09469893 0.088723205 -0.064483196 0.0787163 -0.026501542 -0.01262537
0.090576775 0.048360627 -0.03394658 0.0827578 -0.023614746 0.109493524 0.1100833 0.040482365
0.06245821 -0.046809316 0.0030471012 0.07445128 0.094337 0.031704567 0.0894164 0.0069715055
0.08533495 0.038310412 0.03577416 -0.03551403 0.03935816 0.08205463 -0.020274004 0.04690327
0.015409427 0.11426448 -0.058789197 0.05419334 0.044571485 -0.0143193435 -0.025897488 -0.025067214
-0.020099424 0.04607025 0.062011007 0.098832354 0.07237482 -0.021183377 0.0759652 -0.0074954173
-0.003143746 0.07719901 -0.062978946 -0.035063304 -0.0199447 -0.0012765174 0.15010864 0.07805329
0.00094354263 0.09212389 -0.049502548 0.03964161 -0.044818837 0.035499394 -0.018997654 0.06614125
00000000: 9eaf cb3d 1a16 5c3e f518 c63d 9fe8 853d
00000010: 2759 2a3d a23f dc3d e8df cc3d e34d cfbc
00000020: e577 193e 5637 b93d 3645 6b3d 06d4 873c
00000030: 97dc 063e e807 063e 0f3d f23b 09fd 413e
00000040: a45a 073e 2069 6abb 12c0 3c3d 5eba 683d
00000050: 3a93 af3d 8fcc fb3d 2ced b53d 56c5 db3d
00000060: 33a1 313e 750c 873d 46e5 043d 2218 c53d
00000070: 7b12 dbbb bd90 b73d ff51 013d 22f5 ea3d
00000080: 5f83 d23c 5812 e83d 3eef 0f3e 5327 863d
00000090: b2de 153e 3435 0a3e b36b ea3c 7d5b ce3d
000000a0: ff57 223d 1563 1f3e 9407 313e 331f 533e
000000b0: 4530 f5bc 01e3 9e3d 1c82 e33d d931 b53d
000000c0: ea44 413e 5aa4 043e c6d9 9f3d 0b52 d23d
000000d0: 213c 86bc 4ab5 873d 7ac5 0a3e 7d09 0f3e
000000e0: e14e c03d 4490 873d 154d cfbc 4734 ae3c
000000f0: b636 e73d 22dd 4a3e 1a41 b93d d0cc e03d
00000100: fbf3 413d a9eb 123e 3602 253d 4bb9 5f3d
00000110: 2a7a e639 127a d63d 2d77 083e bb4f 9e3d
00000120: 6119 113d 6019 003e 9d39 243e c4ef 083e
00000130: 95cb 1e3e b41c 1f3e 29a5 1a3e 12ce 263e
00000140: 6baa 923c 2e9c 793d 9650 bf3d a3ce 5a3d
00000150: 3491 003e 70e3 893e ba30 273e 1324 923d
00000160: 70d0 423d 92cf 773d bded b83d aca3 113e
00000170: 4d88 1f3e 691c 433e d5f0 d7bc 9529 a03d
00000180: 760c db3d 38ef 043e 60fd 3b3d e423 e13d
00000190: 4889 683d b076 003e 0d28 2cbc 6042 253e
000001a0: 8e6c 0c3e 5adb e63d 3d7a 553e 852d c8bb
000001b0: 45c7 1b3d 44a1 d53d 657c 513e 338d 863d
000001c0: c22f 353d 30c7 653d 0f01 a53d 160f 613d
000001d0: f9eb 113e 9e0e 013d b88a 7a3e 3272 273e
000001e0: fa97 2c3e de64 76bc b8a5 8f3d 4b9a c93d
000001f0: a5cf 553d da55 1b3d 2f01 723d 9d64 963d
00000200: 8cff 8bbb 11c2 13bd 729f 0c3d 13c3 bf3d
00000210: 042c 913d cebd 103d c294 103e 5db0 813d
00000220: 6ad8 6e3d 0e74 28bd 82a4 b73c c3df df3d
00000230: e334 823d 42a7 5b3a 481d 703d 22b8 c93d
00000240: 3a24 ea3d 3f7a 0c3d c145 653c ecb3 793d
00000250: c833 12bd 9575 8fbc c0ba 843d 966b 833d
00000260: e91a fe3a 7db6 9cbd cf53 b2bb 890d 17ba
00000270: fbaf 4ebd c737 9dbc 8f8b b83d 6a13 173d
00000280: 990a 5bbd d300 5ebd 42e1 673d 19b1 133d
00000290: f5a2 233d a9fb 853d 5cca 5b3d 57c6 c03d
000002a0: a916 523d 6646 4f3d 5fce 163d 074a aabc
000002b0: cad4 c03d 7a73 44bd e87c 533d 88f7 dbbc
000002c0: 8304 4dbd 9b16 68bd f445 72bd 64a2 b63d
000002d0: 94b8 7f3d e2b8 bc3d 9f04 ac3d 6a16 19bd
000002e0: 4765 2c3d 8270 893a 5102 0b3d 14ea 63bd
000002f0: 5146 be3d a64e 8d3d f56c e33d b771 a53d
00000300: c648 7f3c 06dd 5fbd 83f1 c13d 83b4 b53d
00000310: c40f 84bd 0336 a13d c319 d9bc a4da 4ebc
00000320: 5180 b93d cb15 463d 920b 0bbd ec7c a93d
00000330: b673 c1bc 243e e03d 5a73 e13d d6d0 253d
00000340: 2ed4 7f3d 20bb 3fbd e0b1 473b ea79 983d
00000350: c233 c13d a6dc 013d f21f b73d 3a71 e43b
00000360: 17c4 ae3d 61eb 1c3d ed87 123d 2977 11bd
00000370: 0636 213d 420c a83d ab15 a6bc a51d 403d
00000380: d277 7c3c 7f03 ea3d f1cc 70bd d6f9 5d3d
00000390: 9790 363d ae9b 6abc f826 d4bc c259 cdbc
000003a0: 8ca7 a4bc 29b4 3c3d 41ff 7d3d 9e68 ca3d
000003b0: 4039 943d c388 adbc a593 9b3d 1e9c f5bb
000003c0: 4e07 4ebb 841a 9e3d 1bfb 80bd 8a9e 0fbd
000003d0: 1163 a3bc d150 a7ba 14b6 193e 67da 9f3d
000003e0: 1358 773a 73ab bc3d 2fc3 4abd 3e5f 223d
000003f0: f593 37bd d067 113d f8a0 9bbc 1075 873d

lstm.bias_hh_l0 f4 [512]
0.12101742 0.15513027 0.073391736 0.13066024 -0.012807211 0.024968473 0.03059392 0.13713594
0.08367984 -0.036313724 0.15371229 0.10566109 0.13273986 0.06612328 0.06800617 0.12292104
0.047691997 0.011246886 0.13326234 0.09925865 0.08367402 0.021898514 0.007094231 0.01775289
0.021111747 -0.037295103 0.06866039 0.17204423 0.12197807 0.16408798 0.07207365 0.06233263
-0.0054545132 -0.009337359 0.16141337 -0.025838556 0.17433548 0.1527431 0.05136284 0.10283725
0.107642405 0.106205404 0.11140745 0.15461884 0.022599967 0.06273622 0.1909313 0.037876926
0.08690378 0.0074294847 0.21186696 0.07015025 0.09981918 0.119700596 -0.0038329107 0.060617715
0.072149396 0.2161461 0.08175229 -0.03078628 0.07096315 0.12766054 0.1469842 0.0104169
0.104263484 0.15106666 0.066380434 0.013464928 0.062095482 0.11337029 0.080582045 0.1852371
0.012834133 0.081034064 0.18170013 -0.0016996189 0.104602225 0.041549906 0.079858184 0.010631217
-0.020080859 0.048867967 0.042068377 0.14350443 0.088158526 0.4011975 0.15672733 0.048702702
0.11862902 0.0010677365 0.16759889 0.046453934 0.023831578 0.023935223 -0.005374599 0.0487168
-0.00414216 0.08834232 0.13443263 0.110581346 0.062357023 0.19885027 0.045698453 0.106793575
0.15745346 0.06918302 0.16487145 0.13601196 0.17686121 0.12535323 0.15665883 0.17497145
0.114291996 0.1527521 0.059576984 0.051336475 0.069198124 0.09852101 0.18494721 0.012366686
0.171409 -0.048169404 0.11985582 0.042045414 0.04637046 0.12359773 0.04923768 0.09065592
-0.022922399 0.10174908 0.043927908 0.024783896 -0.025589447 0.11925987 0.1336519 0.010098449
0.040173043 -0.057252765 0.011832671 -0.05142329 0.021050412 0.1292629 0.100943044 0.07917204
0.115112 0.106930986 -0.017265486 0.10301479 0.028802626 0.022865158 0.0018592392 0.04742973
-0.043176703 -0.08054799 0.010704395 0.065715 -0.051155735 0.036712945 -0.019382445 -0.0011053391
0.09392816 0.0820009 -0.0028380773 -0.024914382 0.09912153 0.006309125 0.016456632 0.08778123
-0.004745781 0.04735504 -0.05095193 0.016210094 0.009113789 0.1019261 0.056812067 0.10679482
0.10925394 0.023816435 0.07479808 0.11225583 -0.045488976 0.11112716 0.048077587 0.00079235446
0.017454933 -0.017041352 -0.020837676 -0.072582096 0.07019763 -0.052647192 0.03988224 0.04796202
-0.05972999 0.06919555 0.11254 0.079216406 -0.025283858 0.083199024 -0.01705002 0.009641799
0.02293819 0.012958971 0.07801807 0.03392783 0.034857158 0.059612505 0.03334278 -0.0394864
-0.00022925284 0.08254687 -0.06481889 -0.045540214 -0.064908214 -0.031676035 0.12562932 0.12438788
0.025806334 -0.016125603 0.042828575 0.095857464 -0.013555643 0.09895819 0.03443869 -0.0070042536
0.041055236 0.039995126 0.09455813 0.09277701 -0.055082995 -0.031012418 -0.034877338 -0.033807654
-0.040850587 -0.0030504728 0.03583866 0.06290859 0.031029664 0.11112505 0.021034077 0.083784044
0.15486306 0.06031294 0.036750395 0.030580118 0.0204501 -0.037551522 0.052661855 -0.031769153
0.095542274 0.035085104 0.0036770012 0.07680807 0.032243196 0.03494194 -0.03393187 0.116539635
00000000: fbd7 f73d 78da 1e3e 684e 963d cccb 053e
00000010: 56d5 51bc af8a cc3c 1aa0 fa3c 5d6d 0c3e
00000020: 5660 ab3d b3bd 14bd c166 1d3e d764 d83d
00000030: f5ec 073e a46b 873d d246 8b3d 07be fb3d
00000040: af58 433d dc44 383c ec75 083e 1e48 cb3d
00000050: 495d ab3d 8364 b33c b976 e83b 826e 913c
00000060: 8bf2 ac3c c0c2 18bd d29d 8c3d 5d2c 303e
00000070: a3cf f93d ae06 283e 5a9b 933d 8050 7f3d
00000080: c6bb b2bb b9fb 18bc 8c49 253e 61ab d3bc
00000090: 0085 323e b068 1c3e d761 523d 569c d23d
000000a0: 9f73 dc3d 3882 d93d 9729 e43d 6754 1e3e
000000b0: 9123 b93c d97b 803d 7f83 433e d624 1b3d
000000c0: 9cfa b13d 0973 f33b a7f3 583e efaa 8f3d
000000d0: 006e cc3d 9625 f53d 9231 7bbb 484a 783d
000000e0: 10c3 933d 6755 5d3e bf6d a73d 8233 fcbc
000000f0: 2155 913d 72b9 023e 0783 163e a5ab 2a3c
00000100: 1888 d53d 38b1 1a3e 77f2 873d 009c 5c3c
00000110: d557 7e3d af2e e83d 3308 a53d cbae 3d3e
00000120: 4146 523c 30f5 a53d 990f 3a3e bfc5 deba
00000130: b139 d63d 3c30 2a3d b08c a33d 8e2e 2e3c
00000140: 9d80 a4bc c729 483d e44f 2c3d d3f2 123e
00000150: 758c b43d c269 cd3e 217d 203e 7c7c 473d
00000160: c6f3 f23d 4bf3 8b3a 0b9f 2b3e 7b46 3e3d
00000170: 713a c33c cd13 c43c 671d b0bb 448b 473d
00000180: f5ba 87bb d1ec b43d b5a8 093e 7978 e23d
00000190: 146a 7f3d 689f 4b3e 4d2e 3b3d 97b6 da3d
000001a0: 7b3b 213e d4af 8d3d 10d4 283e b846 0b3e
000001b0: 1b1b 353e 995c 003e 2c6b 203e b72b 333e
000001c0: ec11 ea3d 0c6b 1c3e ff06 743d 3246 523d
000001d0: bfb7 8d3d 62c5 c93d cd62 3d3e a49d 4a3c
000001e0: d785 2f3e 484d 45bd f876 f53d d037 2c3d
000001f0: f4ee 3d3d cf20 fd3d 73ad 493d d0a9 b93d
00000200: c1c7 bbbc d261 d03d c0ed 333d 9907 cb3c
00000210: f6a0 d1bc 853e f43d 0bdc 083e f773 253c
00000220: 7d8c 243d e081 6abd d2dd 413c 3aa1 52bd
00000230: ea71 ac3c 7e5d 043e 3abb ce3d f324 a23d
00000240: d7bf eb3d a2fe da3d 5970 8dbc 6bf9 d23d
00000250: 7cf3 eb3c b64f bb3c b7b1 f33a ad45 423d
00000260: 0eda 30bd 58f6 a4bd 7d61 2f3c 9695 863d
00000270: ad88 51bd 5060 163d efc7 9ebc 07e1 90ba
00000280: 685d c03d 16f0 a73d 09ff 39bb 3f19 ccbc
00000290: 3b00 cb3d c7bc ce3b 0fd0 863c a5c6 b33d
000002a0: 7f82 9bbb 5cf7 413d f9b2 50bd 08cb 843c
000002b0: 0052 153c a2be d03d c5b3 683d 3eb7 da3d
000002c0: 88c0 df3d af1a c33c bc2f 993d 62e6 e53d
000002d0: a652 3abd a396 e33d 01ed 443d 02b6 4f3a
000002e0: a6fd 8e3c 4e9a 8bbc c6b3 aabc eca5 94bd
000002f0: c6c3 8f3d 95a4 57bd 8f5b 233d d373 443d
00000300: 6fa7 74bd 66b6 8d3d 5f7b e63d 363c a23d
00000310: 1820 cfbc 4064 aa3d 7cac 8bbc a3f8 1d3c
00000320: dfe8 bb3c dd51 543c f0c7 9f3d e9f7 0a3d
00000330: 61c6 0e3d 3e2c 743d 7092 083d 7ebc 21bd
00000340: 9763 70b9 550e a93d c4bf 84bd 6088 3abd
00000350: 99ee 84bd bbbe 01bd f9a4 003e 13bf fe3d
00000360: ce67 d33c d719 84bc 046d 2f3d eb50 c43d
00000370: 7d18 5ebc 97aa ca3d 950f 0d3d f083 e5bb
00000380: 8929 283d eed1 233d b1a7 c13d df01 be3d
00000390: b59e 61bd c10d febc 8adb 0ebd e579 0abd
000003a0: f252 27bd 71ea 47bb 8fcb 123d 38d6 803d
000003b0: ec31 fe3c 8895 e33d a84f ac3c f896 ab3d
000003c0: 6c94 1e3e b40a 773d 9587 163d 2883 fa3c
000003d0: f886 a73c a0cf 19bd f5b3 573d 5f20 02bd
000003e0: abab c33d 66b5 0f3d d8f9 703b 8d4d 9d3d
000003f0: 7111 043d 481f 0f3d 25fc 0abd 55ac ee3d

lstm.weight_ih_l0_reverse f4 [512, 9]
-0.044777673 -0.02837196 0.06965352 0.037349068 0.050976604 0.00024154397 0.07454509 0.10400013
-0.1185216 -0.1863576 -0.09901749 -0.045747373 -0.018983249 -0.07819363 -0.06600866 -0.026971292
0.047890317 0.055317756 -0.068437494 -0.003390589 0.07972022 0.048562035 0.030369379 -0.0252084
-0.02939358 -0.123328775 -0.13710673 -0.070357494 0.03845219 0.054051533 -0.027944464 0.06368595
0.060620375 0.07869396 0.03038661 -0.070603386 0.1994464 0.13810182 0.07285159 0.066069774
0.059990056 -0.023364676 0.011652131 -0.0026357854 -0.11880406 -0.040408738 -0.10367805 -0.026067736
-0.083748825 0.014618618 0.056372806 -0.000173327 -0.09822359 -0.024233583 0.03465966 0.07368194
0.007147083 0.14732693 0.06961444 0.027777942 -0.09842349 -0.0019714173 -0.032157153 0.034572326
-0.013177465 0.019572444 0.013227795 -0.059249677 -0.029021801 0.08604675 -0.01826012 0.117495105
-0.10606018 -0.09924494 -0.010479981 -0.10422198 -0.08118642 -0.018993627 -0.09445758 -0.031181343
-0.04595403 0.037893087 0.027038824 0.017212328 0.090757586 -0.00058136764 0.006809187 0.055152107
-0.035658635 0.03979428 -0.104363434 0.016091019 -0.12828219 0.0011208467 -0.01705131 -0.16499951
0.06826633 -0.0023180847 0.050734743 -0.0073365257 0.06662223 -0.10395306 -0.054408446 -0.10545168
-0.08655745 -0.03969639 -0.08611996 0.014734305 0.072789855 -0.097533725 -0.010259928 0.06836146
-0.011029625 0.029365532 -0.01804634 0.019778017 0.062069997 -0.05922922 -0.0651413 0.08879213
0.108286425 0.003660335 0.07531298 0.014990185 -0.055306155 0.06233749 -0.010885204 -0.11700176
-0.0107066 0.03696679 0.053979572 0.066012844 -0.0896113 -0.049701586 -0.022234282 0.031624027
-0.025604846 -0.04482534 -0.0006618199 0.017701782 -0.04407563 -0.08505932 0.034613557 -0.060955204
-0.07390627 0.007878917 -0.02409816 -0.06933327 -0.0831696 0.05393225 -0.029166477 -0.0070378683
-0.14810714 -0.0940838 -0.09386951 0.06758832 -0.012727543 0.107365794 -0.14210618 0.10894874
0.105395176 0.18322742 0.008100897 -0.13511525 -0.07730584 0.028663196 -0.13229953 -0.024673164
-0.06760011 -0.06606251 -0.10175832 -0.0050822413 -0.03976925 -0.025324197 0.04702635 -0.048201628
0.01632315 -0.086946316 -0.08260233 -0.111979134 -0.10549113 -0.12304884 0.05106021 0.121488966
0.027861089 -0.0037025004 -0.0074247424 -0.0049764616 -0.10285431 -0.03158064 -0.04731693 -0.024859047
-0.007954796 0.057402913 -0.03146867 -0.010866934 0.07935611 0.03016252 -0.05071629 0.027969642
0.015521744 -0.10047627 -0.038404398 -0.09071244 0.20315385 -0.03854002 0.1519713 -0.12069979
0.015532995 0.026532415 0.054233298 -0.0154623445 -0.013598107 0.09354801 -0.020137878 -0.0040862663
-0.03864082 0.06030894 -0.038280036 0.0665299 0.013864285 0.08564519 0.0316511 -0.0876122
-0.030191705 -0.059393745 -0.090997376 -0.08161626 0.045901615 -0.09046217 -0.056542784 -0.0075629135
-0.05857926 -0.07697891 0.033502344 -0.085505724 0.027573213 -0.07416435 -0.069276504 -0.015333683
0.004770029 0.017070442 -0.020533357 0.032181155 0.0072033885 0.04910152 0.12604809 -0.043065086
-0.042933375 0.019468904 -0.027447073 0.0594018 -0.004988688 -0.08616464 -0.0918238 -0.049728043
00000000: cb68 37bd 506c e8bc 81a6 8e3d 56fb 183d
00000010: d8cc 503d f746 7d39 19ab 983d 05fe d43d
00000020: 74bb f2bd 87d4 3ebe afc9 cabd 9961 3bbd
00000030: c282 9bbc fb23 a0bd 8c2f 87bd e6f2 dcbc
00000040: a328 443d df94 623d f528 8cbd a534 5ebb
00000050: 5b44 a33d fce8 463d 34c9 f83c d981 cebc
00000060: ceca f0bc cc93 fcbd b565 0cbe 9717 90bd
00000070: 0b80 1d3d 2465 5d3d caeb e4bc c86d 823d
00000080: 124d 783d 4d2a a13d 57ed f83c 8298 90bd
00000090: ad3b 4c3e 906a 0d3e 3733 953d 974f 873d
000000a0: 22b8 753d 4767 bfbc 94e8 3e3c 24bd 2cbb
000000b0: 8b4f f3bd a283 25bd 2855 d4bd 018c d5bc
000000c0: 8184 abbd ee82 6f3c 2ce7 663d 1dbf 35b9
000000d0: 7329 c9bd 8285 c6bc 4af7 0d3d 8fe6 963d
000000e0: 1432 ea3b dfdc 163e 0492 8e3d 918e e33c
000000f0: 4192 c9bd e532 01bb 38b7 03bd b69b 0d3d
00000100: 4be6 57bc 6456 a03c 65b9 583c caaf 72bd
00000110: 21bf edbc 4739 b03d 3f96 95bc 46a1 f03d
00000120: 1436 d9bd ee40 cbbd 3ab4 2bbc 5572 d5bd
00000130: 1145 a6bd 8698 9bbc fa72 c1bd 0470 ffbc
00000140: 4b3a 3cbd c835 1b3d 8680 dd3c de00 8d3c
00000150: 1ddf b93d ec66 18ba 9a1f df3b 2de7 613d
00000160: ca0e 12bd 54ff 223d 7fbc d5bd 50d1 833c
00000170: 685c 03be 60e9 923a 30af 8bbc a2f5 28be
00000180: 38cf 8b3d 02eb 17bb 3ccf 4f3d 3d67 f0bb
00000190: 3c71 883d 58e5 d4bd 64db 5ebd 0df7 d7bd
000001a0: 0845 b1bd af98 22bd a95f b0bd 2868 713c
000001b0: d912 953d c3bf c7bd 4219 28bc 1801 8c3d
000001c0: 9ab5 34bc fc8f f03c ebd5 93bc 8205 a23c
000001d0: 1c3d 7e3d 579a 72bd cd68 85bd a6d8 b53d
000001e0: 46c5 dd3d 3be2 6f3b b13d 9a3d 6599 753c
000001f0: b588 62bd 9955 7f3d db57 32bc 9e9e efbd
00000200: bc6a 2fbc 7d6a 173d af19 5d3d be31 873d
00000210: 2186 b7bd e493 4bbd ab24 b6bc 3288 013d
00000220: 41c1 d1bc c79a 37bd fb7d 2dba 5403 913c
00000230: a688 34bd 9533 aebd f2c6 0d3d 2aac 79bd
00000240: 2c5c 97bd 9316 013c 8169 c5bc 9afe 8dbd
00000250: d354 aabd 10e8 5c3d 89ee eebc eb9d e6bb
00000260: 66a9 17be 02af c0bd a83e c0bd bf6b 8a3d
00000270: 2f87 50bc 99e2 db3d 4884 11be 8420 df3d
00000280: 6dd9 d73d f89f 3b3e a0b9 043c a75b 0abe
00000290: 8652 9ebd 14cf ea3c 8779 07be 601f cabc
000002a0: ed71 8abd c84b 87bd ab66 d0bd ee88 a6bb
000002b0: 15e5 22bd b174 cfbc b49e 403d 126f 45bd
000002c0: 20b8 853c e910 b2bd 692b a9bd 5155 e5bd
000002d0: bc0b d8bd 0801 fcbd 8324 513d 35cf f83d
000002e0: f03c e43c a6a5 72bb 414b f3bb 9611 a3bb
000002f0: 48a5 d2bd b35a 01bd 66cf 41bd 33a5 cbbc
00000300: d554 02bc 511f 6b3d 4be5 00bd 3a0b 32bc
00000310: 7585 a23d 6417 f73c e2bb 4fbd 9720 e53c
00000320: ea4e 7e3c 81c6 cdbd ee4d 1dbd 72c7 b9bd
00000330: 9007 503e 24dc 1dbd 5d9e 1b3e 7431 f7bd
00000340: 1a7e 7e3c 825a d93c bc23 5e3d c655 7dbc
00000350: 98ca 5ebc 1996 bf3d 31f8 a4bc 16e6 85bb
00000360: d645 1ebd 8206 773d 87cb 1cbd d440 883d
00000370: 0727 633c bf66 af3d 95a4 013d 066e b3bd
00000380: 9854 f7bc db46 73bd d55c babd 6d26 a7bd
00000390: 5503 3c3d 3b44 b9bd 6899 67bd 51d2 f7bb
000003a0: cef0 6fbd 1ea7 9dbd c139 093d a01d afbd
000003b0: 38e1 e13c 7be3 97bd d7e0 8dbd 213a 7bbc
000003c0: e74d 9c3b 50d7 8b3c 9235 a8bc 63d0 033d
000003d0: 670a ec3b ad1e 493d c012 013e 0465 30bd
000003e0: e8da 2fbd 407d 9f3c afd8 e0bc 4d4f 733d
000003f0: 2678 a3bb 1677 b0bd 1e0e bcbd a2af 4bbd

lstm.weight_hh_l0_reverse f4 [512, 128]
-0.1476569 0.04447786 -0.11682912 -0.13777919 -0.10404074 0.087970994 0.080178574 0.07719101
-0.10241423 0.022449816 0.031955957 0.0056901625 0.046983812 -0.008718155 -0.04066372 -0.06146054
-0.014589579 -0.05405913 -0.013285777 0.10780459 0.0033781657 0.03655832 -0.011235557 -0.0435996
-0.064117156 -0.10215139 0.07362468 0.07134777 -0.057921324 0.012786143 0.054443896 0.011518207
-0.03917899 0.04882016 -0.023830106 0.05631877 -0.000333434 0.058276944 -0.017511947 0.13304287
-0.09644183 0.017849935 0.004127464 -0.0469487 0.10841415 0.032774374 0.060676098 -0.06464948
-0.09001968 -0.018020937 -0.11686572 -0.029024608 0.07097715 -0.11135229 0.025169458 -0.011585282
-0.037567485 -0.082313426 0.108926974 -0.0061338297 -0.061504107 -0.03358045 -0.058897704 -0.07904515
0.06122676 0.025790798 0.07466632 0.1154725 -0.030760607 0.027830157 0.09020698 0.15460047
0.011266405 -0.01790258 0.00864129 -0.09586857 0.10058151 0.10755812 0.048038546 0.050216913
0.113519646 -0.08746557 0.029729055 -0.021537164 -0.042333137 -0.0764216 -0.08455136 0.112331994
0.046687976 -0.13641375 -0.047891896 -0.067351945 -0.00951099 0.0525466 -0.0040289112 0.07597897
0.02390718 0.05519728 -0.06814359 -0.023617297 -0.058995858 -0.10498207 -0.023637285 0.014261636
-0.018738948 -0.06306321 -0.039277375 0.043459896 0.007734345 -0.13280074 -0.02862906 0.102855906
-0.04994306 -0.0034366553 -0.071884826 0.021392146 -0.105520554 -0.037553288 -0.0943763 0.07099887
-0.030989353 0.021117898 -0.0067780064 -0.11542634 0.080809034 0.09175192 -0.06949131 0.025071288
-0.05570148 -0.10947908 -0.14008334 -0.061309475 0.016576193 0.015258427 0.06977615 -0.005638267
0.05744536 -0.073667414 0.016982738 0.037864663 0.10581859 0.10397758 -0.043834694 -0.017599517
-0.070921145 0.038835693 -0.06828187 0.08425794 -0.11765992 0.043251734 0.0036697704 -0.03233625
-0.0616842 0.049236707 -0.015360926 -0.03255613 -0.10480228 0.042452794 -0.04539008 0.01253503
0.017108632 0.024066739 0.020643745 -0.08152998 0.074865624 -0.110291 -0.05868861 0.0048003346
-0.098939724 -0.026785553 0.02927846 0.015716014 -0.08677417 0.09276519 0.0057514915 -0.062829986
0.017084718 0.021657405 -0.053107467 0.10711229 0.044551276 -0.039863743 0.13235724 0.07803706
0.01779909 -0.019898485 0.033443034 0.011355043 0.052625388 0.058950204 0.027341973 0.046503898
0.10814522 0.07202608 0.009841383 0.011149589 -0.06688936 0.009502656 -0.09287141 0.071970224
0.024295133 0.0018834858 0.06397038 0.063903466 -0.034683913 0.09306654 -0.046964023 0.014414906
0.05923245 0.097147405 -0.0663045 -0.073893584 -0.12749319 -0.083710715 -0.06575809 -0.018411173
-0.04476687 -0.06366886 0.007941508 0.012348279 0.017354451 0.0073846495 0.011730233 0.09037959
0.074699 0.033593167 -0.06393537 0.02821057 -0.034662597 0.0320756 0.12936023 -0.068152346
0.083206765 -0.019167451 0.080694586 -0.020389158 0.019063579 -0.049698144 -0.03527022 -0.005335427
-0.0026281464 -0.06504934 0.045964632 0.04697061 -0.053821582 0.004896532 -0.04079905 -0.01385154
-0.047881864 0.082375266 0.06532079 -0.0050242455 -0.10659952 0.067482814 -0.054391023 0.022799402
00000000: 5f33 17be 6b2e 363d 1b44 efbd fd15 0dbe
00000010: 5013 d5bd 232a b43d aa34 a43d 5216 9e3d
00000020: 8dbe d1bd ade8 b73c 40e4 023d 8b74 ba3b
00000030: 1972 403d 98d6 0ebc 008f 26bd 0cbe 7bbd
00000040: 2109 6fbc 1b6d 5dbd 96ac 59bc a7c8 dc3d
00000050: 3764 5d3b 2dbe 153d 5715 38bc 7f95 32bd
00000060: db4f 83bd bf34 d1bd 89c8 963d c81e 923d
00000070: e93e 6dbd f97c 513c 9000 5f3d ddb6 3c3c
00000080: 267a 20bd a6f7 473d 5b37 c3bc 83ae 663d
00000090: c1d0 aeb9 ceb3 6e3d 3775 8fbc 643c 083e
000000a0: 4b83 c5bd 073a 923c ad3f 873b 484d 40bd
000000b0: 3d08 de3d 6c3e 063d 8087 783d f266 84bd
000000c0: 3d5c b8bd a5a0 93bc 4b57 efbd 04c5 edbc
000000d0: 785c 913d ab0c e4bd 2e30 ce3c 32d0 3dbc
000000e0: 5de0 19bd f193 a8bd 1b15 df3d 4bfe c8bb
000000f0: bbeb 7bbd a78b 09bd b83e 71bd 6ce2 a1bd
00000100: e9c8 7a3d 3947 d33c a8ea 983d d97c ec3d
00000110: abfd fbbc 12fc e33c 70be b83d 964f 1e3e
00000120: ba96 383c 6ea8 92bc 3294 0d3c be56 c4bd
00000130: aefd cd3d 6e47 dc3d 11c4 443d 40b0 4d3d
00000140: fd7c e83d 2621 b3bd 598a f33c b56e b0bc
00000150: 8365 2dbd ee82 9cbd 4329 adbd 510e e63d
00000160: e43b 3f3d 0cb0 0bbe 4b2a 44bd d1ef 89bd
00000170: fcd3 1bbc 1b3b 573d f504 84bb dd9a 9b3d
00000180: fed8 c33c 8b16 623d de8e 8bbd 1079 c1bc
00000190: a4a5 71bd d700 d7bd fba2 c1bc a3a9 693c
000001a0: 6c82 99bc 4927 81bd 50e1 20bd 0103 323d
000001b0: 6370 fd3b ebfc 07be 7e87 eabc 1ea6 d23d
000001c0: 1891 4cbd 8239 61bb 5a38 93bd 953e af3c
000001d0: 291b d8bd 7ad1 19bd 5d48 c1bd db67 913d
000001e0: 62dd fdbc 71ff ac3c 0a1a debb a564 ecbd
000001f0: 357f a53d 6ee8 bb3d 7651 8ebd 4d62 cd3c
00000200: 3c27 64bd 9136 e0bd 0272 0fbe a51f 7bbd
00000210: ccca 873c 7bfe 793c cce6 8e3d 36c1 b8bb
00000220: d34b 6b3d f1de 96bd 621f 8b3c fa17 1b3d
00000230: 6bb7 d83d 33f2 d43d 028c 33bd dd2c 90bc
00000240: 1b3f 91bd 2d12 1f3d 5dd7 8bbd 6d8f ac3d
00000250: aff7 f0bd bb28 313d 8880 703b 0473 04bd
00000260: 92a8 7cbd 6eac 493d 65ac 7bbc 9459 05bd
00000270: 94a2 d6bd fbe2 2d3d f3ea 39bd ba5f 4d3c
00000280: 6727 8c3c 9c27 c53c 121d a93c 31f9 a6bd
00000290: 2653 993d 3fe0 e1bd 7863 70bd 204c 9d3b
000002a0: e9a0 cabd 606d dbbc 62d9 ef3c dfbe 803c
000002b0: a8b6 b1bd adfb bd3d 0277 bc3b 02ad 80bd
000002c0: 40f5 8b3c df6a b13c 3787 59bd b05d db3d
000002d0: 667b 363d 2a48 23bd a888 073e e5d1 9f3d
000002e0: 66cf 913c 2602 a3bc 90fb 083d 810a 3a3c
000002f0: b88d 573d c575 713d 46fc df3c df7a 3e3d
00000300: 3e7b dd3d 6982 933d c13d 213c c4ac 363c
00000310: 4afd 88bd 07b1 1b3c 5e33 bebd 2065 933d
00000320: 9606 c73c 4cdf f63a e702 833d d2df 823d
00000330: b810 0ebd ac99 be3d 595d 40bd 7f2c 6c3c
00000340: ba9d 723d 38f5 c63d a7ca 87bd 8555 97bd
00000350: 938d 02be 8670 abbd 2dac 86bd 07d3 96bc
00000360: 775d 37bd d264 82bd 191d 023c 7050 4a3c
00000370: ec2a 8e3c eefa f13b 2a30 403c ef18 b93d
00000380: cafb 983d fd98 093d 8cf0 82bd da19 e73c
00000390: 5efa 0dbd b461 033d 0277 043e 7593 8bbd
000003a0: 4f68 aa3d 0f05 9dbc 3443 a53d 2a07 a7bc
000003b0: 392b 9c3c 4890 4bbd 8277 10bd ced4 aebb
000003c0: fb3c 2cbb 9738 85bd 6945 3c3d 4164 403d
000003d0: 0574 5cbd 1673 a03b e81c 27bd 92f1 62bc
000003e0: c61f 44bd 5db4 a83d e8c6 853d 6da2 a4bb
000003f0: d950 dabd 6e34 8a3d 1fc9 5ebd d0c5 ba3c

lstm.bias_ih_l0_reverse f4 [512]
0.148336 0.12106068 0.018031413 0.015142018 0.2953241 0.0725522 0.013615198 0.15911709
0.018125795 0.16239707 -0.0018252551 0.063351095 0.014674952 0.02352887 0.1460967 0.07351044
0.120909296 0.10427186 0.11665062 0.048670806 0.06461883 0.12280749 0.07070502 0.099316075
0.018738547 0.09838981 0.0434224 0.0123574985 0.08590715 0.13963513 0.052524332 0.13899101
0.15735036 0.004061105 0.13926378 0.025477432 -0.012281048 0.13606091 0.0321756 0.077902324
0.08241567 0.03133173 0.09003661 0.06422924 0.045790303 0.13968672 0.053132635 0.009711914
0.09091493 0.05906748 0.15015674 -0.005695552 0.030445697 0.06314968 0.0631839 0.1079166
0.18536203 -0.0053218408 0.07696076 0.015698679 0.05841269 0.06547796 0.032226905 0.066348985
0.10059016 0.051702134 0.17083164 0.14150119 0.10822304 0.108528115 0.09714471 0.05398488
0.062048536 0.11456555 0.1253448 0.0622511 0.17506078 0.1820759 0.030677976 0.06879581
0.19092517 0.112785675 -0.0010010675 0.009997422 0.114326544 0.12808423 0.11917369 0.16361837
-0.0088351695 0.086206816 0.14060163 0.019230092 0.10899942 0.0059333197 0.11197825 0.16063501
0.010672268 0.16717573 0.09745287 0.26212582 0.12847114 0.09216559 0.17821352 0.047698226
0.054947726 0.032151915 0.07124218 0.22420561 0.101383395 0.13084094 0.2028505 0.13583024
0.07086892 0.023746803 0.17789185 0.2319134 0.009993082 0.055766735 0.046542566 0.05860305
0.09790552 0.18750237 0.08884071 -0.04040582 0.039105896 0.06520773 0.07232649 0.18487492
0.107488394 0.006167562 -0.047596227 -0.0067562917 0.026715714 0.056454558 0.035768338 0.022543617
0.04989498 -0.039894886 -0.015706785 -0.00013926005 0.10453464 0.063747965 0.02519378 -0.033026688
0.07718881 -0.01668691 0.054743808 -0.015137545 0.084414676 0.030393718 -0.025092136 -0.041253377
0.044199686 0.0067078136 -0.06826493 0.10255285 -0.08018887 -0.0629526 0.0017996564 0.060290806
0.08513646 -0.030307475 0.07532592 -0.06261788 -0.06686992 -0.026109895 0.03968968 0.06364003
-0.039474543 0.02096097 0.05904687 0.054343678 0.06106587 0.027104924 -0.0135354595 -0.032410778
0.035335645 0.020805996 0.03001044 0.11724371 -0.052490108 -0.04529698 0.010989748 -0.012454415
0.024597418 -0.008170238 -0.045637887 0.07377181 -0.032056246 -0.036807682 -0.018685993 -0.04082848
-0.026930545 -0.014602551 0.0023073936 -0.043702897 0.03412954 0.079248145 0.03824163 -0.06818873
-0.044455584 -0.056751322 0.07467297 0.034853257 -0.032416973 -0.08366064 0.019947417 -0.02253484
0.024761187 0.11896301 -0.0018352759 -0.029835666 0.094135776 0.046435237 0.05935923 -0.04865526
0.043788824 -0.020563364 0.031049479 0.026104782 0.09765622 -0.015407959 -0.0060809804 0.021967662
0.026097387 0.0913666 0.07929422 0.073773704 0.05958252 0.0029796103 0.05216676 -0.00944687
-0.055151198 0.01932753 -0.00064290053 0.04655374 -0.020427505 0.08310886 0.07160541 0.11843362
-0.048195813 0.08958238 0.16175237 0.058572832 -0.014469137 0.06121597 -0.04525253 0.0396845
0.023744414 0.072288804 -0.061578616 -0.05649579 0.11767927 0.065908305 0.06485539 0.023560053
00000000: 64e5 173e a9ee f73d 9db6 933c 3a16 783c
00000010: b834 973e 3f96 943d 4812 5f3c 97ef 223e
00000020: 8c7c 943c 6b4b 263e 663d efba 38be 813d
00000030: 366f 703c 9ebf c03c 609a 153e a48c 963d
00000040: 4b9f f73d 7c8c d53d 85e6 ee3d 0a5b 473d
00000050: e156 843d 7e82 fb3d cbcd 903d 3a66 cb3d
00000060: 9581 993c 9980 c93d b0db 313d 1b77 4a3c
00000070: 16f0 af3d 83fc 0e3e c123 573d a953 0e3e
00000080: 7420 213e 0513 853b 2a9b 0e3e 0cb6 d03c
00000090: 7336 49bc 8d53 0b3e 90ca 033d 418b 9f3d
000000a0: 8cc9 a83d b355 003d 1d65 b83d 9f8a 833d
000000b0: 9d8e 3b3d 090a 0f3e 9ba1 593d b81e 1f3c
000000c0: 9b31 ba3d bef0 713d b0c2 193e c1a1 babb
000000d0: 4169 f93c 9f54 813d 9066 813d 6103 dd3d
000000e0: 8bcf 3d3e d662 aebb 9a9d 9d3d 849a 803c
000000f0: 2542 6f3d 4f19 863d 5c00 043d fae1 873d
00000100: 3702 ce3d 9ec5 533d 7dee 2e3e b0e5 103e
00000110: 0ba4 dd3d fd43 de3d cef3 c63d 401f 5d3d
00000120: 9b26 7e3d 58a1 ea3d 635a 003e 02fb 7e3d
00000130: 2243 333e 1b72 3a3e 6150 fb3c d1e4 8c3d
00000140: e381 433e 2dfc e63d 4036 83ba 3acc 233c
00000150: 0924 ea3d 8328 033e 5611 f43d 938b 273e
00000160: 63c1 10bc 338d b03d e0f9 0f3e 6d88 9d3c
00000170: 173b df3d 4b6c c23b da54 e53d 817d 243e
00000180: bdda 2e3c 1d30 2b3e 5f95 c73d 5b35 863e
00000190: f08d 033e 50c1 bc3d 9b7d 363e 375f 433d
000001a0: de10 613d bab1 033d 6ce7 913d 2896 653e
000001b0: 19a2 cf3d 2bfb 053e 0bb8 4f3e 1517 0b3e
000001c0: b923 913d a888 c23c 4829 363e b57a 6d3e
000001d0: 06ba 233c a96b 643d 6ba3 3e3d c009 703d
000001e0: b082 c83d 9f00 403e 1ef2 b53d 9380 25bd
000001f0: 812d 203d a18b 853d e91f 943d da4f 3d3e
00000200: e022 dc3d 4319 ca3b 43f4 42bd e263 ddbb
00000210: eada da3c e53c 673d d281 123d 64ad b83c
00000220: ae5e 4c3d d268 23bd 84ab 80bc 5606 12b9
00000230: 4216 d63d 4b8e 823d 3063 ce3c fe46 07bd
00000240: 2b15 9e3d fdb2 88bc 0b3b 603d 7703 78bc
00000250: 9ae1 ac3d 3ffc f83c 068e cdbc 4df9 28bd
00000260: bb0a 353d 38cd db3b 7cce 8bbd 3b07 d23d
00000270: 103a a4bd 4bed 80bd 73e2 eb3a 7ef3 763d
00000280: 065c ae3d 6247 f8bc 7a44 9a3d ce3d 80bd
00000290: 19f3 88bd 6be4 d5bc a591 223d b455 823d
000002a0: 0fb0 21bd 57b6 ab3c 21db 713d 7a97 5e3d
000002b0: 3520 7a3d 250b de3c d5c3 5dbc 2ac1 04bd
000002c0: 1cbc 103d 5671 aa3c 74d8 f53c 781d f03d
000002d0: deff 56bd 5389 39bd 580e 343c 9a0d 4cbc
000002e0: 8680 c93c 76dc 05bc cbee 3abd ad15 973d
000002f0: 694d 03bd a7c3 16bd 5e13 99bc c43b 27bd
00000300: 729d dcbc 8a3f 6fbc a437 173b cf01 33bd
00000310: 6bcb 0b3d da4c a23d 41a3 1c3d 88a6 8bbd
00000320: 0f17 36bd 1374 68bd 24ee 983d 4ac2 0e3d
00000330: a9c7 04bd 4556 abbd c468 a33c fc9a b8bc
00000340: f9d7 ca3c e1a2 f33d a48d f0ba ed69 f4bc
00000350: 42ca c03d e032 3e3d aa22 733d bd4a 47bd
00000360: e95b 333d 8074 a8bc 7a5b fe3c b2d9 d53c
00000370: fcff c73d aa71 7cbc f642 c7bb 87f5 b33c
00000380: 30ca d53c 691e bb3d 0265 a23d ab16 973d
00000390: cd0c 743d 9145 433b d0ac 553d 0bc7 1abc
000003a0: 39e6 61bd c554 9e3c 5388 28ba 22af 3e3d
000003b0: 9557 a7bc fa34 aa3d dba5 923d 538d f23d
000003c0: f968 45bd f876 b73d 6aa2 253e 11ea 6f3d
000003d0: f60f 6dbc 99bd 7a3d b85a 39bd 378c 223d
000003e0: a583 c23c 270c 943d dc39 7cbd 2168 67bd
000003f0: d401 f13d effa 863d e7d2 843d 0301 c13c

lstm.bias_hh_l0_reverse f4 [512]
0.13413337 0.09828676 0.14190729 0.103882775 0.29369953 -0.03954082 0.1470666 0.102406226
0.044149812 0.16243586 0.074428804 0.12188503 -0.004858587 0.017876491 0.013499379 0.10878406
0.0058926037 0.053049505 0.07300566 0.071474455 -0.017823247 0.1159216 0.077222124 0.17383182
-0.021404 0.075510256 -0.031452067 0.09630428 0.08572749 0.089185216 -0.027083365 0.11089671
0.033826992 0.036781296 0.028727539 0.0024723324 0.12457851 0.19315267 0.080015354 0.0019883695
0.14230004 0.025615629 0.036970798 0.02511199 0.023961972 0.18803166 0.05388668 0.10486768
0.09957187 0.016112166 0.060760938 0.053680006 0.13027446 0.015287058 0.09957084 0.06020001
0.1306735 0.1190605 0.08628671 0.005440594 0.046724103 -0.0018800801 0.115129165 0.10026335
0.017053355 0.06634979 0.17061739 0.18568482 0.0776595 0.12904163 0.058691844 0.008628259
0.014028989 -0.041351736 0.09312015 0.099309504 0.18584964 0.22249696 0.16252737 0.08505135
0.18660721 0.0173524 -0.017552072 0.013515217 0.10527834 0.12324124 0.034152184 0.11306514
0.050015505 0.04871255 0.06684344 -0.0037901138 0.077650875 0.101036 0.1335942 0.11995726
0.09037768 0.05900742 0.1433697 0.33723453 0.020174367 0.025222095 0.22270824 -0.023630653
0.01090763 0.13525541 0.04937019 0.093004525 0.0858363 0.12790762 0.14857033 0.028977292
0.0060833055 0.11881487 0.11423503 0.2323803 0.07586759 0.08530269 0.1732897 0.11785741
0.057726067 0.095970914 0.108655564 0.0698355 0.11913417 0.10835695 0.07674505 0.32299095
0.05166461 0.116805084 0.03474172 0.054994434 0.03718717 0.005259383 0.11104781 -0.027545623
0.0749177 -0.053154506 0.056666296 -0.0019115986 0.007585457 0.025771515 -0.01647335 0.13458969
0.04401189 0.0988422 0.014895241 0.09117119 0.11014499 -0.0040043355 0.04750682 -0.042924136
0.08013135 -0.055672944 -0.006164449 0.076948345 0.061049256 -0.024273489 -0.005827595 -0.07346035
-0.009243576 0.07492518 0.12997212 -0.0044199815 0.0024694744 0.055057127 -0.060144857 0.06349199
0.0010386189 0.083191216 0.06890709 0.06139455 -0.02765245 -0.0017666502 -0.008179634 0.019463621
0.10988406 0.036403827 -0.022664053 0.04985784 -0.06051347 -0.048022747 0.09935208 0.092343025
0.084325545 0.07878832 -0.050811246 0.066819414 0.029379064 0.037991468 0.01572193 0.017558482
0.042926177 0.07791614 0.038954947 0.021680556 0.14327839 0.035402685 0.016737552 -0.058008697
0.024634304 -0.06608156 -0.014263813 0.0010177036 -0.021912333 -0.039358735 0.115659334 0.038223952
-0.03131181 0.042967122 0.0804075 -0.037100818 0.078679934 0.103693515 -0.038137767 0.095066056
0.006193882 -0.07031927 -0.021356648 -0.027568612 0.07815633 0.10965185 -0.026473591 0.08856246
-0.025013298 0.10702668 0.117159046 0.08811443 0.06960525 0.069810025 -0.0076025464 0.044208106
-0.01914835 -0.028371949 -0.027058683 0.06469299 0.093503885 0.008341974 0.0076106605 -0.039060947
-0.040105734 0.04681307 0.11192616 0.026322167 0.07200892 0.045506455 -0.04123635 0.04885838
0.047633614 0.012377165 0.057721816 -0.029445905 -0.02721185 0.10948457 -0.056109212 0.0361038
00000000: 425a 093e 924a c93d 2550 113e 7ec0 d43d
00000010: c95f 963e 8ef5 21bd a098 163e 5bba d13d
00000020: 6fd6 343d 9655 263e 216e 983d dc9e f93d
00000030: c834 9fbb b871 923c 802c 5d3c 2dca de3d
00000040: be16 c13b 704a 593d fe83 953d 3361 923d
00000050: 0f02 92bc 4e68 ed3d a226 9e3d f800 323e
00000060: 7157 afbc 1fa5 9a3d e2d3 00bd 2e3b c53d
00000070: e591 af3d bda6 b63d efdd ddbc d01d e33d
00000080: 2c8e 0a3d fca7 163d 0456 eb3c db06 223b
00000090: 0523 ff3d d0c9 453e 17df a33d 4e4f 023b
000000a0: 1ab7 113e ded7 d13c b16e 173d a9b7 cd3c
000000b0: e64b c43c 5f8b 403e 48b8 5c3d dec4 d63d
000000c0: 56ec cb3d a9fd 833c 76e0 783d 91df 5b3d
000000d0: ab66 053e 9276 7a3c cceb cb3d 4994 763d
000000e0: 46cf 053e fed5 f33d 16b7 b03d 0347 b23b
000000f0: c661 3f3d 056d f6ba d7c8 eb3d df56 cd3d
00000100: 7ab3 8b3c 66e2 873d 53b6 2e3e 2924 3e3e
00000110: f20b 9f3d 7d23 043e dc66 703d 8b5d 0d3c
00000120: d8d9 653c 7060 29bd c7b5 be3d c862 cb3d
00000130: 5e4f 3e3e 3ed6 633e 936d 263e 672f ae3d
00000140: f615 3f3e 9f26 8e3c 5dc9 8fbc ee6e 5d3c
00000150: 2c9c d73d e765 fc3d 29e3 0b3d b28e e73d
00000160: 0fdd 4c3d d086 473d 37e5 883d 8f63 78bb
00000170: 6c07 9f3d f6eb ce3d ebcc 083e 27ac f53d
00000180: ef17 b93d c4b1 713d 82cf 123e 01aa ac3e
00000190: b744 a53c 919e ce3c a10d 643e 1295 c1bc
000001a0: ebb5 323c 6580 0a3e 6538 4a3d 2879 be3d
000001b0: f1ca af3d 37fa 023e d222 183e c961 ed3c
000001c0: 7756 c73b 3655 f33d 0ef4 e93d 1af5 6d3e
000001d0: 7860 9b3d 2db3 ae3d db72 313e 3a5f f13d
000001e0: 2b72 6c3d 668c c43d cf86 de3d ea05 8f3d
000001f0: 9efc f33d 40ea dd3d 822c 9d3d 125f a53e
00000200: 459e 533d 8137 ef3d 554d 0e3d d841 613d
00000210: 9351 183d e756 ac3b 096d e33d 5ca7 e1bc
00000220: 736e 993d 8ab8 59bd eb1a 683d 9b8e faba
00000230: 6d8f f83b c91e d33c 1ef3 86bc e1d1 093e
00000240: d045 343d c86d ca3d 2b0b 743c f6b7 ba3d
00000250: b293 e13d cd36 83bb 8396 423d 38d1 2fbd
00000260: e81b a43d 5009 64bd 25ff c9bb 1897 9d3d
00000270: c90e 7a3d 32d9 c6bc 69f5 bebb 6172 96bd
00000280: 5e72 17bc 5f72 993d 6917 053e 7ed5 90bb
00000290: e8d6 213b 9583 613d 745a 76bd 1708 823d
000002a0: 4422 883a 2860 aa3d 291f 8d3d da78 7b3d
000002b0: 6487 e2bc f28e e7ba df03 06bc 2c72 9f3c
000002c0: e50a e13d 2e1c 153d f7a9 b9bc bc37 4c3d
000002d0: f9dc 77bd 80b3 44bd 1a79 cb3d 571e bd3d
000002e0: dfb2 ac3d c55b a13d 741f 50bd 9ed8 883d
000002f0: 5dac f03c f19c 1b3d 47cb 803c ced6 8f3c
00000300: 5cd3 2f3d 7f92 9f3d 398f 1f3d 6c9b b13c
00000310: 92b7 123e 6802 113d 311d 893c 879a 6dbd
00000320: e1cd c93c c555 87bd c5b2 69bc 7764 853a
00000330: 7e81 b3bc a036 21bd cdde ec3d b890 1c3d
00000340: d040 00bd 4bfe 2f3d b0ac a43d 07f7 17bd
00000350: f222 a13d 445d d43d 5936 1cbd feb1 c23d
00000360: 0cf6 ca3b 8d03 90bd 23f4 aebc 92d7 e1bc
00000370: 6d10 a03d 2691 e03d 25df d8bc 3c60 b53d
00000380: b0e8 ccbc ce30 db3d 15f1 ef3d 5775 b43d
00000390: 338d 8e3d 8ff8 8e3d c81e f9bb 8f13 353d
000003a0: 00dd 9cbc 4a6c e8bc 2caa ddbc c27d 843d
000003b0: f77e bf3d c6ac 083c d962 f93b 5ffe 1fbd
000003c0: e945 24bd 10bf 3f3d 8b39 e53d 96a1 d73c
000003d0: 6a79 933d fa64 3a3d 72e7 28bd ba1f 483d
000003e0: 771b 433d 98c9 4a3c b66d 6c3d 8a38 f1bc
000003f0: 63eb debc 7239 e03d c6d2 65bd 94e1 133d
