trained_models/H9_intra_cell_line_model.pth (torch, 252522 bytes, 26 tensors)

lstm.weight_ih_l0 f4 [128, 9]
0.11006195 -0.14676066 0.03143738 0.2208192 -0.18182316 0.30450013 0.032094587 -0.01975032
-0.06237478 -0.3038825 -0.18768795 -0.42490175 -0.18903935 -0.6408627 -0.39620525 0.12072809
-0.111197285 0.106970325 0.39385554 -0.21062726 0.15818653 0.010285869 0.006270241 -0.00987023
0.058134295 0.06336163 0.3858952 0.47791046 0.07014298 -0.037149094 0.55269706 0.09619287
0.17558217 0.01651711 -0.23825936 -0.51222694 0.12572658 0.04420361 0.17570457 0.23276773
0.41802207 -0.18737142 0.30577415 -0.08039975 -0.18731114 -0.08587418 0.009065104 -0.10221684
-0.15547638 -0.26711005 -0.18630472 -0.13415824 0.036764197 -0.22189242 -0.031093486 0.27441093
-0.1435235 -0.45050582 -0.23476924 0.118078604 -0.0577709 0.10480789 0.19710736 0.13932127
-0.3505023 0.16496183 -0.029372908 -0.38795552 -0.03031183 -0.050022747 0.026475506 0.121052645
0.32179415 0.062347624 0.20396613 0.18614268 0.019637737 -0.2084385 0.07561058 0.34170407
-0.048436858 -0.38920882 -0.4863655 -0.15625758 -0.15048209 -0.33504266 -0.4188468 0.34956184
-0.022709139 0.056556165 0.16781683 -0.20055282 0.20702879 0.14497021 0.25524962 -0.24865744
-0.061976824 -0.09270837 -0.08316831 -0.54405236 0.21509863 -0.63682014 0.043636557 -0.25645044
-0.22167501 -0.28856874 -0.1774494 -0.09597862 0.063244246 0.18901739 0.09849335 0.13345398
0.12770711 0.00019822903 -0.0364829 0.17541274 -0.12747975 0.040965725 -0.029025408 -0.3466884
-0.058508925 0.07223451 0.21487725 -0.31708047 -0.039278585 -0.33730614 -0.31187698 -0.0069847964
-0.08878099 -0.0080316495 -0.34145957 0.08925741 -0.0053533744 0.09799895 0.02924645 0.13068756
0.110015176 -0.21347348 -0.043583542 -0.17819598 0.07724364 -0.0967788 -0.25691944 -0.1835961
0.2640196 -0.0070313164 0.6287252 0.5594724 -0.07110979 0.065101855 -0.17627178 0.11166151
-0.04014901 0.08515756 -0.47457072 -0.4310919 -0.27373445 -0.71556526 0.043933403 -0.29551497
-0.21917173 -0.041917395 0.057063244 0.14371048 0.19227177 0.10379106 0.42985657 0.08651475
0.096440256 0.0065787546 -0.18650818 0.23484911 0.090985745 -0.20983359 0.50393564 0.10895138
0.33864278 0.032145925 -0.28461856 -0.15887454 0.03198544 0.19343185 -0.31832358 0.08788327
0.061832536 -0.08205965 -0.08602436 0.0244464 0.14935179 0.032647166 -0.04228709 0.018400222
-0.02621136 0.082343005 0.22667514 0.051616814 0.3639868 0.25802204 -0.08598398 -0.07849028
0.102597445 -0.34579808 -0.319748 -0.16681008 0.23743111 -0.044407513 0.27782077 -0.039984856
0.046953496 0.048316427 0.06620862 -0.0306003 -0.26441094 0.4578822 0.11035283 -0.033657946
0.21306275 -0.063421965 -0.24431112 0.3742338 -0.21423182 0.1489991 -0.03806343 -0.28627893
-0.08685525 -0.20271726 -0.050409917 0.02332116 0.108453594 0.13865104 0.18294337 -0.11541178
0.21983221 -0.16861093 -0.059200376 0.17072189 -0.23882386 0.2615353 0.17388925 -0.2342052
0.027754592 0.14239755 0.2481006 0.10571266 -0.05117567 -0.15743189 -0.0785043 -0.19124724
-0.08025558 0.33048958 0.22554499 0.182308 -0.03617957 -0.025885737 0.15554796 -0.23639713
00000000: 2968 e13d 6d48 16be 7bc4 003d 6e1e 623e
00000010: da2f 3abe 71e7 9b3e 9d75 033d 6ccb a1bc
00000020: b37c 7fbd 7d96 9bbe 4531 40be b98c d9be
00000030: 8893 41be 940f 24bf 6adb cabe 4a40 f73d
00000040: 67bb e3bd 4213 db3d 6fa7 c93e acae 57be
00000050: a6fb 213e 1086 283c 9876 cd3b bfb6 21bc
00000060: 3a1e 6e3d bec3 813d 0e94 c53e aeb0 f43e
00000070: 1fa7 8f3d a629 18bd 8e7d 0d3f c400 c53d
00000080: d0cb 333e e44e 873c 43fa 73be 4e21 03bf
00000090: 78be 003e d80e 353d e6eb 333e aa5a 6e3e
000000a0: fd06 d63e 4bde 3fbe 6e8e 9c3e a0a8 a4bd
000000b0: 7ece 3fbe cdde afbd cd85 143c 1057 d1bd
000000c0: 3335 1fbe a6c2 88be aac6 3ebe c760 09be
000000d0: 0e96 163d c437 63be c4b7 febc 977f 8c3e
000000e0: d3f7 12be b3a8 e6be 5967 70be 32d3 f13d
000000f0: 2ea1 6cbd 85a5 d63d 83d6 493e 3caa 0e3e
00000100: 0a75 b3be c1eb 283e 749f f0bc 1ba2 c6be
00000110: 8450 f8bc a7e4 4cbd 29e3 d83c 73ea f73d
00000120: 34c2 a43e 3960 7f3d 7fdc 503e 309c 3e3e
00000130: 52df a03c e770 55be b8d9 9a3d d6f3 ae3e
00000140: ba65 46bd 6146 c7be e604 f9be fd01 20be
00000150: fa17 1abe b68a abbe 1673 d6be c5f9 b23e
00000160: 8408 babc 70a7 673d 2dd8 2b3e b85d 4dbe
00000170: 5bff 533e 1273 143e 14b0 823e 0ea0 7ebe
00000180: 69db 7dbd e3dd bdbd 2654 aabd 0447 0bbf
00000190: d142 5c3e a506 23bf 3fbc 323d 794d 83be
000001a0: c6fe 62be 48bf 93be 4cb5 35be 7090 c4bd
000001b0: 3386 813d c68d 413e e2b6 c93d 29a8 083e
000001c0: a7c5 023e b3db 4f39 186f 15bd 669f 333e
000001d0: 0d8a 02be adcb 273d b1c6 edbc 2481 b1be
000001e0: 0ea7 6fbd b0ef 933d c808 5c3e 5f58 a2be
000001f0: 95e2 20bd 64b3 acbe 57ae 9fbe b8e0 e4bb
00000200: cfd2 b5bd 2e97 03bc cad3 aebe 97cc b63d
00000210: 5c6b afbb acb3 c83d 4096 ef3c f6d2 053e
00000220: a34f e13d cb98 5abe a884 32bd 0279 36be
00000230: ea31 9e3d f733 c6bd f28a 83be 9e00 3cbe
00000240: 942d 873e f566 e6bb 22f4 203f 9539 0f3f
00000250: 02a2 91bd 1f54 853d 9780 34be caae e43d
00000260: 4a73 24bd 1667 ae3d effa f2be 14b8 dcbe
00000270: ec26 8cbe 492f 37bf 83f3 333d bd4d 97be
00000280: 8e6e 60be 93b1 2bbd 26bb 693d d728 133e
00000290: e4e2 443e 6890 d43d 2916 dc3e a52e b13d
000002a0: 7882 c53d 9892 d73b 00fc 3ebe 497c 703e
000002b0: bc56 ba3d 9ede 56be ed01 013f e721 df3d
000002c0: 9662 ad3e 72ab 033d 86b9 91be 02b0 22be
000002d0: 2a03 033d 0013 463e 4ffb a2be 25fc b33d
000002e0: 1d44 7d3d e40e a8bd 8a2d b0bd d143 c83c
000002f0: adef 183e 09b9 053d 3a35 2dbd 10bc 963c
00000300: 35b9 d6bc 73a3 a83d 871d 683e 276c 533d
00000310: 7a5c ba3e 771b 843e 5e18 b0bd 83bf a0bd
00000320: 9c1e d23d 720c b1be 03b6 a3be 43d0 2abe
00000330: 2421 733e a7e4 35bd 863e 8e3e 29c7 23bd
00000340: 4f52 403d 72e7 453d 6398 873d 7bad fabc
00000350: df60 87be 896f ea3e aa00 e23d eadc 09bd
00000360: 1f2d 5a3e 60e3 81bd b22c 7abe 939b bf3e
00000370: 965f 5bbe 3893 183e 66e8 1bbd 2793 92be
00000380: 2ae1 b1bd 1d95 4fbe a17a 4ebd 040c bf3c
00000390: eb1c de3d 8afa 0d3e 8255 3b3e 035d ecbd
000003a0: b21b 613e 58a8 2cbe 187c 72bd b8d1 2e3e
000003b0: 3e8e 74be f4e7 853e 0610 323e 7dd3 6fbe
000003c0: 995d e33c aad0 113e 150e 7e3e e17f d83d
000003d0: 949d 51bd d335 21be ddc6 a0bd 51d6 43be
000003e0: 0a5d a4bd ee35 a93e 44f5 663e f3ae 3a3e
000003f0: 0731 14bd 530e d4bc f747 1f3e 1712 72be

lstm.weight_hh_l0 f4 [128, 32]
-0.050033692 -0.5097778 0.051160514 0.32083246 0.20113274 -0.080262735 0.07430906 0.19244984
-0.30027863 0.287015 -0.019311123 0.24997199 0.23854814 0.37096858 -0.1090429 0.18238778
-0.028888166 -0.13143554 -0.21108525 0.2494347 0.030286588 -0.20161024 0.15209867 -0.2350543
-0.022600573 0.2454513 0.051070534 -0.41687214 -0.24139586 -0.0648395 -0.07955173 -0.03136166
0.13511539 0.14428021 0.23484254 0.23451598 0.035694875 -0.13794677 -0.14658895 0.13531925
-0.014280825 -0.06914849 0.26101267 0.15254912 0.17932425 0.05953263 -0.23775123 0.13733943
-0.03572965 0.17201094 0.19092779 -0.06859472 0.3295179 -0.08380254 -0.20614947 0.010610123
-0.08613001 -0.15864772 0.21855132 -0.23476544 -0.0049494714 0.052307528 0.15915741 0.21640047
0.4546235 -0.12513202 0.21039458 -0.011079741 0.13887215 -0.06870983 0.21785197 0.38530603
-0.27599213 0.11564162 -0.08575625 -0.053032085 -0.05544414 -0.08423447 0.15982148 0.11595503
0.47412696 -0.27735692 0.32973802 0.09278839 -0.14402595 0.14281346 0.08990996 -0.21989362
0.30863583 -0.40910804 0.35078585 -0.3989209 -0.0868079 -0.44110605 -0.077221826 -0.048453595
-0.4334789 0.013540188 0.17905983 -0.23284732 0.28058323 -0.14396445 0.011205745 -0.3859665
-0.09135732 0.030353766 0.13314557 -0.079420276 0.077790864 -0.11806303 -0.38339913 -0.12517934
0.57934445 -0.3055946 0.14343588 -0.16856268 0.63192964 0.20559186 -0.16719292 0.121780016
0.2260807 0.07991187 -0.21575835 -0.26139444 -0.007652203 -0.1794489 0.20235048 -0.07572045
-0.063473046 0.07023375 0.21059 0.06406391 0.01748526 -0.07561467 0.1935123 -0.020486059
-0.08117832 0.037903216 0.23711853 0.18570594 0.20915118 -0.09171978 -0.24957107 0.0084497
-0.14134662 -0.10948123 -0.10978343 0.03422284 0.1375818 0.019941492 -0.1263953 -0.07323258
0.16162097 0.29008013 0.17159241 -0.1763945 -0.035087243 0.20533653 -0.1094481 -0.3311637
-0.047116805 0.07398854 0.07566574 0.08163171 -0.24729165 0.054761633 0.0944794 -0.14741531
-0.12126859 -0.029407926 -0.023003327 0.01250733 -0.08192457 0.20815563 -0.09295515 -0.112668805
-0.048091467 -0.14913392 -0.16215783 0.23835377 -0.18720208 -0.13041003 -0.16570084 0.2574103
-0.060418844 0.046241984 0.06627652 0.106641375 -0.06605989 0.14638409 -0.23583625 0.12437694
0.04104282 -0.108151935 -0.15940994 0.32463023 0.013981219 0.017636323 0.014808004 0.0018318171
-0.23205006 -0.04100723 0.42782933 -0.15090378 -0.26596168 0.20118862 0.02387165 0.25521672
0.058019657 -0.060563512 -0.03218316 0.09417974 0.07877972 -0.020557607 0.22058134 0.11016631
0.19965316 -0.05059017 -0.063315876 -0.1661673 -0.06703554 -0.0649525 -0.00589783 0.29282412
0.27240735 0.14604007 0.105985776 0.3853418 0.041521937 -0.18207836 -0.035556097 0.16949147
-0.14947994 -0.1673611 -0.07774564 0.029340552 0.2146751 -0.13167483 -0.0611573 -0.0432014
0.050500136 -0.04170796 -0.3327437 0.5692635 -0.44250348 -0.28024653 0.025800014 -0.03361976
-0.012469118 -0.08051622 0.0009298449 -0.11916656 -0.20268124 -0.36383834 -0.005965611 -0.17806901
00000000: 21f0 4cbd cc80 02bf b08d 513d 2744 a43e
00000010: bef5 4d3e ca60 a4bd 592f 983d 9211 453e
00000020: 1fbe 99be a1f3 923e 5c32 9ebc a8f8 7f3e
00000030: f745 743e 98ef bd3e e251 dfbd ddc3 3a3e
00000040: e0a6 ecbc 0a97 06be bb26 58be cf6b 7f3e
00000050: 941b f83c ea72 4ebe c1bf 1b3e 13b2 70be
00000060: d624 b9bc 9657 7b3e 562f 513d 4470 d5be
00000070: 7a30 77be 92ca 84bd 04ec a2bd 1675 00bd
00000080: b05b 0a3e 31be 133e 907a 703e f524 703e
00000090: ca34 123d eb41 0dbe 6a1b 16be 2191 0a3e
000000a0: 1ffa 69bc b99d 8dbd 74a3 853e d635 1c3e
000000b0: c7a0 373e 7dd8 733d 0f75 73be b5a2 0c3e
000000c0: 4159 12bd a323 303e 9382 433e 637b 8cbd
000000d0: 92b6 a83e aba0 abbd d918 53be 15d6 2d3c
000000e0: ee64 b0bd 8c74 22be ebcb 5f3e 5a66 70be
000000f0: 2d2f a2bb 6b40 563d 29fa 223e 1698 5d3e
00000100: 69c4 e83e 9c22 00be ad71 573e cd87 35bc
00000110: 8034 0e3e bdb7 8cbd 9614 5f3e d546 c53e
00000120: d74e 8dbe 83d5 ec3d f9a0 afbd 2c38 59bd
00000130: 6519 63bd 1f83 acbd 3ea8 233e d579 ed3d
00000140: c5c0 f23e ba01 8ebe 6cd3 a83e d707 be3d
00000150: 8a7b 13be b13d 123e b722 b83d cb2b 61be
00000160: 8405 9e3e 9c76 d1be 349a b33e 5c3f ccbe
00000170: 57c8 b1bd a7d8 e1be 7a26 9ebd 4777 46bd
00000180: f2f0 ddbe aad7 5d3c 765b 373e 876f 6ebe
00000190: 9ba8 8f3e 6b6b 13be 4d98 373c 679d c5be
000001a0: 8c19 bbbd 76a8 f83c 5057 083e 19a7 a2bd
000001b0: d150 9f3d 08cb f1bd e44c c4be 032f 00be
000001c0: eb4f 143f e576 9cbe dbe0 123e b29b 2cbe
000001d0: 24c6 213f ac86 523e 9f34 2bbe cd67 f93d
000001e0: b381 673e d6a8 a33d c2ef 5cbe 7ed5 85be
000001f0: 55bf fabb 74c1 37be f734 4f3e 5313 9bbd
00000200: 28fe 81bd b6d6 8f3d e8a4 573e f033 833d
00000210: 3f3d 8f3c dddb 9abd 1728 463e 61d2 a7bc
00000220: d240 a6bd 6740 1b3d 33cf 723e b329 3e3e
00000230: ba2b 563e 94d7 bbbd 8f8f 7fbe 9c70 0a3c
00000240: 2bbd 10be b237 e0bd 23d6 e0bd 402d 0c3d
00000250: 3ee2 0c3e 575c a33c c56d 01be f7fa 95bd
00000260: f87f 253e 6285 943e ecb5 2f3e c3a0 34be
00000270: a4b7 0fbd bd43 523e 5326 e0bd 4a8e a9be
00000280: 8dfd 40bd 4e87 973d a4f6 9a3d 872e a73d
00000290: 063a 7dbe bc4d 603d 6a7e c13d 0af4 16be
000002a0: ab5b f8bd e4e8 f0bc 7971 bcbc 8beb 4c3c
000002b0: 12c8 a7bd c026 553e 455f bebd e7be e6bd
000002c0: 8ffb 44bd 90b6 18be b40c 26be 0313 743e
000002d0: e7b1 3fbe 358a 05be 7bad 29be 48cb 833e
000002e0: c079 77bd 3c68 3d3d fcbb 873d cb66 da3d
000002f0: 684a 87bd b6e5 153e 0f7f 71be 56b9 fe3d
00000300: 841c 283d c37e ddbd 5c3c 23be ef35 a63e
00000310: 7c11 653c 0d7a 903c 459d 723c 9519 f03a
00000320: 889e 6dbe 32f7 27bd 720c db3e 8586 1abe
00000330: 212c 88be 6404 4e3e 7b8e c33c c4ab 823e
00000340: 05a6 6d3d 7211 78bd 7dd2 03bd 4fe1 c03d
00000350: 4357 a13d 6d68 a8bc 13e0 613e e09e e13d
00000360: e171 4c3e a337 4fbd c1ab 81bd c327 2abe
00000370: ee49 89bd d105 85bd 9542 c1bb 0bed 953e
00000380: fa78 8b3e 878b 153e 120f d93d 854b c53e
00000390: e812 2a3d c072 3abe 45a3 11bd 2c8f 2d3e
000003a0: 4511 19be b560 2bbe 1b39 9fbd 995b f03c
000003b0: cad3 5b3e c4d5 06be 1480 7abd f4f3 30bd
000003c0: 3bd9 4e3d f7d5 2abd 625d aabe 41bb 113f
000003d0: d18f e2be 797c 8fbe 8d5a d33c e0b4 09bd
000003e0: 464b 4cbc b0e5 a4bd d6c0 733a 990d f4bd
000003f0: ac8b 4fbe 0549 babe 2c7b c3bb b957 36be

lstm.bias_ih_l0 f4 [128]
-0.021894695 0.19400734 0.04785089 0.03471615 0.033180054 -0.11010222 0.32284883 0.27467796
-0.13553546 -0.18877794 0.15698175 0.006920097 0.23528472 0.031583276 0.3232038 0.052518163
0.031094704 -0.1188643 -0.07443361 0.027350891 -0.1464332 0.0511003 0.0331052 0.005391867
-0.054989014 0.1518715 -0.031410195 -0.1403934 0.03260102 -0.05853829 -0.09220986 0.040324964
-0.26469344 -0.104625106 -0.031773303 0.09813047 0.20220894 -0.19347411 0.11929274 0.09410635
-0.025325824 0.02606701 0.22091572 0.0796937 0.003976827 -0.037300345 0.08550325 0.05914698
0.0015458231 -0.002861454 -0.1872438 0.13471015 0.05787534 -0.14552754 0.09510654 -0.011705518
0.17993091 -0.26379186 0.25266355 -0.046354953 0.07483562 -0.1586547 0.09785071 0.22763498
0.043724567 0.06078958 -0.23412554 -0.13843696 0.14338797 0.2150609 -0.04671602 0.11899547
0.15455075 0.2134497 -0.11512944 0.00029745288 -0.0787057 -0.018539028 0.17208081 0.01927515
-0.18250646 0.24168497 0.09612453 -0.014401724 -0.10067768 0.070657134 -0.09786628 0.048324518
0.005167913 -0.124150105 -0.18902586 0.08142385 -0.10321689 -0.0691059 0.085948505 -0.16143963
0.24161479 0.24012893 0.30395004 0.31776673 -0.043153293 0.032378297 0.2057918 0.22289172
-0.13024516 -0.13592641 0.07771056 0.0024366642 0.16753334 0.15656863 0.033545066 -0.073810115
-0.06866755 0.17388105 0.18260525 -0.020071836 -0.17785254 0.055725727 -0.019867904 0.15425742
0.08522961 -0.020569272 0.04938599 -0.13356486 0.12537919 0.23673879 0.24054012 0.0373174
00000000: 815c b3bc dca9 463e 4bff 433d 8632 0e3d
00000010: cfe7 073d 467d e1bd 714c a53e 97a2 8c3e
00000020: cfc9 0abe 014f 41be d3bf 203e fbc1 e23b
00000030: 7aee 703e 775d 013d f87a a53e 491d 573d
00000040: 52ba fe3c 206f f3bd a670 98bd fa0e e03c
00000050: 96f2 15be 8c4e 513d 5199 073d 42ae b03b
00000060: 293c 61bd 3484 1b3e faa7 00bd 4ac3 0fbe
00000070: a688 053d d9c5 6fbd 86d8 bcbd ca2b 253d
00000080: e685 87be b045 d6bd b924 02bd a1f8 c83d
00000090: dc0f 4f3e 141e 46be c14f f43d d4ba c03d
000000a0: 1a78 cfbc 7b8a d53c bb37 623e 7336 a33d
000000b0: 0b50 823b 3fc8 18bd 541c af3d 1b44 723d
000000c0: 379d ca3a 3b87 3bbb d7bc 3fbe 75f1 093e
000000d0: b10e 6d3d 2c05 15be 38c7 c23d 80c8 3fbc
000000e0: cf3f 383e ba0f 87be 1e5d 813e b1de 3dbd
000000f0: 6b43 993d 6176 22be f465 c83d 2519 693e
00000100: 8818 333d 7ffe 783d 9bbe 6fbe 6bc2 0dbe
00000110: 4cd4 123e ed38 5c3e 4c59 3fbd e6b3 f33d
00000120: 8d42 1e3e 8f92 5a3e fcc8 ebbd 73f3 9b39
00000130: 7430 a1bd 29df 97bc f435 303e ebe6 9d3c
00000140: f9e2 3abe 447c 773e f0dc c43d 35f5 6bbc
00000150: 1930 cebd b0b4 903d 1e6e c8bd eeef 453d
00000160: 9957 a93b 6942 febd ff8f 41be 8cc1 a63d
00000170: 6063 d3bd 6587 8dbd c505 b03d 6e50 25be
00000180: de69 773e 5ce4 753e 579f 9b3e 52b2 a23e
00000190: 82c1 30bd 1b9f 043d 16bb 523e ba3d 643e
000001a0: fd5e 05be 4b30 0bbe b726 9f3d 71b0 1f3b
000001b0: dc8d 2b3e 8753 203e 8d66 093d c229 97bd
000001c0: 93a1 8cbd e00d 323e dffc 3a3e b16d a4bc
000001d0: fa1e 36be a940 643d 04c2 a2bc a8f5 1d3e
000001e0: dd8c ae3d e480 a8bc f748 4a3d 3ac5 08be
000001f0: 6763 003e a76b 723e 2650 763e 21da 183d

lstm.bias_hh_l0 f4 [128]
0.10464951 0.17084214 0.16814044 0.061390076 0.16874863 0.051778056 0.161147 0.2992198
0.10761858 -0.27409798 0.25605634 0.04655079 0.30390403 -0.035723154 0.10178474 0.20382378
0.1537434 -0.15104857 0.17449313 0.16660482 0.06817395 0.023517769 -0.02720151 0.23510188
0.12154299 0.13536114 -0.06376973 -0.072491385 0.056633223 0.0962099 0.13809422 0.15771209
-0.28219056 -0.08143135 -0.04177679 0.011625535 0.18091264 0.10728896 0.062483933 0.09138141
0.13005891 -0.24595267 0.0014182044 0.1946393 -0.118489355 0.027477073 0.03850454 0.0606067
0.060684968 -0.08417537 -0.08047876 0.20685153 0.034119267 -0.05930345 0.081027426 -0.14525428
0.14152093 -0.08544468 0.15283862 0.003666498 0.1355167 -0.055500764 0.13916677 0.18581972
-0.040334176 -0.029428925 -0.16266115 0.015055854 -0.13245884 0.14540687 0.14071938 -0.036660746
-0.12999547 0.23152554 -0.12229943 0.18254898 0.13619335 -0.032355208 0.010319916 -0.052005574
0.10659344 -0.019242344 0.046212565 -0.14243223 0.13129766 0.028729647 0.19876209 -0.12058158
0.08621507 -0.21049693 0.075157 -0.00147399 0.038995635 0.086855926 -0.124793105 0.05132306
0.0020778724 0.1649574 0.11487501 0.30723011 0.1100991 0.22547135 0.34170783 0.27848995
0.0018530637 -0.23261452 0.029716533 -0.05773689 0.27935597 0.10667585 0.18527903 -0.045090936
-0.11585029 0.07512289 0.17318237 0.22933845 0.11817486 -0.10966181 0.12750576 0.23469931
0.0579093 0.06091152 0.18555215 0.04142759 -0.027115572 0.15859057 0.2617067 0.13363075
00000000: 7b52 d63d 3ef1 2e3e 022d 2c3e 2974 7b3d
00000010: 71cc 2c3e 3a15 543d b803 253e 5633 993e
00000020: 2167 dc3d 9256 8cbe d119 833e 0bac 3e3d
00000030: 4f99 9b3e 7152 12bd 8574 d03d 2eb7 503e
00000040: e96e 1d3e 7aac 1abe 54ae 323e 749a 2a3e
00000050: c99e 8b3d 56a8 c03c b3d5 debc 8cbe 703e
00000060: 88eb f83d 1c9c 0a3e b499 82bd 5d76 94bd
00000070: 3df8 673d b209 c53d 9268 0d3e 477f 213e
00000080: 487b 90be 7bc5 a6bd 241e 2bbd 0779 3e3c
00000090: 2a41 393e 50ba db3d 27ef 7f3d 2d26 bb3d
000000a0: 2a2e 053e 04db 7bbe 0be3 b93a 864f 473e
000000b0: 8caa f2bd 9917 e13c f0b6 1d3d bb3e 783d
000000c0: cd90 783d 2364 acbd 0cd2 a4bd e3d0 533e
000000d0: a5c0 0b3d 2de8 72bd b5f1 a53d 8abd 14be
000000e0: ddea 103e 9ffd aebd ba81 1c3e a149 703b
000000f0: e4c4 0a3e c554 63bd bc81 0e3e 8647 3e3e
00000100: 7335 25bd ee14 f1bc a590 26be d4ac 763c
00000110: 4aa3 07be 8ae5 143e be18 103e 9429 16bd
00000120: 881d 05be 0815 6d3e 2078 fabd 1fee 3a3e
00000130: 4576 0b3e e586 04bd dd14 293c cc03 55bd
00000140: a94d da3d 1fa2 9dbc 6349 3d3d c1d9 11be
00000150: e572 063e 705a eb3c 4a88 4b3e 7af3 f6bd
00000160: 8791 b03d 828c 57be eaeb 993d e632 c1ba
00000170: e3b9 1f3d 85e1 b13d 8793 ffbd 2138 523d
00000180: ea2c 083b 98ea 283e 9743 eb3d 444d 9d3e
00000190: a37b e13d f6e1 663e 54f4 ae3e 3c96 8e3e
000001a0: 80e2 f23a 8032 6ebe 1670 f33c 847d 6cbd
000001b0: bf07 8f3e de78 da3d c9b9 3d3e 46b1 38bd
000001c0: eb42 edbd 08da 993d b856 313e b3d7 6a3e
000001d0: a905 f23d 5f96 e0bd df90 023e 0455 703e
000001e0: 4d32 6d3d 5c7e 793d 6201 3e3e faaf 293d
000001f0: 7a21 debc 9165 223e 6cfe 853e 80d6 083e

lstm.weight_ih_l0_reverse f4 [128, 9]
0.1502669 0.11603615 0.013867141 -0.31561542 0.3846051 -0.09622388 -0.16656548 -0.20772575
-0.10012152 0.015898041 -0.14245546 0.026014553 -0.13933119 -0.15484245 -0.34435195 0.106116824
0.106977776 0.38780645 -0.29893523 -0.06577792 0.12130017 0.016862959 0.022142025 -0.1547742
0.27938303 0.33369598 -0.09434876 -0.38001838 0.21435402 -0.25139272 -0.019606713 -0.30506623
-0.2745566 -0.006866821 -0.06005255 -0.28304324 0.16252881 0.23908179 0.14660692 -0.08771792
-0.048052706 0.18677111 -0.0026032247 0.20195286 -0.262469 0.070023075 -0.34329182 -0.19870658
0.0776788 -0.54125834 -0.046887614 -0.16761972 -0.13486712 0.09431425 -0.46958947 -0.17226665
-0.06618074 -0.20454787 -0.045083497 -0.13801758 0.33057538 0.14387575 0.31193516 -0.244557
0.22103153 -0.13642031 -0.034254488 0.20935313 0.065288335 0.04932521 0.2365838 -0.20147167
0.3149009 0.4397751 0.04720873 0.52996016 0.53511816 0.08946223 -0.10508589 -0.16139401
0.12808402 -0.14920332 -0.25393063 0.010318145 0.030519485 -0.015580596 0.2077363 0.38269454
0.13702936 -0.13457407 0.111942254 0.124896765 0.19805405 0.09078502 0.059617516 0.13462383
0.015953735 -0.19942519 -0.24833341 -0.23065346 -0.059914034 0.030124828 -0.06826221 0.32901716
0.10937052 0.37316957 -0.10412812 -0.05611446 0.083258584 0.40657517 -0.0024277014 0.06979308
-0.038987264 0.08938698 -0.3855793 -0.02574048 0.24643168 -0.36592427 0.17469428 -0.04373002
-0.22634158 -0.43278307 -0.2020515 -0.10620872 -0.07505039 0.045106452 0.12932 -0.5030589
0.07847386 -0.099093534 -0.014290957 0.2012053 -0.1276569 0.1699925 -0.18367997 -0.05675172
-0.5356867 -0.03560645 -0.011013413 -0.6421858 -0.49577653 -0.25711408 0.12131204 -0.22532791
0.16276687 0.09001795 -0.12322787 0.25703472 -0.06106435 0.21926041 0.19929811 -0.041332986
0.0072391783 -0.16824222 -0.06557839 0.028988414 -0.017703256 0.24021196 -0.17727353 0.35777915
0.027843654 -0.26045978 0.09638626 0.21967915 -0.16701262 0.044332113 -0.34815562 -0.1295504
0.09386064 -0.31549796 0.10318401 -0.03644632 -0.1782725 0.16853923 0.17040157 -0.091407314
0.059499435 0.23848867 0.076526865 0.21241558 0.36041436 0.19016623 0.23084545 0.40870428
0.4295318 0.0745012 -0.4238103 0.3467432 0.13196705 -0.07964699 0.012334927 0.1396598
0.2949131 0.31564912 0.3038566 -0.03809904 0.29065716 -0.18773577 0.100918226 0.054067187
0.28332788 0.049006276 0.4498064 -0.12989055 0.26936638 0.2559847 -0.28327632 -0.104009375
0.37432727 -0.15073586 -0.23580498 -0.15340577 -0.07711289 -0.052979454 -0.3057837 -0.079763845
-0.0119998865 0.18963498 0.030030357 0.11198336 0.22307694 0.0656275 0.11177423 0.06309516
0.057091285 0.2957403 -0.00910964 -0.09755823 0.1944843 0.047242776 -0.16991611 0.20394401
-0.0053979415 0.43004727 -0.32800207 -0.21082653 -0.23593657 -0.0647544 0.16418462 -0.2370345
0.052169345 -0.23387742 0.11681985 0.22200508 0.09095541 0.035196938 0.008766268 -0.39306653
0.2678224 0.093435995 -0.09915046 -0.21726131 -0.048151866 -0.20716193 -0.10490444 0.15111484
00000000: 91df 193e 5ca4 ed3d 0133 633c 5898 a1be
00000010: f6ea c43e 0711 c5bd 2490 2abe 0fb6 54be
00000020: 830c cdbd 9c3c 823c d8df 11be 791c d53c
00000030: d6ac 0ebe 058f 1ebe e64e b0be c753 d93d
00000040: 2a17 db3d 918e c63e 0a0e 99be 93b6 86bd
00000050: 396c f83d 3024 8a3c 3163 b53c 217d 1ebe
00000060: 4b0b 8f3e 33da aa3e ec39 c1bd c591 c2be
00000070: 9f7f 5b3e 8cb6 80be 429e a0bc a431 9cbe
00000080: af92 8cbe 1203 e1bb aaf9 75bd 0beb 90be
00000090: f46d 263e dbd1 743e 2020 163e 74a5 b3bd
000000a0: ead2 44bd ed40 3f3e dd9a 2abb bbcc 4e3e
000000b0: 5662 86be 4268 8f3d f2c3 afbe bd79 4bbe
000000c0: 1016 9f3d e88f 0abf 3a0d 40bd 81a4 2bbe
000000d0: 9b1a 0abe d427 c13d 086e f0be ab66 30be
000000e0: c589 87bd ff74 51be 79a9 38bd 7b54 0dbe
000000f0: 2d41 a93e 2a54 133e f7b5 9f3e 266d 7abe
00000100: 1756 623e c4b1 0bbe 6f4e 0cbd ab60 563e
00000110: e4b5 853d 3b09 4a3d 0643 723e 974e 4ebe
00000120: b13a a13e 342a e13e f15d 413d 78ab 073f
00000130: 81fd 083f f937 b73d 4537 d7bd 7944 25be
00000140: 7528 033e c1c8 18be 3203 82be 700d 293c
00000150: 0004 fa3c c245 7fbc d3b8 543e 8af0 c33e
00000160: 6d51 0c3e c9cd 09be fb41 e53d e0c9 ff3d
00000170: aece 4a3e 7fed b93d 7f31 743d d4da 093e
00000180: 68b1 823c 1e36 4cbe 1d4b 7ebe 6c30 6cbe
00000190: 6b68 75bd 58c8 f63c 0fcd 8bbd f074 a83e
000001a0: a7fd df3d 1510 bf3e 2041 d5bd 47d8 65bd
000001b0: 7a83 aa3d 9f2a d03e 121a 1fbb adef 8e3d
000001c0: 1cb1 1fbd 8510 b73d a66a c5be b3dd d2bc
000001d0: 9658 7c3e 6d5a bbbe 0fe3 323e 401e 33bd
000001e0: 16c6 67be be95 ddbe 97e6 4ebe f583 d9bd
000001f0: 05b4 99bd 8bc1 383d 766c 043e 78c8 00bf
00000200: e7b6 a03d 8df1 cabd 9e24 6abc c308 4e3e
00000210: 7eb8 02be 8412 2e3e 9a16 3cbe 7e74 68bd
00000220: c322 09bf 12d8 11bd 9a71 34bc 4a66 24bf
00000230: 6cd6 fdbe 75a4 83be 7272 f83d 5cbc 66be
00000240: 5cac 263e 555b b83d e55e fcbd 0e9a 833e
00000250: 9d1e 7abd cd85 603e ce14 4c3e c74c 29bd
00000260: a136 ed3b b047 2cbe f74d 86bd 1c79 ed3c
00000270: 6b06 91bc 20fa 753e 3187 35be d42e b73e
00000280: 6018 e43c fc5a 85be 2966 c53d 92f3 603e
00000290: 5b05 2bbe 9795 353d 7441 b2be dca8 04be
000002a0: 023a c03d f388 a1be 2352 d33d bd48 15bd
000002b0: 118d 36be 8c95 2c3e c07d 2e3e c233 bbbd
000002c0: aeb5 733d 6036 743e 1eba 9c3d 7883 593e
000002d0: 3b88 b83e f0ba 423e c062 6c3e b041 d13e
000002e0: 98eb db3e 1694 983d aafd d8be 5388 b13e
000002f0: 5f22 073e f61d a3bd 6f18 4a3c fb02 0f3e
00000300: dafe 963e c39c a13e 1893 9b3e bd0d 1cbd
00000310: 04d1 943e ce3d 40be 37ae ce3d 8e75 5d3d
00000320: 5a10 913e ceba 483d 064d e63e 0702 05be
00000330: 64ea 893e 6d10 833e 9809 91be de02 d5bd
00000340: d3a7 bf3e 805a 1abe dc76 71be 6716 1dbe
00000350: 5ded 9dbd fc00 59bd ae8f 9cbe 3a5b a3bd
00000360: 2c9b 44bc ac2f 423e 3902 f63c 8857 e53d
00000370: 486e 643e b667 863d e3e9 e43d 0938 813d
00000380: 8dd8 693d 466b 973e 9940 15bc 9ccc c7bd
00000390: e426 473e a481 413d 7dfe 2dbe b3d6 503e
000003a0: 37e1 b0bb 282f dc3e e3ef a7be e9e2 57be
000003b0: 5b99 71be f49d 84bd 0320 283e 2cb9 72be
000003c0: 86af 553d 907d 6fbe 3f3f ef3d 4d55 633e
000003d0: d446 ba3d aa2a 103d 65a0 0f3c 0440 c9be
000003e0: 0520 893e 5f5b bf3d 650f cbbd c079 5ebe
000003f0: e43a 45bd 4222 54be 24d8 d6bd d9bd 1a3e

lstm.weight_hh_l0_reverse f4 [128, 32]
0.15137781 0.1255639 -0.1355751 -0.12525511 0.06782297 -0.58490515 -0.08633143 0.18228896
0.090662725 -0.042855345 0.21838105 0.20594458 0.17757282 -0.013280584 0.08238063 0.4763265
-0.07517967 0.24947649 0.04002988 0.16256581 -0.011100541 -0.058624346 0.031033833 0.033105906
-0.044609554 -0.44796872 -0.1785962 0.12106761 -0.2619787 0.21099126 -0.10822768 -0.11864996
0.032169525 0.14822058 0.25983864 -0.26159993 -0.14964579 -0.25978744 0.12367025 -0.12703341
0.06701432 -0.12254594 -0.086644836 -0.09728395 -0.15762931 0.15688743 0.075175874 0.112121135
-0.05195855 -0.06339188 0.06493223 -0.022038387 0.029967409 0.024427013 -0.06492061 -0.2842913
0.079124644 0.2138539 0.061179236 0.07917072 -0.098278046 0.38864797 -0.029951075 0.12301811
-0.17236932 0.29558814 -0.2677194 -0.24563949 -0.06068338 0.1249371 -0.11746497 -0.008800386
0.41431633 0.1630501 -0.117110424 0.2577228 -0.00078381156 -0.23271072 -0.059199415 0.18013641
-0.26634496 0.0325415 0.430717 0.3874141 0.061328918 -0.20625958 -0.0932696 -0.034211274
0.0046287947 -0.10035912 0.030048534 0.28964224 0.12169258 0.094840154 0.1811892 -0.394535
0.05612832 0.17070083 0.056395743 0.098087296 0.043633986 -0.025250403 0.10843229 -0.12023402
0.06851551 0.040637147 -0.55932564 0.07049416 0.091168664 -0.07606321 0.008221423 0.087786
0.15727764 -0.022486629 -0.0022892035 0.08030069 -0.11478297 -0.25770023 -0.17189308 -0.06584385
0.05783106 0.03414838 -0.27202925 -0.13484402 -0.03825825 0.079600126 -0.019252453 0.013857291
-0.064497195 0.33189774 0.06343645 -0.00948832 0.06339249 -0.18201958 -0.09490093 0.051338576
-0.17391792 -0.23782672 0.071324944 -0.10766804 0.12594996 0.24083667 0.06489676 -0.038396813
-0.13032405 0.020753486 0.10003468 -0.12628423 0.14153032 0.0021560523 -0.13759601 -0.19735265
0.26509923 -0.007463906 -0.15088007 0.020741591 -0.0049054692 0.20691717 -0.31134623 0.22557719
0.21398884 -0.016167594 0.03983389 0.09739934 -0.036792815 -0.2817048 0.11153627 -0.34479687
0.020452945 -0.38828573 -0.32876328 0.031352382 0.29616413 0.23318209 0.32033113 0.22275701
0.13608707 -0.12409508 0.130837 -0.2111299 0.03427301 -0.0012236736 -0.024354696 -0.20372966
0.018647168 -0.22869067 -0.00012967201 0.045254853 0.14080521 0.43906093 0.013829349 0.09635685
0.23816724 0.05686769 -0.12662035 0.17751206 -0.21499218 -0.09355825 -0.035548836 0.010267146
-0.06366801 -0.00867433 0.14794259 -0.21447256 0.11357407 -0.10402995 -0.08961814 0.04385477
0.078973174 -0.08981542 -0.18138376 -0.056201983 -0.29080075 -0.29810628 -0.032970317 -0.117839016
0.071995966 -0.2461527 0.11596534 -0.043727815 0.16168948 0.18201286 -0.085402854 -0.105729446
-0.039994877 0.19235668 -0.032445665 0.08718178 0.10238681 0.03809414 -0.13121933 -0.08051545
0.07706263 -0.110484116 0.06211916 0.019583907 0.050065093 -0.059347413 -0.08100809 0.021556038
0.10244402 0.032596223 -0.04276087 -0.04670874 -0.22595978 0.07186907 0.047341473 0.14177893
-0.15659848 -0.06159627 0.027382996 -0.13440827 -0.31173477 0.16603604 -0.30446184 -0.0019592773
00000000: c902 1b3e d393 003e 33d4 0abe e042 00be
00000010: c5e6 8a3d 58bc 15bf 88ce b0bd f5a9 3a3e
00000020: 61ad b93d 1689 2fbd 489f 5f3e 23e3 523e
00000030: a6d5 353e ce96 59bc 2db7 a83d 11e1 f33e
00000040: ccf7 99bd c476 7f3e 5ff6 233d a777 263e
00000050: 0bdf 35bc 1520 70bd aa3a fe3c 0f9a 073d
00000060: 82b8 36bd 285c e5be ece1 36be 4cf2 f73d
00000070: 1222 86be 180e 583e 79a6 ddbd c0fe f2bd
00000080: 31c4 033d 23c7 173e 9209 853e 6df0 85be
00000090: bf3c 19be dc02 85be d446 fd3d 0c15 02be
000000a0: ce3e 893d 5ef9 fabd d972 b1bd cf3c c7bd
000000b0: 9469 21be 19a7 203e cff5 993d c49f e53d
000000c0: 7dd2 54bd 9ad3 81bd 30fb 843d d989 b4bc
000000d0: 367e f53c 291b c83c 19f5 84bd a18e 91be
000000e0: 1a0c a23d 84fc 5a3e 1497 7a3d 4224 a23d
000000f0: 0046 c9bd defc c63e f55b f5bc ebf0 fb3d
00000100: 9581 30be 5457 973e 8412 89be eb88 7bbe
00000110: 238f 78bd 06df ff3d 7991 f0bd 7f2f 10bc
00000120: 4521 d43e 9bf6 263e 97d7 efbd 3ef4 833e
00000130: b478 4dba b84b 6ebe 167b 72bd ae75 383e
00000140: 5e5e 88be 3c4a 053d f086 dc3e 245b c63e
00000150: 0834 7b3d b635 53be 2204 bfbd 1f21 0cbd
00000160: 25ad 973b 1589 cdbd 5828 f63c fd4b 943e
00000170: f639 f93d 8e3b c23d a989 393e 7e00 cabe
00000180: cfe6 653d 33cc 2e3e 39ff 663d fee1 c83d
00000190: 8db9 323d efd9 cebc c011 de3d 413d f6bd
000001a0: dc51 8c3d 2373 263d f72f 0fbf 3e5f 903d
000001b0: a3b6 ba3d 07c7 9bbd 26b3 063c 25c9 b33d
000001c0: 640d 213e e135 b8bc 7606 16bb b074 a43d
000001d0: 5513 ebbd 49f1 83be bd04 30be 24d9 86bd
000001e0: 43e0 6c3d 2cdf 0b3d 6b47 8bbe 8d14 0abe
000001f0: afb4 1cbd 6405 a33d 52b7 9dbc b109 633c
00000200: 1b17 84bd 80ee a93e f8ea 813d e674 1bbc
00000210: ecd3 813d 5763 3abe 6b5b c2bd 6648 523d
00000220: 8a17 32be d988 73be d012 923d 1081 dcbd
00000230: 07f9 003e e39d 763e 98e8 843d fa45 1dbd
00000240: ab73 05be 3703 aa3c fbde cc3d a750 01be
00000250: 53ed 103e 8e4c 0d3b f8e5 0cbe d016 4abe
00000260: 16bb 873e c893 f4bb 4e80 1abe 45ea a93c
00000270: 0fbe a0bb 18e2 533e c668 9fbe b5fd 663e
00000280: e41f 5b3e e771 84bc dc28 233d 4e79 c73d
00000290: 10b4 16bd 9d3b 90be 216d e43d 3789 b0be
000002a0: ef8c a73c 63cd c6be a953 a8be 5b6b 003d
000002b0: d3a2 973e 49c7 6e3e 7102 a43e 6a1a 643e
000002c0: 695a 0b3e 9025 febd 22fa 053e 7032 58be
000002d0: db61 0c3d ac63 a0ba 8083 c7bc 829e 50be
000002e0: f2c1 983c e32d 6abe 91f8 07b9 275d 393d
000002f0: 3e2f 103e 98cc e03e 7e94 623c bd56 c53d
00000300: 1de2 733e 18ee 683d c4a8 01be b9c5 353e
00000310: e926 5cbe 789b bfbd a89b 11bd 8837 283c
00000320: 6064 82bd c71e 0ebc 437e 173e b29e 5bbe
00000330: 8699 e83d a80d d5bd b789 b7bd 0fa1 333d
00000340: b0bc a13d 26f1 b7bd aabc 39be 0d34 66bd
00000350: d6e3 94be 63a1 98be e20b 07bd 9555 f1bd
00000360: 9f72 933d 740f 7cbe 3c7f ed3d f01b 33bd
00000370: ed91 253e 9461 3a3e b1e7 aebd ae88 d8bd
00000380: abd1 23bd 26f9 443e bfe5 04bd 5c8c b23d
00000390: 2db0 d13d 9a08 1c3d 5c5e 06be 49e5 a4bd
000003a0: 03d3 9d3d 7f45 e2bd a970 7e3d 6e6e a03c
000003b0: 0e11 4d3d 4616 73bd 92e7 a5bd 4a96 b03c
000003c0: 2cce d13d 9e83 053d 0626 2fbd aa51 3fbd
000003d0: 0062 67be 1730 933d 22e9 413d 7f2e 113e
000003e0: 5a5b 20be 5f4c 7cbd 4e52 e03c 52a2 09be
000003f0: b39b 9fbe 5a05 2a3e 6ce2 9bbe 3867 00bb

lstm.bias_ih_l0_reverse f4 [128]
-0.018332593 -0.22404024 0.13421956 0.060352568 0.21656272 0.08254344 0.052185662 0.11040219
0.06466538 0.20948933 0.21079497 -0.027344508 0.06325623 -0.03598356 -0.051209584 -0.03975725
0.0054057636 -0.27173996 0.1438617 0.01504276 0.035947945 -0.050386265 -0.093675606 0.05906184
-0.037688464 0.3800309 0.015975153 0.07347057 -0.15469037 -0.16924462 0.22081953 -0.03893389
0.10564354 -0.2136957 0.09810619 0.048416298 -0.13920055 -0.008092341 0.11738566 -0.13971135
0.0007126518 0.05252668 0.11864966 -0.20605081 0.20925285 0.116056286 0.17066164 -0.03668664
0.047640454 -0.1287653 0.013003557 -0.1043396 0.16504167 0.1347392 -0.1518181 -0.14669025
-0.0035825758 -0.2728909 0.22445175 0.07850962 -0.1301603 0.17218156 -0.06196037 0.01597154
-0.07337281 -0.07104546 0.056417707 -0.052986097 0.14004566 0.040479276 0.016988266 0.18920037
-0.16388988 -0.18978366 0.13362499 0.009145806 -0.14780456 -0.029922035 -0.12376879 0.07814121
0.11106853 0.08984872 0.012486219 -0.018200612 -0.17308852 -0.0017247637 0.09312608 0.26730686
-0.23047906 0.25286344 -0.028586397 -0.019766092 -0.038560644 -0.09701849 0.016472604 0.1450431
0.015435704 0.08175614 0.11737708 0.043264806 0.11250311 0.13196899 0.053762574 -0.16911751
0.14833479 0.19234699 0.21718818 -0.19811971 0.03799899 0.25243735 0.14446552 0.040596373
-0.03536308 -0.06831705 -0.038828086 0.026312916 0.19368999 -0.20907928 0.06443037 -0.13082474
0.13862062 0.19293572 -0.020540059 0.067751765 -0.036445986 -0.0076473337 0.22949497 0.25438648
00000000: 3c2e 96bc ce6a 65be da70 093e 4134 773d
00000010: 9ec2 5d3e 890c a93d a2c0 553d 8b1a e23d
00000020: 486f 843d 5f84 563e a3da 573e 9701 e0bc
00000030: 7b8c 813d 7f63 13bd 24c1 51bd 80d8 22bd
00000040: d522 b13b 8021 8bbe 7b50 133e e975 763c
00000050: 273e 133d d461 4ebd ffd8 bfbd d4ea 713d
00000060: 385f 1abd 6993 c23e 53de 823c bd77 963d
00000070: 2767 1ebe 764e 2dbe 841e 623e 2579 1fbd
00000080: a45b d83d 0cd3 5abe e6eb c83d 2b50 463d
00000090: 978a 0ebe bd95 04bc e567 f03d 7e10 0fbe
000000a0: 41d1 3a3a 3726 573d 98fe f23d fcfe 52be
000000b0: 6146 563e ebae ed3d edc1 2e3e bb44 16bd
000000c0: a322 433d 0ddb 03be df0c 553c 00b0 d5bd
000000d0: af00 293e 13f9 093e 3476 1bbe f835 16be
000000e0: a6c9 6abb 5bb8 8bbe aed6 653e a7c9 a03d
000000f0: be48 05be 5d50 303e 28ca 7dbd bfd6 823c
00000100: 7c44 96bd 4880 91bd 4116 673d f307 59bd
00000110: 2168 0f3e 99cd 253d fa2a 8b3c bebd 413e
00000120: c0d2 27be a656 42be fdd4 083e 4ad8 153c
00000130: 145a 17be 0e1f f5bc 7e7a fdbd 8008 a03d
00000140: e677 e33d 9b02 b83d 0093 4c3c 7319 95bc
00000150: 1e3e 31be 7711 e2ba e3b8 be3d 72dc 883e
00000160: b402 6cbe 5177 813e 052e eabc 80ec a1bc
00000170: c4f1 1dbd a1b1 c6bd 8ef1 863c 2e86 143e
00000180: 09e6 7c3c c36f a73d 6563 f03d 7036 313d
00000190: 0868 e63d e122 073e 2536 5c3d 242d 2dbe
000001a0: 13e5 173e 9cf6 443e 9466 5e3e e5df 4abe
000001b0: d4a4 1b3d 783f 813e c5ee 133e 6248 263d
000001c0: e1d8 10bd cfe9 8bbd 330a 1fbd 2f8e d73c
000001d0: ab56 463e e118 56be 12f4 833d ecf6 05be
000001e0: 90f2 0d3e f190 453e a043 a8bc 70c1 8a3d
000001f0: 6348 15bd 7c96 fabb bb00 6b3e f23e 823e

lstm.bias_hh_l0_reverse f4 [128]
-0.009778744 -0.21135072 0.26097447 -0.025251897 0.22570638 0.28908852 0.09328483 -0.190267
0.088651694 0.10427294 0.104166016 -0.24182555 -0.077777416 0.30314538 -0.02019848 0.1592107
-0.07896899 -0.063174024 -0.07347819 0.01960888 0.2341084 -0.041385554 -0.008766995 -0.224118
-0.06921139 0.13364689 0.023709487 -0.09014159 -0.08812078 0.07846996 0.27840728 0.0037802348
0.006529804 -0.27588463 -0.043831903 -0.021094987 0.08383451 -0.041605048 0.15312743 0.16280973
-0.03828372 -0.016041989 0.121153474 0.036350682 0.21993828 -0.042263288 0.094929785 0.2600514
0.2118408 0.0013672316 -0.11090589 0.00812851 0.036330555 -0.093982026 0.03349056 0.033641733
0.11534343 -0.0012428708 0.16938864 0.011741731 0.06368073 -0.053316392 -0.12397006 0.0570023
0.021606686 -0.033579316 -0.007021208 0.12931158 -0.08065208 0.046681624 -0.16785382 -0.12065093
0.026462529 0.091783844 -0.036609795 -0.039876357 0.13937153 0.057318423 -0.08832227 -0.18540148
0.09249734 -0.15723899 0.048326176 0.13641763 -0.06728049 -0.06695008 -0.03590577 0.11019696
0.038043413 0.07030342 -0.1331793 -0.1392059 -0.07888868 -0.06333837 0.0152709475 0.013240776
0.23019251 -0.11019343 0.0527817 0.23706913 0.17249338 0.11512328 0.24752821 -0.011068583
-0.00031217537 0.23493767 0.12715262 -0.26050845 0.19915538 0.17303373 0.06493545 0.3621397
-0.036374092 -0.03305943 -0.084733665 0.07129582 0.14690249 -0.04051556 -0.2047191 -0.02049274
-0.12944072 0.3980122 0.23671173 0.12819397 0.06094259 -0.09705506 0.25234175 0.14423098
00000000: 0637 20bc 536c 58be 729e 853e 11dd cebc
00000010: 931f 673e 6903 943e 1e0c bf3d 5ad5 42be
00000020: 058f b53d 0d8d d53d fe54 d53d 1ea1 77be
00000030: c449 9fbd df35 9b3e 4877 a5bc 2108 233e
00000040: 7eba a1bd 6261 81bd bc7b 96bd cda2 a03c
00000050: 1dba 6f3e e683 29bd 71a3 0fbc 307f 65be
00000060: b4be 8dbd bbda 083e 663a c23c 279c b8bd
00000070: ab78 b4bd dcb4 a03d 668b 8e3e d1bd 773b
00000080: f7f7 d53b c040 8dbe 1589 33bd 65cf acbc
00000090: 6db1 ab3d 0e6a 2abd 70cd 1c3e 98b7 263e
000000a0: 64cf 1cbd 7d6a 83bc 501f f83d 74e4 143d
000000b0: 8037 613e 451c 2dbd 8c6a c23d 7525 853e
000000c0: cbec 583e ae34 b33a a122 e3bd 712d 053c
000000d0: 59cf 143d a679 c0bd 662d 093d eacb 093d
000000e0: 2d39 ec3d d3e7 a2ba 3774 2d3e 6460 403c
000000f0: 0b6b 823d 4a62 5abd 04e4 fdbd 3e7b 693d
00000100: 8100 b13c 778a 09bd 2912 e6bb 416a 043e
00000110: eb2c a5bd 3b35 3f3d dfe1 2bbe d617 f7bd
00000120: f2c7 d83c 2bf9 bb3d 27f4 15bd 6455 23bd
00000130: 69b7 0e3e b9c6 6a3d 4ee2 b4bd e3d9 3dbe
00000140: 3f6f bd3d 4203 21be abf1 453d 10b1 0b3e
00000150: 5bca 89bd 201d 89bd ee11 13bd f2ae e13d
00000160: 69d3 1b3d 3dfb 8f3d 2860 08be fe8b 0ebe
00000170: 6390 a1bd 8cb7 81bd ff32 7a3c d7ef 583c
00000180: 96b7 6b3e 18ad e1bd a031 583d 40c2 723e
00000190: 1ba2 303e c1c5 eb3d 0978 7d3e 0059 35bc
000001a0: 78ab a3b9 8093 703e 4c34 023e 5d61 85be
000001b0: 63ef 4b3e c12f 313e e1fc 843d 606a b93e
000001c0: 00fd 14bd 5369 07bd d888 adbd 8b03 923d
000001d0: 9b6d 163e a5f3 25bd e2a1 51be 64e0 a7bc
000001e0: 1c8c 04be 41c8 cb3e 8f64 723e 4845 033e
000001f0: f09e 793d cec4 c6bd f032 813e 49b1 133e

lstm.weight_ih_l1 f4 [128, 64]
0.0018805339 -0.11987526 -0.14154738 0.51139 0.39979574 0.23073815 0.35586086 0.27650103
0.13791919 0.12236801 -0.064492755 0.010806049 -0.062052775 -0.4342833 -0.19576183 -0.21052681
0.20576438 -0.18519574 -0.21330243 0.35063732 0.1905287 -0.27623412 0.036261555 -0.42983046
-0.11539786 -0.1184277 0.04931302 0.1823792 0.3118833 -0.16446707 -0.2487543 -0.361214
-0.22930695 0.21438879 0.3588088 -0.37128302 -0.30587444 -0.48524123 0.18919522 0.720088
0.09274683 0.72212607 0.13036072 0.07917978 -0.21207616 0.120444655 -0.1867424 0.3453322
-0.2711373 0.003170954 0.034422975 -0.07862456 0.004270703 -0.06749426 0.18716654 0.23270217
0.2923376 -0.32230172 -0.17824851 0.18277992 0.3545906 -0.048488505 -0.087788776 0.26235944
-0.12739918 -0.5124241 -0.29680556 -0.33736587 -0.35588786 0.08451194 -0.15440142 -0.19505665
0.263854 0.17774518 0.14271882 0.22015797 0.030792713 0.015616958 -0.005675041 -0.0895032
0.030896446 -0.007459138 -0.033671066 -0.45030293 -0.13558865 -0.03452733 -0.24975844 0.31118432
-0.13069181 -0.06270555 0.04928122 -0.07372386 -0.2246338 0.24297865 0.3527216 0.03287868
0.4985257 -0.3853381 -0.25858018 0.14810303 0.30851904 0.36627662 -0.40395534 -0.21845995
-0.33294725 -0.22973327 0.022454102 -0.35625473 0.20891224 0.07477138 -0.28521925 -0.3940481
0.02089226 -0.23301472 0.090898514 0.29824567 0.016969103 -0.20478041 0.3755923 0.120890655
0.13810976 0.28994977 -0.13788381 -0.3320541 -0.2746377 -0.08674287 -0.1519967 -0.21454573
-0.111682 -0.3627105 0.06768153 -0.32469723 0.020538045 -0.045855463 -0.043573026 0.085974306
0.020078255 0.09154296 -0.031228643 0.21146126 0.19979356 0.0039154533 -0.085278824 -0.022332732
-0.29570052 0.08827004 -0.22757573 -0.16937304 0.31984073 0.2125041 -0.1351746 0.18172382
0.20145409 0.004488823 0.047017995 -0.37666366 -0.10115743 0.10840337 0.19799136 0.26445314
0.0533726 0.04226359 -0.3578638 0.3500316 0.42046344 0.48727086 -0.322507 -0.017390851
-0.15265816 -0.06365998 -0.262392 -0.113357686 -0.33525693 -0.20035525 -0.35662633 -0.8477574
-0.055055633 -0.17321655 -0.07701416 -0.04531139 -0.06975943 0.06335113 -0.081900075 0.1609635
0.1344339 0.07111783 -0.17551333 0.14571618 -0.06576847 -0.5538744 -0.18120654 -0.27583936
0.2832072 -0.1228144 0.0156152295 0.09581234 -0.14196867 -0.09242902 0.5125125 -0.061211076
-0.22996219 0.17460935 0.19675922 -0.010522971 0.28600183 -0.097897366 0.24471174 0.2198875
0.1446264 -0.084653564 -0.20836994 -0.0418347 -0.101155445 0.009579009 0.46143398 -0.06817926
0.1933488 0.17742768 0.14289297 -0.30848542 -0.045756172 -0.114738934 0.04942742 0.1578003
-0.20176293 0.0929962 0.05423828 0.06516474 -0.008511897 0.30465627 -0.08487743 -0.010569626
0.03507333 0.5469762 0.0014729013 -0.12016725 -0.11788521 -0.14731155 0.10998811 -0.046713084
0.06810147 0.36402366 -0.087623775 -0.17729665 0.05024089 -0.4176758 0.048933465 0.07102651
0.007905329 -0.030444486 0.11454111 -0.11894859 0.38824624 -0.18389142 0.09824923 0.040962532
00000000: 3f7c f63a 2981 f5bd ccf1 10be 74ea 023f
00000010: 07b2 cc3e 9f46 6c3e 6533 b63e 8b91 8d3e
00000020: b03a 0d3e 149c fa3d c714 84bd db0b 313c
00000030: 0d2b 7ebd 615a debe ca75 48be 5794 57be
00000040: e6b3 523e f4a3 3dbe f46b 5abe bc86 b33e
00000050: f519 433e 8f6e 8dbe ff86 143d bd12 dcbe
00000060: b755 ecbd 398a f2bd 73fc 493d 9dc1 3a3e
00000070: 2baf 9f3e 0e6a 28be 72b9 7ebe 0bf1 b8be
00000080: 71cf 6abe bc88 5b3e c9b5 b73e cf18 bebe
00000090: 939b 9cbe 8a71 f8be 64bc 413e b057 383f
000000a0: 0df2 bd3d 41dd 383f 487d 053e 0229 a23d
000000b0: 7e2a 59be b0ab f63d 6639 3fbe 62cf b03e
000000c0: 82d2 8abe c8cf 4f3b 1bff 0c3d ea05 a1bd
000000d0: 41f1 8b3b 6e3a 8abd 96a8 3f3e 7a49 6e3e
000000e0: 46ad 953e bb04 a5be c786 36be a92a 3b3e
000000f0: e68c b53e e29b 46bd 9aca b3bd fa53 863e
00000100: ee74 02be 3a2e 03bf e6f6 97be 38bb acbe
00000110: ef36 b6be 9914 ad3d 681b 1ebe eebc 47be
00000120: df17 873e d502 363e e224 123e 1771 613e
00000130: 0041 fc3c 45de 7f3c b2f5 b9bb 744d b7bd
00000140: 8b1a fd3c c96b f4bb acea 09bd 1b8e e6be
00000150: c0d7 0abe 886c 0dbd adc0 7fbe 8d53 9f3e
00000160: 13d4 05be c46b 80bd 1bdb 493d 89fc 96bd
00000170: 6706 66be 65cf 783e ed97 b43e cbab 063d
00000180: c33e ff3e 094b c5be 9f64 84be 52a8 173e
00000190: 35f6 9d3e 9c88 bb3e 3cd3 cebe f7b3 5fbe
000001a0: 1078 aabe 333f 6bbe aaf1 b73c 0567 b6be
000001b0: 17ed 553e bd21 993d 4208 92be acc0 c9be
000001c0: 3f26 ab3c 699b 6ebe 0029 ba3d a8b3 983e
000001d0: ca02 8b3c f5b1 51be a24d c03e 8595 f73d
000001e0: a56c 0d3e 4c74 943e 6a31 0dbe ff02 aabe
000001f0: 509d 8cbe 3fa6 b1bd 06a5 1bbe e0b1 5bbe
00000200: 88b9 e4bd 31b5 b9be 9d9c 8a3d b73e a6be
00000210: 673f a83c f0d2 3bbd a179 32bd 4c13 b03d
00000220: 277b a43c e07a bb3d 36d3 ffbc 4d89 583e
00000230: af96 4c3e 344d 803b aaa6 aebd 22f3 b6bc
00000240: 0f66 97be ecc6 b43d 9d09 69be 2070 2dbe
00000250: 2ac2 a33e ad9a 593e 366b 0abe cf15 3a3e
00000260: fb49 4e3e fa16 933b f195 403d 0fda c0be
00000270: a02b cfbd 9602 de3d 3fbe 4a3e 6766 873e
00000280: 3a9d 5a3d 961c 2d3d ed39 b7be 5837 b33e
00000290: fc46 d73e 917b f93e a31f a5be 4277 8ebc
000002a0: 6c52 1cbe 2a60 82bd 3f58 86be 1328 e8bd
000002b0: cca6 abbe ed29 4dbe ba97 b6be a106 59bf
000002c0: 0482 61bd ae5f 31be 9ab9 9dbd 7098 39bd
000002d0: 08de 8ebd 3dbe 813d 3abb a7bd 9ed3 243e
000002e0: 0aa9 093e 3aa6 913d c4b9 33be 9f36 153e
000002f0: 9fb1 86bd b6ca 0dbf 358e 39be d13a 8dbe
00000300: 8900 913e 1e86 fbbd 05d7 7f3c 4339 c43d
00000310: 3c60 11be 6d4b bdbd 0534 033f 77b8 7abd
00000320: 357b 6bbe cbcc 323e 407b 493e 8a68 2cbc
00000330: d56e 923e 6a7e c8bd b795 7a3e 302a 613e
00000340: f118 143e d95e adbd ee5e 55be dd5a 2bbd
00000350: 962a cfbd 47f1 1c3c 1341 ec3e 91a1 8bbd
00000360: 3afd 453e 9aaf 353e 8952 123e cdf1 9dbe
00000370: d36a 3bbd 3ffc eabd 6874 4a3d 6796 213e
00000380: f19a 4ebe cb74 be3d f528 5e3d 1775 853d
00000390: 7c75 0bbc e8fb 9b3e 38d4 adbd 3a2c 2dbc
000003a0: 0da9 0f3d a206 0c3f 5e0e c13a 3f1a f6bd
000003b0: cd6d f1bd d7d8 16be 7241 e13d 3856 3fbd
000003c0: c978 8b3d 4f61 ba3e 1874 b3bd 418d 35be
000003d0: 64c9 4d3d 9ad9 d5be 756e 483d 5976 913d
000003e0: 5a85 013c b766 f9bc 8894 ea3d 519b f3bd
000003f0: 36c8 c63e 084e 3cbe e436 c93d 54c8 273d

lstm.weight_hh_l1 f4 [128, 32]
0.23036274 -0.055634245 -0.019636156 0.11121973 -0.12656416 -0.3336231 0.11707761 -0.018043077
-0.0011212826 0.3317936 0.086628154 -0.40014705 -0.088668324 0.1604448 0.16363224 -0.62079704
-0.27266744 0.24470305 0.058619678 -0.1811762 0.059095796 0.28426465 0.2856925 0.13683826
0.22337385 -0.3804946 -0.1973322 0.0031200766 0.23877813 -0.017549653 0.22746363 0.21173875
-0.066370435 -0.07039412 -0.079060584 -0.0066127563 0.11143044 -0.07800382 0.09519063 0.12490568
-0.09967373 -0.26391235 0.1399198 -0.05265855 -0.08904409 0.049092457 -0.13573515 0.07937132
0.20848033 -0.14776027 -0.08253176 0.054216623 0.05848283 -0.08866255 -0.03664302 -0.17397828
-0.05700023 0.3213465 -0.04033017 0.27340484 0.02101312 -0.0091929855 -0.23385277 0.08461849
-0.16217677 -0.07809282 -0.248413 -0.036736242 0.12086868 0.0030564233 -0.25551212 0.16164133
-0.064469926 -0.47593746 -0.13584141 0.5798764 -0.21611679 0.2992969 0.12712802 0.69818574
0.09316831 0.13884044 -0.14805341 0.27790934 -0.3302224 -0.17937626 -0.5860435 -0.034435973
-0.041239794 0.046712354 0.26394153 0.023991132 -0.18700422 -0.027940108 0.027634272 -0.18255918
0.28535235 -0.10929464 0.22091863 0.02961831 -0.20510952 -0.01583358 -0.055293135 -0.17283934
-0.20553814 0.008224944 -0.062405385 0.16076174 -0.0866504 0.005310877 -0.040281154 0.05596123
-0.20107351 -0.13201901 0.187176 -0.16797066 -0.08057774 -0.074137285 0.035018064 0.0415308
0.2793566 0.0696269 0.26336384 -0.20175782 0.09624947 -0.027202439 0.10901535 -0.12748972
0.31155506 0.075453304 0.18451019 0.12713484 -0.30207548 0.2205686 -0.1290966 -0.03389289
-0.16532896 0.028794052 -0.09250084 0.10375791 0.08606913 -0.11132707 0.08380602 0.2896978
-0.081811205 -0.15511747 -0.09849162 -0.04640422 -0.029932676 -0.07673491 -0.15739185 -0.18660547
-0.0710738 0.41372856 0.11234894 -0.15997036 -0.20572521 0.12570502 0.03427041 -0.11959543
0.2126058 0.034801647 -0.17440219 0.12315774 0.3280531 0.1384305 0.010686563 -0.08059586
-0.03170009 -0.029600037 0.18421036 0.16525103 0.024885613 -0.17150033 -0.07832601 0.16850233
0.17584656 0.056898214 0.07064345 -0.02545979 0.27088782 0.020225128 0.22656868 -0.12343892
0.027261054 -0.23686683 0.13059914 -0.034482036 0.08475672 0.13199954 0.21481325 0.107146226
0.008695968 -0.20743892 -0.122399285 0.2261242 0.10981232 -0.08460312 -0.24662986 -0.37660602
-0.18860085 0.017843701 0.20334138 -0.009118435 0.1522078 -0.08254793 -0.026521994 0.28648052
0.08575524 -0.24748284 0.16925842 0.0093279015 0.23357818 -0.107230105 0.1776184 -0.10258922
0.2685912 -0.003182426 0.32608265 0.24571846 0.027254647 0.29683372 0.044459075 0.23842907
0.271079 0.5615297 0.021224765 -0.14944124 -0.22523946 -0.013637236 0.234862 -0.1694682
0.53531504 0.20459667 -0.048680574 0.19610678 0.13919812 0.09780353 0.10255547 -0.0010210195
0.0030213953 0.26516655 -0.25569487 0.16131909 0.06975358 -0.02816204 -0.12925051 0.1473936
0.07563239 0.26244393 -0.12076977 -0.20568605 0.058643483 -0.17438419 0.24177988 0.12622097
00000000: 36e4 6b3e bce0 63bd 01dc a0bc 2bc7 e33d
00000010: 099a 01be a6d0 aabe 63c6 ef3d 13cf 93bc
00000020: 00f8 92ba dae0 a93e 1a6a b13d 13e0 ccbe
00000030: bd97 b5bd a44b 243e 368f 273e 8eec 1ebf
00000040: 119b 8bbe 7093 7a3e 301b 703d 4186 39be
00000050: 6f0e 723d 238b 913e 4a46 923e 541f 0c3e
00000060: 1dbc 643e 30d0 c2be 7411 4abe 337a 4c3b
00000070: 4182 743e 4ac4 8fbc 3aec 683e 0bd2 583e
00000080: 39ed 87bd cb2a 90bd 84ea a1bd d2af d8bb
00000090: a435 e43d 77c0 9fbd 4ef3 c23d 8dce ff3d
000000a0: be21 ccbd 851f 87be 2347 0f3e 7eb0 57bd
000000b0: bf5c b6bd 2c15 493d 28fe 0abe 6e8d a23d
000000c0: de7b 553e 784e 17be 6906 a9bd 4012 5e3d
000000d0: b18b 6f3d b694 b5bd fe16 16bd 5d27 32be
000000e0: 1379 69bd 8787 a43e 4031 25bd b8fb 8b3e
000000f0: b523 ac3c 2d9e 16bc 1a77 6fbe 754c ad3d
00000100: ab11 26be 21ef 9fbd fa5f 7ebe be78 16bd
00000110: 008a f73d 464e 483b 7cd2 82be 4e85 253e
00000120: cf08 84bd 13ae f3be 031a 0bbe c872 143f
00000130: b84d 5dbe 713d 993e d92d 023e 4dbc 323f
00000140: 07cf be3d 302c 0e3e 509b 17be 224a 8e3e
00000150: e912 a9be 69ae 37be f206 16bf bc0c 0dbd
00000160: 0feb 28bd 7455 3f3d 5823 873e 0d89 c43c
00000170: 097e 3fbe a7e2 e4bc 4561 e23c cbf0 3abe
00000180: b419 923e ded5 dfbd 7e38 623e 19a2 f23c
00000190: 3b08 52be 6db5 81bc 0e7b 62bd ccfc 30be
000001a0: 9778 52be eac1 063c ca9c 7fbd ba9e 243e
000001b0: c475 b1bd de06 ae3b dafd 24bd 9a37 653d
000001c0: 37e6 4dbe fe2f 07be 11ab 3f3e 8000 2cbe
000001d0: f105 a5bd 4ad5 97bd 1a6f 0f3d 331c 2a3d
000001e0: d407 8f3e 8c98 8e3d a0d7 863e 9a99 4ebe
000001f0: 711e c53d a6d7 debc 7143 df3d aa8c 02be
00000200: 2584 9f3e 4387 9a3d 3df0 3c3e a32f 023e
00000210: a3a9 9abe bcdc 613e e631 04be 45d3 0abd
00000220: ff4b 29be 81e1 eb3c 1571 bdbd 077f d43d
00000230: 0345 b03d 72ff e3bd 7ea2 ab3d 4553 943e
00000240: a28c a7bd 1dd7 1ebe f9b5 c9bd 5a12 3ebd
00000250: 5f35 f5bc 3127 9dbd 542b 21be 8115 3fbe
00000260: 248f 91bd 3bd4 d33e 3317 e63d 45cf 23be
00000270: a1a9 52be d1b8 003e 215f 0c3d 73ee f4bd
00000280: 56b5 593e 2c8c 0e3d 7d96 32be 203a fc3d
00000290: 93f6 a73e bac0 0d3e b216 2f3c 710f a5bd
000002a0: f4d7 01bd c77b f2bc a4a1 3c3e 9137 293e
000002b0: eadc cb3c c89d 2fbe 6369 a0bd e08b 2c3e
000002c0: 1f11 343e 1a0e 693d 83ad 903d 0d91 d0bc
000002d0: cfb1 8a3e 2baf a53c 9f01 683e 8bcd fcbd
000002e0: 9352 df3c 388d 72be c8bb 053e 093d 0dbd
000002f0: ee94 ad3d e32a 073e 01f8 5b3e 7b6f db3d
00000300: 8979 0e3c de6a 54be 7aac fabd 1a8d 673e
00000310: 48e5 e03d 6744 adbd 8a8c 7cbe 81d2 c0be
00000320: 9520 41be f42c 923c b938 503e 7d65 15bc
00000330: 5ddc 1b3e e40e a9bd a744 d9bc 93ad 923e
00000340: 71a0 af3d 246c 7dbe 1452 2d3e 0ed4 183c
00000350: 1e2f 6f3e 759b dbbd 99e1 353e 4c1a d2bd
00000360: c984 893e 4090 50bb 4ef4 a63e 9f9d 7b3e
00000370: 2345 df3c 97fa 973e b81a 363d c026 743e
00000380: deca 8a3e 69c0 0f3f 8fdf ad3c 2007 19be
00000390: 2ca5 66be b76e 5fbc aa7f 703e 1289 2dbe
000003a0: 680a 093f ca81 513e 4865 47bd 37d0 483e
000003b0: f489 0e3e 384d c83d 9a08 d23d bbd3 85ba
000003c0: 9a02 463b e9c3 873e 70ea 82be d530 253e
000003d0: f7da 8e3d 14b4 e6bc 3f5a 04be 59ee 163e
000003e0: 28e5 9a3d 0d5f 863e 2456 f7bd 5d9f 52be
000003f0: 2634 703d c591 32be 2595 773e 1240 013e
