trained_models/H9_left_out_model.pth (torch, 164193 bytes, 10 tensors)

lstm.weight_ih_l0 f4 [256, 9]
000000 cf dd ea 3d 59 37 b4 3e df 0a f6 bc c3 26 ae 3d
       0.11468088 0.35198477 -0.03003448 0.08503487
000010 37 08 d9 be 99 c7 07 3e e7 82 38 3d 85 4a ca bd
       -0.4238908 0.13259734 0.045046713 -0.09877495
000020 dc 74 ec 3c 14 5a 4e 3d 7c a1 15 be f0 03 f6 3d
       0.028864317 0.050378874 -0.14612383 0.1201247
000030 33 04 40 bc 30 78 e3 3c 41 1f 17 be 7e b0 21 bd
       -0.011719751 0.02776727 -0.14758016 -0.039474957
000040 62 b5 24 3d 87 12 aa 3d c5 5a 13 3e cc a4 62 bf
       0.040212043 0.08304315 0.14390095 -0.8853271
000050 83 51 9c 3e b0 e9 e7 be 6b 9f 8c 3e 86 73 97 3a
       0.30530939 -0.45295477 0.27465376 0.0011554814
000060 0a ec 0e be 69 16 08 be 03 f3 91 3d 89 34 8b bd
       -0.1395723 -0.13289799 0.07126429 -0.0679713
000070 39 59 17 bf f1 88 70 3e b9 ce 73 be 36 e6 13 3e
       -0.5912052 0.23489739 -0.23809327 0.14443287
000080 86 1d 87 3c 3d e4 d4 3d 91 d6 c1 be 54 e0 00 3e
       0.01649357 0.103950955 -0.37859014 0.12585574
000090 9c 23 3d be 8d be 82 bd 66 12 a3 bd 2e 6f 86 be
       -0.18470615 -0.06384001 -0.079624936 -0.26256698
0000a0 26 9b c2 bd fb d6 a3 3c 5e 24 e7 3d 4a 8b 96 be
       -0.095022485 0.019999972 0.11286233 -0.29403144
0000b0 d1 fd 13 be a7 78 9f bd c7 ed 71 be 1c 5f 23 be
       -0.14452292 -0.077866845 -0.23625861 -0.1595425
0000c0 f1 70 b4 be 45 48 ad be fb a9 7b be aa bb 66 3e
       -0.35242417 -0.338442 -0.24576561 0.22532526
0000d0 60 82 1a 3e 48 36 64 3e f1 c7 15 bd ee 14 73 bd
       0.15088797 0.22286332 -0.036567632 -0.059346132
0000e0 de 12 30 be 93 d3 29 be 1d 23 0b be 17 2d 61 bd
       -0.17194697 -0.16584615 -0.13587613 -0.05497464
0000f0 19 76 ac be e2 41 a9 3d 41 b0 7c 3d bd 86 43 3e
       -0.3368385 0.08264519 0.061691526 0.19094367
000100 7b 66 c2 3c ce 76 31 be a6 76 92 bd 05 79 64 3c
       0.023730507 -0.17330477 -0.07151537 0.013944869
000110 53 62 36 bb c2 28 70 3e 6a 03 50 bd c2 bf 94 bd
       -0.0027829602 0.23453048 -0.050784506 -0.072631374
000120 b9 6d 8f 3d ad f8 af be 40 51 4d 3e 67 73 ac 3d
       0.0700335 -0.34369412 0.20050526 0.08420449
000130 e8 14 97 3d 3f f4 07 3e a0 68 cc be bb ce d1 3d
       0.073770344 0.13276766 -0.39923573 0.10244509
000140 bf 1e b9 bd 65 1c 9c 3b 1e a2 de 3b c6 37 31 be
       -0.090390675 0.004764127 0.006794228 -0.17306432
000150 94 d2 fb bd ea fc 32 be a3 e0 a0 be 8c 39 d0 3d
       -0.12296024 -0.17479292 -0.31421384 0.10167226
000160 4f f2 fd 3d 93 25 00 3e 79 63 8e be 46 46 f7 bd
       0.12399732 0.12514333 -0.27810267 -0.120739505
000170 66 5c 3c be f6 37 24 be 5e e5 46 be 07 0e 15 3e
       -0.18394622 -0.16036972 -0.19423434 0.14556132
000180 31 be 59 be 2a 41 85 be d0 59 e3 be e0 14 be 3c
       -0.21263959 -0.2602628 -0.4440446 0.023203313
000190 4f 56 ba 3e 8f de 12 bd 65 78 0d 3e de 55 95 bc
       0.36393973 -0.03585678 0.13815458 -0.018229421
0001a0 57 c0 88 3b 2c 14 44 3c a1 90 22 be e2 55 12 be
       0.0041733193 0.0119677 -0.15875484 -0.14290574
0001b0 4d fd 55 3e 8a e2 ef 3d eb cb 1d 3e ad 9e 22 3e
       0.20897408 0.11713131 0.1540982 0.15880843
0001c0 e5 82 2e 3e eb 80 f2 bd dc 79 ec 3d 84 94 88 bd
       0.1704212 -0.118409954 0.1154668 -0.06668952
0001d0 e1 72 e5 3d 88 cd fd 3c fd 1e 0a 3d 99 c8 a5 3c
       0.11203552 0.030981794 0.03372096 0.020237254
0001e0 01 c7 03 be 00 ae 08 be 12 80 cf bd 18 ea a1 3c
       -0.12868883 -0.13347626 -0.10131849 0.019764945
0001f0 6a 76 7d 3d be 94 0c be e8 76 13 be 48 0e e2 be
       0.061880507 -0.13728616 -0.14400828 -0.4415152
000200 4f 24 74 3d 0a a4 db 3c 94 48 66 be da 15 d8 bd
       0.05960494 0.026811618 -0.22488624 -0.10551043
000210 2d c4 e9 3d 11 21 7f 3d 3d cd 18 be 05 37 fe bd
       0.11414371 0.062287394 -0.14922042 -0.12412838
000220 fd ce 78 be 75 49 5d be 95 a4 cd be 37 7c c6 be
       -0.2429771 -0.21610053 -0.4016463 -0.38766643
000230 74 17 ef bd ac 1f 7a 3e 21 c2 78 bb d2 4b ba 3d
       -0.11674395 0.24426144 -0.0037957507 0.09096493
000240 d0 b0 cd 3d 84 f7 5a 3e 3a 4d 0d 3e 18 56 eb 3d
       0.1004349 0.21383482 0.13798991 0.114910305
000250 10 dd 30 3e 94 95 fd 3d 4e 4c a1 3d 1c 5d bf 3e
       0.17271829 0.123820454 0.07875882 0.37375724
000260 43 2a 84 be b0 dd 4b 3d 6e 7c db bd 4f db 1f be
       -0.25813493 0.049771965 -0.107170925 -0.15611003
000270 6a ea a4 3b 74 95 6d be 0b 09 40 3e 5a 4f d7 bd
       0.005032827 -0.23201543 0.1875345 -0.10513182
000280 cb 73 e1 bd a0 f5 68 be ed 23 cc 3b 55 14 bd 3e
       -0.11008414 -0.22749949 0.0062298686 0.36929575
000290 63 0e 06 be 6e 71 5b b9 d2 c9 84 bc ab 09 ae 3c
       -0.13091426 -0.00020927723 -0.016209517 0.021244844
0002a0 25 1a 3d be d4 51 2c 3d 36 d9 0e 3e 1e 5d 59 bb
       -0.18467005 0.042070225 0.13950047 -0.0033167074
0002b0 48 e0 fb 3d 1b 3b 00 3e 09 fe 7b 3e 75 a0 d9 bd
       0.12298638 0.12522547 0.24608625 -0.10626308
0002c0 90 2d a1 3e 7f fc 1f 3e bd d6 89 be 3d 2b 0c be
       0.31480074 0.15623663 -0.26921645 -0.13688369
0002d0 dc 01 9f 3d 4c ee 47 bd 4f fc 0e be d5 df 2d bc
       0.077640265 -0.048811242 -0.13963436 -0.010612448
0002e0 83 ed 33 be c5 65 4e 3e 30 da 70 3d 60 46 50 bd
       -0.17571072 0.2015601 0.05880183 -0.050848365
0002f0 1d 91 db be db 75 10 bd b3 df cc bc ae cb bf bd
       -0.4288415 -0.035268646 -0.025009012 -0.09365021
000300 92 6c 73 be 51 c8 66 3c 13 17 3c bd 79 32 66 bc
       -0.23771885 0.014085845 -0.045920443 -0.01405012
000310 69 ac 5e bc 70 87 b1 3e 1a c8 9b 3e c8 da 87 be
       -0.0135909105 0.34673643 0.30426103 -0.26534104
000320 3a 92 1c 3e f3 f2 61 bd ed f1 04 3e 1d d9 72 be
       0.15290156 -0.055163335 0.12982912 -0.23715635
000330 3e 72 11 3f ff 53 f2 bd e8 b9 02 3f 7c 40 61 3e
       0.56814945 -0.11832427 0.5106492 0.21997255
000340 38 52 c5 bd bd e5 2c 3e 06 5a a4 3d c1 30 4f bd
       -0.096348226 0.16884513 0.08024983 -0.050583605
000350 e3 54 28 be d3 eb d7 3e d8 9c 1a be 86 e2 ca 3e
       -0.16438632 0.42172107 -0.15098894 0.3962595
000360 ab 1a a2 3e c2 10 09 bf 8a 5f 9e bd 5c 29 ed 3d
       0.3166097 -0.53541195 -0.077330664 0.11580154
000370 3b 10 c8 be 9c ef c4 3e 82 e9 b7 bd 8f d5 ce be
       -0.39074883 0.38464057 -0.08980085 -0.40397307
000380 c1 c3 e1 be cf 24 1a 3d 7b 1f 84 bd c1 c8 f9 3d
       -0.4409466 0.03763276 -0.06451317 0.12196494
000390 7c 7c c2 3e 0d 61 69 3e 97 1f 91 bc 41 ff 63 be
       0.379856 0.22790928 -0.017715259 -0.2226534
0003a0 e9 06 50 3e 58 b4 de 3e 5f bb 31 3d 01 f5 2e bc
       0.20315136 0.43496966 0.04339158 -0.010678531
0003b0 4d 46 b4 bd b0 03 bc bb a3 61 cd 3d 69 f2 27 be
       -0.08802471 -0.0057377443 0.10028388 -0.16401066
0003c0 8a 8c c8 bd b2 52 f3 bd f6 b5 43 be a4 e1 6e be
       -0.09792431 -0.11881007 -0.19112381 -0.23328263
0003d0 0e f3 ae bd a2 0d b2 be b4 fd c2 be d5 ad 18 be
       -0.08542453 -0.34776026 -0.38084185 -0.14910062
0003e0 8e 75 08 3e 78 dd aa bd f0 ef 37 be 71 01 23 bf
       0.13326094 -0.08343023 -0.17962623 -0.63674074
0003f0 8e 56 98 bc 3a 02 e2 3d b4 e4 7d bd 3e f6 bb bc
       -0.01859596 0.11035581 -0.061985686 -0.022944566

lstm.weight_hh_l0 f4 [256, 64]
000000 d2 78 86 bd 61 7d 0e be 5d 4b f3 3d 90 64 c6 3d
       -0.065660134 -0.13915016 0.11879609 0.096871495
000010 2a 25 39 3e 41 99 8a 3d f7 22 44 3e fa 94 0c 3f
       0.18080583 0.06767512 0.19153963 0.5491482
000020 1f 9f 17 3e 63 7f 9f 3d 07 b9 6c be 35 f0 42 be
       0.14806794 0.07787969 -0.23117457 -0.19036944
000030 8c 01 84 be e0 c8 0c 3e fa a4 a6 3d 7a a0 d7 3e
       -0.2578243 0.13748503 0.081369355 0.4211462
000040 88 14 28 3e 4b 96 14 be a6 de a7 3d a7 d7 84 bd
       0.16414082 -0.14510457 0.08196764 -0.06486445
000050 99 8c 93 3e 7a d3 4d 3e 72 3a d8 3d 20 52 15 bd
       0.28818205 0.20100203 0.105580226 -0.036455274
000060 80 eb 55 3b c9 63 67 3e 45 e0 c2 bd 7c e0 7f 3d
       0.003264159 0.22596659 -0.09515432 0.062469944
000070 43 af ab bc 4f 4d 59 be 3b ef 5b be db 91 72 be
       -0.020957595 -0.21220897 -0.21477978 -0.23688452
000080 f1 fe f8 3d 38 e7 ba 39 8e d0 ac 3e ef 67 8f 3d
       0.12158001 0.00035648956 0.33752865 0.07002246
000090 06 e6 1e 3e 6a c8 94 3d 74 ef 82 be ff 09 ac be
       0.15517434 0.072647884 -0.25573313 -0.33601376
0000a0 bf 2d 2d be 63 11 b6 bd b8 90 4f bd 61 75 c5 bc
       -0.16911982 -0.08890035 -0.050675124 -0.024103822
0000b0 02 c7 c1 3d 7b 2a b6 3e 4b 1b a4 3e b5 6f 05 bc
       0.09461786 0.35579285 0.32052073 -0.008144309
0000c0 15 21 90 be a0 d1 c9 bd 3a 80 83 3d 8f a1 af bd
       -0.2815024 -0.09854436 0.06420942 -0.08575737
0000d0 9b e1 7f 3e 70 57 90 be 5c 0b 82 3e bb 67 93 be
       0.24988405 -0.2819171 0.25399292 -0.28790078
0000e0 8e ae 10 be 62 9b 33 3e 25 27 88 be 20 0d 35 bd
       -0.14129087 0.17539743 -0.26592365 -0.04420197
0000f0 49 d1 1e 3e ee 8c d5 be 8d 7d 85 be 3e f6 b9 bd
       0.15509523 -0.41709083 -0.2607235 -0.0908017
000100 57 51 0a 3e f1 7d 9d bd 09 92 ca 3d 7f 7f 56 be
       0.13507591 -0.07690037 0.09891135 -0.20947073
000110 c8 8f fc 3d af f0 26 3d 3e d5 a1 3c dd 1e cd 3d
       0.123321116 0.040756878 0.019755002 0.10015652
000120 2a d9 dd bd f8 4e 46 bd 00 f5 6c 3d 66 b9 23 be
       -0.108324364 -0.048415154 0.057850838 -0.15988693
000130 54 f9 6d bd a5 2b 78 be 5f 02 3a be 0e 8f 1d be
       -0.058099106 -0.24235399 -0.18164967 -0.15386602
000140 03 a3 2e 3d 5d ee 8a 3c 34 a1 1f 3e 57 42 9e 3c
       0.04263593 0.016959364 0.15588838 0.019318743
000150 49 5c 07 ba 0b fe 48 3d 21 3e 07 bd 75 26 80 be
       -0.0005163593 0.0490704 -0.033018235 -0.2502934
000160 56 03 11 be 0c 42 ca 3d 92 3d 21 3e 49 2a c7 bd
       -0.14161429 0.09875879 0.15746143 -0.09724862
000170 d4 94 ed bd c0 6f a4 bd eb 16 6c be 55 59 9c bd
       -0.11600652 -0.08029127 -0.23055618 -0.07634226
000180 55 7d b8 3d 3d d7 c5 3d e8 9f 23 3e eb f9 1c bd
       0.0900828 0.09660194 0.15978968 -0.038324278
000190 2d a2 a3 bd ce 99 47 be e8 83 77 be 70 ec 7a be
       -0.07989917 -0.19492266 -0.24171412 -0.24504256
0001a0 a1 cc 49 bc 50 a6 80 be c4 f9 5e 3e 0f 1c a6 bd
       -0.012316854 -0.25126886 0.21774966 -0.081108205
0001b0 8a 55 45 be 5d a8 02 3e 6b 4e 7a 3e 15 59 b7 3d
       -0.19270912 0.12759538 0.24443977 0.08952538
0001c0 0e 17 dd bc 6a c5 c5 bc 36 9c f8 bd 49 72 68 3c
       -0.026988532 -0.024141986 -0.1213917 0.014187404
0001d0 36 a4 7f 3d c6 0a a7 be 3d 2a c2 bd a6 5e e7 bc
       0.062412463 -0.32625407 -0.094807126 -0.028243374
0001e0 13 fc a2 be 0a 82 52 3d eb 7a 4f 3d e0 3b 61 be
       -0.31832942 0.051393546 0.050654333 -0.21995497
0001f0 9b a1 f7 3c 2b de 0a 3e 94 07 5f be fe 24 7a bc
       0.030228427 0.13561313 -0.21780235 -0.015267609
000200 80 cf f9 3e ee 89 5b 3d 91 0e 3d 3d 4a 69 02 3e
       0.48791122 0.053598337 0.04615647 0.12735477
000210 cf 0b 03 be c5 2e 13 3e 20 38 89 bb 4a b2 77 be
       -0.12797473 0.1437331 -0.004187599 -0.24189106
000220 c7 3f fd bb 0e c6 82 3e 36 cd 24 3c c1 7b 78 3e
       -0.00772855 0.2554173 0.010058692 0.24265958
000230 95 69 7d 3e 3b ce 37 3e 2c fe 6c 3e b0 27 a6 bd
       0.24747308 0.17949764 0.23143834 -0.081130385
000240 d5 f0 6d 3e 0b d7 1c 3e 66 b9 4b 3e 7a cf 12 be
       0.23236401 0.15316407 0.19894943 -0.14336959
000250 a7 c8 d1 bd 77 32 9b 3d d7 ce cb 3e 78 17 e5 3e
       -0.102433495 0.07577985 0.39806244 0.44744468
000260 49 06 44 bd 10 fa a4 bb c7 14 df 3c 5e 0d 33 be
       -0.047857556 -0.0050346926 0.027231587 -0.17485568
000270 13 72 00 be d7 2c 54 3c 51 d4 57 3d 56 64 95 bc
       -0.12543516 0.012950144 0.052692715 -0.01823632
000280 79 ae 87 bd c0 45 fd bd 79 b1 93 bb 77 64 82 bc
       -0.06625075 -0.123668194 -0.0045072404 -0.015917046
000290 af 09 7a bc c8 eb 85 bd be f4 18 be 87 1f 43 be
       -0.015261098 -0.06539112 -0.14937112 -0.19054995
0002a0 7e a2 4e bd 9e 16 03 3e 8c 15 30 3e e2 cd 77 bd
       -0.050447933 0.12801597 0.1719572 -0.06049908
0002b0 b1 3f 92 be 62 62 fe bd 65 3a 3c bd 8f fd 1b be
       -0.28564218 -0.12421109 -0.045954127 -0.15233444
0002c0 a6 fc 2e be 8f 4c 26 bd b7 5d 82 3d ef 60 71 3d
       -0.17088565 -0.040600356 0.06365531 0.058930334
0002d0 70 71 13 be e7 7c 31 bd 23 74 17 bd ae 77 8b bd
       -0.14398742 -0.043332007 -0.03697599 -0.068099365
0002e0 35 b2 eb bc cc 6d 53 3e 8a 38 ef 3c 0d 41 a4 3d
       -0.0287715 0.20647353 0.029201765 0.0802022
0002f0 4d 53 11 be 8e 44 78 3d 9a 4c 08 bf 01 21 17 3e
       -0.14191933 0.060612254 -0.53241885 0.14758684
000300 ee 70 52 bc b1 6b 67 3e e8 61 26 3e 5a 71 a1 3b
       -0.012844307 0.22599675 0.16248286 0.0049268426
000310 5b 8a ea 3e 72 97 95 3e 37 ea 4d 3c f1 18 be 3d
       0.45808682 0.29217106 0.012568048 0.09282101
000320 d4 a9 b4 3e 84 cc ef be b0 0e cf be 6f 75 b2 bc
       0.3528582 -0.4683572 -0.40440893 -0.021784512
000330 02 d0 22 3e 16 c8 ba bd e6 df 37 3e 5b 93 00 3e
       0.15899661 -0.091201946 0.17956504 0.12556212
000340 3c 8b b3 3d 31 85 87 bc 20 b6 ef bd 41 a0 81 be
       0.08766791 -0.016543003 -0.117046595 -0.25317577
000350 41 a4 0b 3e ea 73 d4 3d be 1f ed 3e 2d 30 35 3f
       0.13636877 0.10373671 0.4631328 0.70776635
000360 cf 3d c3 bd 61 a1 61 3e a0 88 20 3d 31 dc 0b 3d
       -0.095332734 0.22034217 0.039192796 0.034145538
000370 6e eb d5 be 9b b8 2c be 67 8d a0 be d2 01 93 be
       -0.4178118 -0.16867296 -0.3135788 -0.28712326
000380 90 64 94 bd 00 f5 7f 3e e3 91 9f bc 6c 40 07 bf
       -0.07245743 0.24995804 -0.019478744 -0.52832675
000390 47 07 85 3c 5b 41 c0 be a7 0c e5 3d 49 4b 2a be
       0.016238822 -0.37549862 0.11184054 -0.16630282
0003a0 34 f5 85 bd 58 6d 8e 3e 11 a9 02 be 4b c7 88 3d
       -0.065409094 0.27817798 -0.12759806 0.06678637
0003b0 64 18 02 3e ac 74 3d 3e 16 27 26 3e 51 a2 6f bd
       0.12704617 0.18501538 0.16225848 -0.058504406
0003c0 a6 2f 35 3b b4 9c 4f be 06 6b 8c be 02 15 6e 3e
       0.002764681 -0.20274621 -0.27425402 0.23250201
0003d0 9d 73 9d 39 5c 7e 26 be 51 c7 f3 bd b1 28 d7 bc
       0.00030031512 -0.1625914 -0.11903251 -0.02626452
0003e0 96 96 b0 bc 2a 40 37 3e 8d 5e 7e be 8c 07 09 bd
       -0.02155618 0.1789557 -0.24840756 -0.033454463
0003f0 2a 10 1d bd 1f f7 aa be de 2b ee be ae 94 db 3d
       -0.038345493 -0.33391663 -0.46517843 0.10721718

lstm.bias_ih_l0 f4 [256]
000000 ff 67 d3 3e 6b 19 9c 3e 48 11 7e 3e b5 41 bb 3e
       0.4129028 0.30488142 0.2481128 0.36573568
000010 c8 31 4a 3e 37 ca f3 3e b3 6c 77 3e 04 2a f7 3d
       0.19745553 0.47615215 0.24162559 0.12068561
000020 f3 7d 7a 3d 20 76 e1 3d 01 4a 21 3e 06 20 ba 3e
       0.06115527 0.11008859 0.15750886 0.36352557
000030 f4 f2 a5 3e 15 8a 23 3f ce f1 79 3d 4c 44 46 3d
       0.3241192 0.6388257 0.06102162 0.048404977
000040 1d de e1 3e e3 b2 46 3e 6d df e7 3e 19 59 3c 3e
       0.4411477 0.19404177 0.45287648 0.18393363
000050 cc cf 17 3d 8a 73 d3 3d 88 6e 98 3e 70 66 b9 3d
       0.037063405 0.10324772 0.2977183 0.090527415
000060 0c 8b 2f 3d 83 9c 12 3e 21 68 bf 3e 49 33 c2 3d
       0.042857215 0.14317517 0.37384132 0.09482438
000070 52 b9 d8 3d 21 b3 2e 3d d5 9c fe 3e f0 7d a2 3d
       0.10582222 0.0426513 0.49729028 0.07934177
000080 dc 34 06 3f cd 8d 71 3e fb 3e be ba 40 50 8b 3d
       0.52424407 0.23589249 -0.0014514619 0.06802416
000090 50 d4 2b 3e ae 0c 96 3e ee e0 b3 3e eb 1c b7 3c
       0.1678021 0.2930655 0.35132545 0.022352656
0000a0 b5 82 91 3e 5e 51 71 3e 9d ee 9a bd f3 1a 9a 3e
       0.28420034 0.23566195 -0.07565043 0.30098686
0000b0 18 c2 cf 3e f5 e0 25 3e 58 f8 1a 3e ce 50 b1 3c
       0.4057777 0.16199096 0.15133798 0.021644976
0000c0 5d 86 e6 3d fc 97 0a 3e c2 ad 21 3e cb 30 2e 3e
       0.112560965 0.1353454 0.1578894 0.170108
0000d0 a6 68 4c 3d 36 55 56 3e f6 20 c6 bc 77 ae 2b 3e
       0.049904488 0.20930943 -0.024185639 0.16765772
0000e0 21 fb 01 3e 34 22 f3 3d 14 66 a9 3e e7 60 e5 3e
       0.12693454 0.11871758 0.33085692 0.44800493
0000f0 ae 9b 83 3e a8 a3 57 3d 42 17 3c 3e 46 f6 a8 3d
       0.25704712 0.05264631 0.18368247 0.08250098
000100 1d 65 92 bd 33 98 c2 3d 74 b5 ea 3c a1 f8 23 3e
       -0.07148192 0.09501686 0.028650977 0.16012813
000110 25 23 8d 3d f3 48 27 bd 5c 8b 17 3e 22 7b 00 3d
       0.06891469 -0.040841054 0.14799255 0.03136743
000120 a6 a3 38 3e a2 3a 2c be 9f b9 b9 3d ec 4f 42 3e
       0.18031177 -0.16819242 0.090686075 0.189758
000130 37 93 2f 3e 37 42 c3 bd f0 64 0d 3e c3 d2 43 3e
       0.17146002 -0.09534114 0.13808036 0.19123368
000140 b3 b8 cd 3d fc d3 a6 3d e7 a0 3d bb 07 ef 54 bd
       0.10044994 0.081459016 -0.0028935017 -0.051985767
000150 5a 1a 18 3d 31 71 22 3e f2 6b ea bd 84 82 9e 3c
       0.037134506 0.15863492 -0.1144637 0.019349344
000160 31 fe 39 3e cb e8 f1 3d ac 21 71 3c de d5 10 bd
       0.18163373 0.1181198 0.014717501 -0.03536021
000170 00 ed 54 bd 2a ca ae ba 25 5f 35 3e 94 a1 d3 3c
       -0.051983833 -0.0013335396 0.17712076 0.025833882
000180 04 b2 85 3e 0d 0c 16 3e f9 89 c9 3d 21 c4 7c 3c
       0.26112378 0.14653035 0.09840769 0.01542762
000190 c5 3c c9 3c 9b 2b 3b bd b2 b0 93 3d 18 ea 97 3d
       0.02456511 -0.045695882 0.07211436 0.07417697
0001a0 d2 de 51 3e cb b2 16 be 0d a7 98 3d fc c8 e9 3d
       0.20495155 -0.14716642 0.074537374 0.11415288
0001b0 48 2f 19 3e 68 8e bf 3d ce 87 42 3d d8 f7 e7 3d
       0.14959443 0.09353334 0.047492795 0.11326569
0001c0 b9 23 bd 3d 68 62 0a be c0 53 66 3e 05 16 ad 3d
       0.09235329 -0.13514102 0.22492886 0.084514655
0001d0 45 60 d4 3c 61 92 0d 3e 08 d0 a5 3d 73 2e 89 3d
       0.025924811 0.1382537 0.080963194 0.066983126
0001e0 7f 3a 01 3e d9 22 1c 3e 5a ae 5c 3d c8 dc 1a 3b
       0.1261997 0.15247668 0.053877212 0.002363013
0001f0 cb c3 10 3e 1b 31 0a 3e e9 70 a6 bc 13 66 12 bd
       0.14137189 0.13495295 -0.020317512 -0.035741877
000200 1e 49 8d 3d 84 22 b2 bd 7f 46 5d be ac a4 7f bd
       0.068987116 -0.086979896 -0.21608923 -0.062412903
000210 08 61 5c 3e da 91 ef 3d b8 4f 2a 3e 7e fd 89 3d
       0.2152139 0.11697741 0.16631973 0.06737803
000220 db 61 0a 3e 54 07 c3 bc b1 96 8d be fe 81 a3 be
       0.13513891 -0.023807205 -0.2765403 -0.31935114
000230 b3 25 af be b7 b5 7c 3d b5 6f 66 3c 2b 2b 04 3e
       -0.3420845 0.061696734 0.014064719 0.12907092
000240 0d 9c 17 3e 58 c1 8a bc a0 53 33 bc d9 eb 8a bd
       0.14805622 -0.016937897 -0.010945231 -0.067832656
000250 83 20 4c bd e7 bf 56 3c 6d cd 82 be f4 b5 8e bd
       -0.049835693 0.0131072765 -0.25547352 -0.069682986
000260 05 f8 ea bd 3e ce eb bd 78 0f 4a be 8e 7a aa be
       -0.11473087 -0.11513947 -0.19732463 -0.33296627
000270 e3 84 69 3e 5e 2b 03 3d 84 a7 83 be 03 60 07 3d
       0.22804599 0.03202378 -0.25713742 0.03305055
000280 b7 79 89 3e 26 bf 84 3d 8e b7 3a 3d bb ed e7 3d
       0.26850674 0.06481771 0.045585208 0.1132464
000290 19 35 9f bb 26 90 7d be f7 50 d7 bd 10 d0 80 be
       -0.0048586247 -0.2476202 -0.1051349 -0.2515874
0002a0 e1 c2 74 be bc 15 f0 3d c8 a1 17 3e 12 dd db bd
       -0.23902465 0.117228955 0.14807808 -0.10735525
0002b0 32 a4 60 3c d9 17 49 be a3 87 eb 3d c5 e3 89 3e
       0.013711022 -0.19638003 0.1150048 0.26931587
0002c0 30 d7 17 be 9b 28 65 be 49 d5 c2 3c 58 0d 96 3e
       -0.14828181 -0.22378771 0.023783343 0.29307055
0002d0 55 aa 96 3c e7 4b ab be 5f 4d 12 3e f2 af 6f be
       0.018391768 -0.33456346 0.14287327 -0.23406962
0002e0 dc 1e 1d be 11 2a d9 3d a6 21 92 bd 96 96 42 be
       -0.15343803 0.10603727 -0.07135324 -0.19002756
0002f0 0e f4 46 3d 3b 94 b3 bd 96 ea 9a 3d 2b e9 67 3d
       0.048572592 -0.08768507 0.07564275 0.05661885
000300 4c 4a dd 3e 63 a3 8f 3e 89 16 15 3e ba b3 2a 3e
       0.43220747 0.28054342 0.14559378 0.16670123
000310 dd 70 00 3e 27 5a 81 3e 72 7e 56 3e 8c 9c 3e 3e
       0.12543054 0.25264093 0.20946673 0.18614405
000320 a4 d6 0e 3e c5 d9 92 3e 20 99 3a 3e 0b 70 20 bd
       0.13949066 0.2868177 0.18222475 -0.039169353
000330 c2 c7 c7 3d ef 93 d8 3e c7 a2 07 3d ad 95 57 3e
       0.09754898 0.42300364 0.03311422 0.2105319
000340 95 0b 88 3e 89 92 1c 3e ea 79 dd 3d ea a0 a0 3e
       0.26571336 0.15290274 0.10814269 0.31372768
000350 67 d5 f1 bb 21 a6 fb 3d 45 78 32 3e 81 d8 19 bb
       -0.007380176 0.12287546 0.17428692 -0.0023474994
000360 8a 13 42 3e d8 73 85 3e e9 c8 e4 3d 46 52 a0 3e
       0.18952766 0.26064944 0.11171133 0.3131277
000370 73 ed 21 3e a2 fc d1 3d 41 97 4f 3e fd 39 ed 3d
       0.15813236 0.10253264 0.20272543 0.11583326
000380 87 ad 95 3e 6c 53 7d 3e 2a 64 29 bd a3 2a b2 3e
       0.29233953 0.24738854 -0.04135529 0.34798154
000390 71 d4 6a 3e b3 87 dd 3d b7 c7 8d 3e 01 0a 19 3e
       0.22932602 0.10816898 0.27691433 0.14945222
0003a0 97 19 6b 3d a2 c3 b6 3e 95 c5 0e 3b 75 5e 4b 3e
       0.05739745 0.3569613 0.0021785249 0.19860251
0003b0 be 44 68 3e 3e 5f 44 3e da 53 b9 3d dc 10 a3 3e
       0.22682473 0.19176957 0.090491965 0.318488
0003c0 74 f2 c3 3d cf 9e 9a bc 3e e9 5e 3e 50 5a 23 3e
       0.09567729 -0.018874554 0.21768662 0.1595242
0003d0 a4 ff 97 3e d1 71 7b 3e de 56 48 3e 3c 6e 02 3e
       0.29687226 0.24555136 0.19564387 0.12737364
0003e0 5c 2e 12 bd d6 5e 84 3e aa 41 49 3e 75 76 dd 3d
       -0.035688743 0.25853604 0.19653955 0.108136095
0003f0 76 70 ab 3d 65 87 5a bd 6d 5a 9d 3d 1c 01 5f bd
       0.083710596 -0.05335178 0.07683263 -0.054444417

lstm.bias_hh_l0 f4 [256]
000000 20 30 8e 3e c4 8a a7 3d e9 2e 77 3e 07 1d 90 3e
       0.2777109 0.08180764 0.24138989 0.28147146
000010 e8 38 d9 3d f0 b7 25 3f 37 eb 47 3e 94 ea bd 3d
       0.10606557 0.6473379 0.19523321 0.09273258
000020 dd 1d 98 3c d3 dc 36 3e cb 38 1e 3e fb de 9c 3e
       0.018568927 0.17857675 0.15451352 0.3063887
000030 59 95 81 3e 31 34 22 3f 42 49 60 3e 49 5c 94 3c
       0.25309256 0.6336089 0.21902946 0.018110411
000040 56 13 bb 3e 29 e6 f9 3a cc b2 a6 3e 5a 6a 14 3e
       0.3653819 0.0019065785 0.32558286 0.14493695
000050 7c 57 df 3d fd 5c d4 3d 26 eb a4 3e cb 3f 75 bd
       0.10905358 0.103692986 0.32210654 -0.05987529
000060 13 f6 d2 3d 51 96 c7 3d 31 3d ad 3e e9 6e 52 3e
       0.10300841 0.097454675 0.33835748 0.20550121
000070 72 64 7d 3d 3c bb 0d 3e dc 46 bd 3e 3e 4a a1 3d
       0.06186337 0.13840955 0.36968124 0.07875489
000080 c0 4e 12 3f 98 d0 d7 3e fb ee 9d 3d 7b 23 22 3e
       0.5715141 0.42151332 0.077115975 0.15833847
000090 9f 12 98 3d be e7 35 3e 83 dc e3 3e 46 7a db 3d
       0.07425427 0.17764184 0.44504175 0.10716681
0000a0 1e 68 93 3e 12 33 84 3e 57 43 11 3d 45 ca 2d 3e
       0.28790373 0.25820214 0.03546461 0.16971691
0000b0 2f bf 5a 3e 14 d5 41 3e 6a b9 57 3e ec f3 24 3a
       0.21361993 0.18928939 0.21066824 0.00062924507
0000c0 3a 61 42 3c a9 98 e4 3c 9f ff 2d 3d 59 56 81 3e
       0.011864001 0.027904825 0.042480107 0.2526119
0000d0 7b 8f 3c 3d b1 dc 32 3e 8d 8b 95 bc 67 93 40 bd
       0.04603527 0.17467 -0.01825502 -0.047015574
0000e0 0a b4 03 bc 83 d2 bc 3d 33 05 9c 3e 9d 55 99 3e
       -0.00803853 0.092198394 0.30472717 0.2994813
0000f0 9b f0 22 3e e0 db a0 3d 66 46 bf 3e 26 04 9e bc
       0.15912096 0.07854438 0.37358397 -0.019289088
000100 a1 2f de bd 57 fb 2a 3e 26 df ee 3d 74 1e 25 3e
       -0.10848928 0.16697441 0.11663656 0.16124898
000110 de 74 77 bd 1d 29 c6 bb 1f 44 ca bb 22 8e 5d 3e
       -0.060414188 -0.0060473816 -0.0061726714 0.2163625
000120 1f d1 ea 3d d3 01 21 be 4f 22 71 3d c7 39 93 3d
       0.11465668 -0.15723352 0.05887061 0.071887545
000130 47 24 23 3e 26 40 e8 bd 10 ef 1e 3e a1 37 65 3c
       0.15931807 -0.1134036 0.15520883 0.013990314
000140 63 94 13 bd 3e 5a 5f bc fa 19 0f 3d 3f 12 16 3d
       -0.036030184 -0.013632355 0.034936883 0.036638495
000150 ea ba 35 bd fd 9c 38 3e ca 4f 19 be 42 82 9a 3c
       -0.04436771 0.18028636 -0.14971843 0.01886094
000160 f1 8a 95 3c 6d 22 4b 3e 4b e4 3c bb f3 ae af bd
       0.018254729 0.19837351 -0.0028822597 -0.08578291
000170 f1 c6 73 bd c9 01 c5 bc c4 64 bb 3d dc 29 4a 3e
       -0.059515897 -0.024048703 0.09150079 0.1974253
000180 3b cf 29 3d a0 fc b6 bb 87 bd f0 3d 57 27 c9 bc
       0.041457396 -0.0055843145 0.117548995 -0.024554892
000190 12 a4 46 3e b2 81 bb 3d fe e0 d5 bc 0d bd 9c bb
       0.19398525 0.09155597 -0.026108261 -0.004783279
0001a0 aa ce 27 3e 1b 27 69 3c 9e ad 4d 3e cc ff d9 3d
       0.1638743 0.014230515 0.20085761 0.106444925
0001b0 ee 40 29 3e 21 6a d7 3d ac 45 62 3e 79 9a 20 3e
       0.16528675 0.10518289 0.2209689 0.15683927
0001c0 4d 95 3b 3d ac 01 67 3d ed 91 d8 3d d4 38 b4 3b
       0.04579668 0.05639808 0.10574708 0.0054999385
0001d0 d6 fa 94 bd 19 12 17 3e 3c ed ef 3d 32 62 cb 3d
       -0.07274406 0.14752997 0.11715171 0.09930839
0001e0 a6 47 e5 bb 5c 22 29 3d 5c 31 8d 3d 40 14 82 bd
       -0.0069970665 0.041292533 0.0689418 -0.06351519
0001f0 43 ea 6a 3d 37 dc 40 3e a6 50 9a 3d 92 91 cd 3b
       0.057352316 0.18834005 0.07534914 0.006273457
000200 48 a3 4f 3c ca de 41 be 08 ba 2d be cd 96 24 3d
       0.012673207 -0.18932644 -0.16965497 0.040182877
000210 ae 90 70 3e 31 11 94 3e df 91 d9 bc f7 87 39 bc
       0.23492691 0.28919366 -0.026558815 -0.01132392
000220 96 0e 92 3d 6b 10 e1 3a ea 00 39 be 7b 2d 9b be
       0.07131688 0.0017171031 -0.18066755 -0.30308136
000230 43 b3 96 be c4 94 63 3d b0 0b a2 3d ce 66 80 3e
       -0.2943364 0.055561796 0.079123855 0.25078434
000240 94 42 e6 bc 4b 38 00 3e 79 11 4a 3e f6 26 c4 3c
       -0.028107919 0.12521474 0.19733228 0.02394436
000250 99 56 d5 bb 74 5d e3 3c 41 12 8b be 18 09 92 3c
       -0.0065105674 0.027754523 -0.27162364 0.017826602
000260 d6 bf ec bd 63 53 ff bb 28 6e 3b bd 2a ff 73 be
       -0.11560027 -0.007791923 -0.04575935 -0.23827806
000270 7d f2 b9 3c b2 c4 8d 3c 76 ea 6a be a0 67 3c be
       0.022698635 0.017305706 -0.22941002 -0.18398905
000280 46 7a 97 3e ba b6 ea bd a3 38 ec bc 09 0b 5a bc
       0.29585475 -0.114606336 -0.0288356 -0.013308295
000290 8c e3 48 be 95 6d 20 be 7b 1d 67 be b8 2c 86 be
       -0.19618052 -0.15666802 -0.2256984 -0.26205993
0002a0 8a 19 53 be ad a9 32 3c 86 8c 39 3d 22 22 f1 bd
       -0.20615211 0.010904712 0.04530003 -0.117740884
0002b0 b7 5c 6e bd 25 45 38 bd fd b9 60 3e ba 18 b8 3e
       -0.05819389 -0.044987816 0.21945949 0.35956365
0002c0 22 ed 2d be 84 4f 64 be 4d a0 a3 3d 23 1d 61 3d
       -0.1698499 -0.22295958 0.07989559 0.054959428
0002d0 ab bf 34 3e e7 1b ba be bc 46 43 bc 64 a9 0b be
       0.1765124 -0.36349413 -0.01191872 -0.13638836
0002e0 17 7f 23 be 59 07 46 3e ac 60 7a be bf 82 6f be
       -0.1596645 0.1933874 -0.2445094 -0.2338972
0002f0 33 f9 b1 3d 02 b7 ab 39 c5 ec 73 3d 8d 47 00 be
       0.08690109 0.00032752013 0.059551973 -0.12527294
000300 e1 ce 00 3f 89 20 cd 3d 6e fd 84 3e 90 62 79 3e
       0.5031567 0.10015971 0.25974602 0.24354005
000310 55 47 bf 3c 20 c0 b3 3e 6e 6b f7 3d 07 70 48 3e
       0.023349443 0.35107517 0.120810375 0.19573985
000320 d1 50 13 3e 13 a9 ce 3d 57 80 05 3e 41 e5 59 bd
       0.14386298 0.10090842 0.13037239 -0.05319715
000330 64 2f 1f 3e 5c 99 aa 3e 68 f3 55 3e a3 16 4d 3e
       0.15545422 0.3332013 0.20893633 0.20028166
000340 a1 d8 8f 3e 55 dd 16 3e 95 17 6d 3e 9a 08 89 3e
       0.28094962 0.14732869 0.23153527 0.26764375
000350 55 6b 32 3e 79 0d 6a 3e e8 76 02 3e 18 87 85 bd
       0.17423756 0.22856702 0.12740672 -0.06519908
000360 35 b3 20 3e 35 ae 6f 3d 50 05 82 3e ff e3 b2 3e
       0.15693362 0.058515746 0.25394678 0.34939572
000370 5f 43 e5 3d 41 2e 2f 3d 79 15 25 3e 5f b7 c5 3d
       0.11194491 0.04276872 0.16121472 0.09654116
000380 1c 49 b3 3e a6 bc ca 3e 59 25 58 bd cc 53 32 3e
       0.35016716 0.39597052 -0.052769993 0.17414778
000390 c3 f9 7a 3e f2 fb 22 3e a4 f9 3c 3e 9f e4 f3 bb
       0.24509339 0.15916422 0.18454605 -0.0074430252
0003a0 e0 ea e1 3d 95 b1 c0 3e 5e 71 25 3e 11 5a 4c 3e
       0.11031127 0.37635484 0.16156527 0.19956233
0003b0 7f 7b 37 3e a6 96 b6 3e 20 80 e8 3d f5 7a 45 3e
       0.17918204 0.3566181 0.11352563 0.19285186
0003c0 75 71 3f 3d 07 ee 14 3c 1c 61 90 3e 3b 1c 7b 3c
       0.04673906 0.009089953 0.2819909 0.015326555
0003d0 61 2c b8 3e 29 7f 89 3d df 2a 2a 3e 66 d5 0a 3e
       0.35971358 0.06713707 0.16617917 0.13557968
0003e0 ff 29 ad bd 8e b9 3f 3e 2b f5 96 3e 83 60 46 3e
       -0.08455276 0.18723127 0.29483923 0.19372754
0003f0 a0 c2 b2 3d 6c b1 ac 3c b0 25 9c 3d 22 52 5e 3d
       0.08728528 0.021080695 0.07624376 0.054277547

lstm.weight_ih_l0_reverse f4 [256, 9]
000000 89 aa 83 3d 08 a2 24 3d e5 39 9d bd 5c e7 a5 3d
       0.064290114 0.040193588 -0.07677058 0.08100769
000010 5d 28 5b be 2a 4f f9 bd ea de 66 3e 32 d9 4c 3e
       -0.21402116 -0.121733025 0.22545972 0.20004728
000020 c4 2f da 3d b0 20 43 be 5b 91 f9 3d 30 06 8d be
       0.10653642 -0.19055438 0.121859275 -0.27543783
000030 fc d7 42 3c 54 b1 91 bd e7 de af 3e e2 a8 ec be
       0.011892315 -0.07113901 0.34349748 -0.46222597
000040 d3 2d 8b bd ec ac b2 be 81 31 b3 be fa e4 9c bd
       -0.0679585 -0.34897554 -0.34998706 -0.07660861
000050 2a 9b 2a be f7 22 ea be 78 86 74 bd 36 d8 a7 3e
       -0.16660753 -0.457298 -0.059698552 0.32782143
000060 e4 86 60 3d b2 6c 50 be 6a 15 7d bf b1 79 a4 3d
       0.05481614 -0.20353964 -0.988608 0.08031023
000070 45 b5 e0 3d ac 7b 36 3e b1 d1 8e 3e 75 f2 a1 3e
       0.109720744 0.17820615 0.27894357 0.31630293
000080 69 b4 a8 3e f7 bf 78 be 17 bf 05 3e c7 1f a7 be
       0.32950142 -0.24291979 0.13061176 -0.32641432
000090 19 80 e3 3b e2 b7 7b be 9a 33 14 be 8e 7f 20 3b
       0.0069427607 -0.24581864 -0.1447281 0.002449009
0000a0 4f 5b 67 be 12 c9 14 3b 24 5a 02 be 18 18 6c be
       -0.22593425 0.0022702855 -0.12729698 -0.23056066
0000b0 62 85 90 be 2e 84 7d bd 46 c1 37 be 4d 49 98 3d
       -0.28226763 -0.061893634 -0.17944822 0.07435856
0000c0 d3 4b 54 3e f9 e1 58 3e 90 e8 bb bd 3c 42 4f 3e
       0.2073205 0.21179952 -0.09175217 0.2024011
0000d0 ee d4 ce 3d 1d f4 8a 3e b8 36 68 3e d7 39 85 3d
       0.10099207 0.2713937 0.22677124 0.06505173
0000e0 15 01 56 be 4e 80 bd bd fc ab 30 be a5 d0 38 3d
       -0.2089885 -0.09252988 -0.17253107 0.045120854
0000f0 5a 84 54 3e 4f 5b d7 bd 4d 57 37 be 4a a3 3c be
       0.20753613 -0.105154626 -0.17904396 -0.18421665
000100 17 ec 71 be 6b 6b 23 bd 52 1f 22 be 9f 93 8e bc
       -0.23625217 -0.039897364 -0.1583226 -0.017404376
000110 1a e0 85 3d 66 49 42 be 5c 3c 12 bd 07 f8 47 be
       0.065368846 -0.18973312 -0.035702094 -0.19528209
000120 c4 49 b7 bc 31 ae 10 3e ff 62 01 3e 6c f8 9a 3d
       -0.022374041 0.14128949 0.1263542 0.07566914
000130 f3 3b 14 bf c0 36 e7 3d 0d 14 53 3d 7f 5d f8 bc
       -0.57903975 0.112897396 0.051532794 -0.03031802
000140 16 57 96 be 39 ea 83 3e 93 73 86 3e e5 fc 80 3e
       -0.29363316 0.25764635 0.2626005 0.25192943
000150 43 56 15 3e c8 21 75 3d 9e ed ec 3d 7f f8 67 bd
       0.14583687 0.05984667 0.115687594 -0.05663347
000160 18 a0 89 bc df 84 25 be 88 51 4d 3e c3 8d 4c bf
       -0.016799971 -0.16163968 0.20050633 -0.7990381
000170 84 5c c3 3c fe 65 5b bd c4 fd 3b be 27 10 40 be
       0.023847826 -0.053564064 -0.18358523 -0.18756162
000180 9e ca 12 3d 15 9d c9 3c ec 78 83 3d c3 d9 b7 3d
       0.035837762 0.024611035 0.064195484 0.089770816
000190 6f 36 86 be f9 ac 29 3d 74 c2 43 bc 64 9d 74 3c
       -0.26213405 0.041424725 -0.011948217 0.014930103
0001a0 9c 01 f0 bd 78 99 2b 3e e2 c0 fb bd d7 d4 2d 3d
       -0.11719057 0.16757762 -0.12292649 0.042439308
0001b0 86 c9 7f be ea d3 af 3b d6 8c 4b 3e bb 7a 16 3e
       -0.24979219 0.0053658383 0.19877943 0.14695255
0001c0 64 6a 00 3e 44 03 d5 bc 2a eb 3e 3e 1f fb 93 bd
       0.12540585 -0.026002534 0.18644395 -0.07225632
0001d0 f7 46 da 3d ec 56 24 3c a0 03 39 be ba 21 4f 3e
       0.10658067 0.010030489 -0.18067789 0.2022771
0001e0 ae fb 52 3e ff 0d a7 3c de c5 9c 3e e9 08 9b 3d
       0.2060382 0.020392416 0.3061971 0.07570059
0001f0 6a 66 97 bd c4 d4 c4 be f6 66 a7 3e 67 af 2f be
       -0.07392581 -0.38443577 0.3269574 -0.17156754
000200 0e 72 79 3d cf a0 ed 3e 19 e6 21 3e 61 20 90 3e
       0.060899787 0.4641175 0.15810432 0.28149703
000210 68 43 68 be 44 f4 a7 3c ba 19 73 be bc a3 0d 3e
       -0.22681963 0.020502217 -0.23740283 0.13831991
000220 61 83 a4 be 1f e0 77 be 30 d3 d1 bd 41 0d b0 be
       -0.32131484 -0.24206589 -0.10245359 -0.34385112
000230 8e 74 b0 3e 61 c7 f4 be a7 30 57 be 8c 55 5f be
       0.34463924 -0.47808364 -0.21014653 -0.21809977
000240 bf 8f c1 be 31 f8 c2 be 2e 2d 68 be 1f 39 67 be
       -0.37804982 -0.3807998 -0.22673485 -0.22580384
000250 d8 c6 1a be c1 8f 89 3d f5 40 0b bd 5e 9f f4 bd
       -0.15114915 0.06716872 -0.033997495 -0.119444594
000260 ff e0 c5 be 71 3a 45 be e7 0e 19 3c f1 99 91 be
       -0.3864822 -0.19260575 0.009341932 -0.2843776
000270 b3 0d a3 be 0b 57 54 be 38 e8 14 3b 8b 3a 80 3c
       -0.3184639 -0.2073633 0.002272142 0.015652915
000280 38 f7 cb 3d 43 d9 08 bd f5 19 12 be bf 4d 2c 3b
       0.099592626 -0.033410322 -0.14267714 0.0026291457
000290 ba 82 18 3e a0 78 d4 bd 8d 77 e3 3d 19 13 b9 bd
       0.14893618 -0.1037457 0.11106787 -0.09036846
0002a0 d8 b4 f8 3d 8f 53 9c 3e 67 54 24 3d e7 85 64 bd
       0.12143868 0.305325 0.040119555 -0.05579176
0002b0 51 8e ea be e6 f3 ae be 0b e7 6c be 2c 21 3a bd
       -0.45811704 -0.34170455 -0.23135011 -0.04544179
0002c0 9d c3 04 be 53 19 10 3e 04 73 d7 3d 8e 3a 8f 3e
       -0.12965246 0.1407216 0.10519984 0.2797436
0002d0 e0 ea 23 be fe ca 01 be 61 66 a2 bd b5 02 45 3d
       -0.16007566 -0.12675092 -0.079296835 0.048098285
0002e0 11 ea 0d be fe 80 53 3d 5d 38 78 be 69 58 8b bd
       -0.1385882 0.05163669 -0.24240251 -0.06803972
0002f0 65 8c 01 be fd 00 1b 3c cf 3a 53 3e 05 1f 41 bd
       -0.12651213 0.009460685 0.20627902 -0.047148723
000300 49 9e 02 3e 5b d1 17 bd 01 8c 45 3e 05 b8 24 3e
       0.12755693 -0.03706489 0.19291689 0.16085823
000310 6a cc 6d be f9 f0 07 be f1 e5 86 be a2 76 01 3e
       -0.23222509 -0.13275518 -0.26347306 0.12642911
000320 01 ef 75 be 5a 48 23 3e bc eb ce bb cc 67 08 3e
       -0.24016954 0.15945569 -0.006314723 0.13320845
000330 b6 71 18 bf 5c 21 9c be 45 19 08 bf 67 e7 02 be
       -0.5954851 -0.304942 -0.5316356 -0.12783585
000340 70 2f 0d 3e 53 dd 4b be c7 e3 55 3b e7 1d 1a 3d
       0.13787627 -0.19908647 0.0032636987 0.037626173
000350 89 6e 54 3e 08 43 17 bf d2 5a 28 3d d4 5b 38 bf
       0.20745291 -0.59086657 0.041102238 -0.7201512
000360 0f eb 45 3e 01 47 9d 3e b1 6d 70 3e 71 5c 6e 3e
       0.19327949 0.30718234 0.23479344 0.23277451
000370 91 35 2c bd 09 95 af 3d 0c 89 d4 3d 32 02 ac 3e
       -0.042043272 0.08573348 0.10377702 0.33595425
000380 5a ac 06 3f ce 86 a7 bd b5 26 6a be d5 a9 7b be
       0.5260674 -0.08180009 -0.22866328 -0.24576505
000390 31 69 50 be 53 31 4f be 6a 43 32 bd 81 e8 80 3c
       -0.20352627 -0.2023366 -0.043521322 0.015735867
0003a0 b3 46 10 be 20 f3 bb be 20 c1 b3 bd d0 ec 28 3d
       -0.1408947 -0.36708927 -0.0877707 0.041241467
0003b0 3d 45 2b 3e bb 9d 6a bd 2a 1c 34 3e 6c 0e 27 3e
       0.16725631 -0.05727933 0.17588869 0.16314095
0003c0 51 db bd be 91 42 da 3d e0 34 ea be 06 07 a2 3e
       -0.37081388 0.10657228 -0.45743465 0.31645983
0003d0 72 5a 8e be d5 44 61 bd c5 a4 50 be f9 e2 a9 3d
       -0.2780338 -0.054997284 -0.20375355 0.08295245
0003e0 d6 fc 20 be 0b 71 8f bd cd f5 2a be e8 c7 55 3e
       -0.1572145 -0.07003983 -0.16695328 0.2087704
0003f0 b6 87 e4 bc 5d 12 38 be 9f 31 31 be 50 af cd 3d
       -0.027896743 -0.17975755 -0.17304085 0.10043204

lstm.weight_hh_l0_reverse f4 [256, 64]
000000 53 32 9c 3b cd f0 3a be 9c ed 52 bd 88 6c 80 bc
       0.0047667413 -0.1825592 -0.051496133 -0.015676752
000010 0f 3d 5a 3e 4b 72 5d be ee 4d a5 bd 37 c7 d6 3d
       0.21312355 -0.2162563 -0.080715045 0.10487216
000020 ce de 65 be 69 22 42 be 1f f6 bb 3d 34 16 4d 3e
       -0.22448274 -0.18958439 0.09177803 0.20028001
000030 72 6b b5 3d 06 4f 97 bc 90 13 80 bd 7a 0a 7c bd
       0.08858384 -0.018470298 -0.06253731 -0.06153343
000040 67 df 33 3e cc eb 2a be 40 d9 f6 be 2d 75 4f be
       0.1756569 -0.16691512 -0.48212624 -0.20259543
000050 19 cd bf 3d 42 7f 63 3e 5b 21 00 be 28 f8 6d be
       0.09365291 0.22216514 -0.12512724 -0.23239195
000060 1d df 85 bd 3d 7e 24 3e b8 b8 24 3d 69 9b 11 3d
       -0.06536696 0.16063781 0.040215224 0.0355486
000070 c8 fb d2 bd 8b cd 19 3e 15 94 ce bb 93 f9 ed bd
       -0.1030193 0.15019815 -0.006304274 -0.11619868
000080 40 c8 ef bd 96 70 8a 3d c3 65 04 3f 27 72 83 3c
       -0.117081165 0.06759755 0.51717776 0.016045643
000090 74 6e 3e be d1 12 a4 bd 82 2c d8 3c 9e dd d1 be
       -0.18596822 -0.080114014 0.02638841 -0.40989393
0000a0 29 5a 14 3e 93 0b 76 3b c6 75 f7 3d 0b 09 35 3e
       0.14487518 0.003754352 0.120830104 0.17679231
0000b0 35 db 96 bc 6f 53 fd bd 45 67 3e bc e6 aa 29 bd
       -0.018415073 -0.12369429 -0.011621301 -0.041422747
0000c0 77 e0 af 3d f3 ab 4a 3d 2c 4f 97 bd f7 16 4b be
       0.08587735 0.04948039 -0.07388148 -0.19832979
0000d0 47 ef 8a be 8e 85 9d 3d cc 94 35 3e dc 62 6f 3d
       -0.2713568 0.07691489 0.17732543 0.05844389
0000e0 46 da 1b bd bd 6c 86 be 1d 72 e5 3d 88 8e ce bc
       -0.03804996 -0.26254836 0.11203406 -0.025214449
0000f0 46 4f 7f bd 7a ee a3 be 05 4a 6b 3e c8 b5 10 be
       -0.06233146 -0.3201788 0.22977455 -0.14131844
000100 2d 84 53 bd 14 39 0c 3d 5c 28 34 3d 4d f9 68 3e
       -0.051639725 0.03423412 0.043983802 0.2275135
000110 2d a9 14 bd bf 14 1e be 9f a8 d3 3c fc 26 1c 3d
       -0.03629415 -0.15437602 0.02583724 0.038123116
000120 88 46 8e be a8 69 4f be 2e 15 6a be 2e 2f 8e 3e
       -0.27788186 -0.20255148 -0.22859642 0.2777037
000130 1c e0 21 be 75 9b 9f 3e 30 b1 62 3e 48 d6 ce be
       -0.15808147 0.31173292 0.22137904 -0.4039786
000140 ab 95 fb be 12 99 dc be c9 37 ce be fb 55 96 be
       -0.49137625 -0.43085533 -0.40276936 -0.29362473
000150 6d d6 eb bc 41 cb 20 3e fb 43 ba 3c 5d d3 31 be
       -0.02878877 0.15702535 0.022737494 -0.17365785
000160 fe 5e bf 3e 42 5e 6a 3e fc 39 d1 bd fb 1d 93 3e
       0.3737716 0.22887519 -0.10216138 0.2873381
000170 fe 9e c7 be 3f c9 aa 3e 46 f8 77 3e f8 85 f8 bd
       -0.3898849 0.33356664 0.24215803 -0.121349275
000180 cb 80 8a 3e 16 e0 b1 bd 26 d1 98 3e 55 78 5b be
       0.27051386 -0.08685319 0.29847068 -0.21432622
000190 10 d5 8d 3d a2 ad 8f bd e7 6d 5d be 08 cc 53 be
       0.06925404 -0.0701554 -0.21623956 -0.206833
0001a0 4f 0e 6d 3e 74 ab c6 be 12 1f da be 17 94 ee bd
       0.2314999 -0.38802683 -0.4260183 -0.1164934
0001b0 2c bf b8 bd 38 af 05 bf 97 00 cd 3c 77 82 96 be
       -0.09020838 -0.5222049 0.025024695 -0.29396412
0001c0 dc 9c c6 3e 93 18 77 be 73 09 33 be 45 cf f7 be
       0.3879155 -0.24130468 -0.17484073 -0.48400322
0001d0 50 0a 04 be f1 9c 0e 3e 23 c4 dc 3e 65 70 28 be
       -0.12894559 0.13927056 0.4311839 -0.16449125
0001e0 b4 6e 63 3d 63 b0 33 bc e4 c1 97 be 0d 4e a5 bc
       0.055525497 -0.010967347 -0.29640114 -0.02017882
0001f0 f7 20 ae bd a5 13 6a 3e 3a 89 51 be 8e 21 2b bf
       -0.08502381 0.22859056 -0.20462504 -0.66848075
000200 1e f7 24 bf 3a c7 9b 3e 47 93 a1 3e 78 f9 33 bd
       -0.6443957 0.30425435 0.31557676 -0.043939084
000210 4a 30 4d be b9 36 39 3d 8b c8 d3 3d cf 0b 30 3e
       -0.20037952 0.045218203 0.10340985 0.17192005
000220 d8 9c 15 be 1b ee d5 3c df 33 12 bf f4 19 fe 3d
       -0.14610612 0.026114514 -0.571104 0.12407294
000230 e9 e3 86 3e df 4b 72 3e ab 70 91 3e e2 c7 d2 be
       0.26345757 0.23661755 0.2840627 -0.41168123
000240 ff fe ab 3e 16 cb 35 bc 59 8e 90 be ac ab 35 be
       0.33592984 -0.011095783 -0.28233603 -0.17741269
000250 02 a0 18 bc 51 8e 44 be 5a 99 bb 3d 91 be 25 3e
       -0.009315493 -0.19194914 0.09160109 0.16185977
000260 4d 5e c2 bc 5c 29 d3 3d e7 a2 a7 3d 7f ec 80 3e
       -0.023726607 0.10310623 0.08185368 0.25180432
000270 d9 9f f6 3e ce 8d 81 bd 7b f4 0f be 39 72 99 3d
       0.4816883 -0.06325875 -0.14058106 0.07492489
000280 0d fa 0e 3e a6 4d 8b be 39 aa d4 bd d7 1d 0f be
       0.13962574 -0.2720768 -0.1038403 -0.13976227
000290 38 ba 10 3e 4a 8e fc bc 84 f8 6e 3d 01 77 a9 bd
       0.14133537 -0.030829567 0.05834247 -0.08274651
0002a0 13 3f a9 3e fa 44 f3 bd ce ef 04 be 3b 72 9f be
       0.33055934 -0.118783906 -0.12982103 -0.31141838
0002b0 d1 79 97 3e 0b a2 43 bf e4 ac e3 3e 92 86 66 3e
       0.29585126 -0.7641913 0.44467843 0.22512272
0002c0 4f 90 c2 3d 6e 2e 75 3e 60 45 b8 3e 8a c4 03 3d
       0.09500181 0.23943493 0.3599043 0.032169856
0002d0 c3 d5 b9 3d 0d fe 8f 3e e1 5b 01 3f e5 92 0b bf
       0.09073975 0.28123513 0.5053082 -0.5452102
0002e0 5f 8c 98 3e 21 e7 69 be 3a b8 00 bb 8c 8d 5c 3e
       0.29794595 -0.22842075 -0.0019641058 0.21538371
0002f0 ac de 9d 3e f4 11 db bd 8e 00 b3 3e b3 83 04 bf
       0.30833948 -0.10696784 0.3496136 -0.5176346
000300 e0 8b b9 bd 15 3c 59 be a1 50 94 3e 39 98 ad 3d
       -0.09059882 -0.21214326 0.28967765 0.084763
000310 54 b6 20 bd 70 55 4b be 3b a3 a3 3a 6c 85 dc 3d
       -0.03923638 -0.1985681 0.001248456 0.10767636
000320 0a f4 1a be 8a e0 28 be 1d 18 7d be 0a cf b8 3e
       -0.15132156 -0.16491905 -0.2471623 0.36095458
000330 bf 5a 59 39 93 4c b7 3e 60 22 18 be 0c a6 63 be
       0.00020728538 0.3580061 -0.14856863 -0.2223131
000340 0f 50 0f be 83 a8 bf be 34 d1 c1 bc 2c 6a 96 be
       -0.13995384 -0.37433252 -0.023659326 -0.29377878
000350 2d b8 70 3d 5a 49 c0 3a bd ca f4 bd d4 da 0a be
       0.058769394 0.0014670298 -0.11952732 -0.13560039
000360 5b 90 d4 3e 46 7b 59 3e 21 06 eb 3d 00 72 a3 3e
       0.41516384 0.21238431 0.11475778 0.31922913
000370 cc 79 e6 bd 93 86 28 3c b2 5b e1 3d 2b 2d b6 3b
       -0.112537 0.010285991 0.110038176 0.0055595837
000380 58 52 00 bd d2 80 df bd 70 fb 9a 3c 82 3a ba be
       -0.03132853 -0.109132424 0.018918723 -0.36372763
000390 c4 88 09 be bb 10 80 be a0 c0 6b bd 97 66 9d be
       -0.13431078 -0.25012764 -0.05755675 -0.30742332
0003a0 29 f1 14 3e 05 c1 cf bd 49 a2 7b bd 2b 99 22 be
       0.1454512 -0.101442374 -0.061434064 -0.15878741
0003b0 46 28 29 be 91 b0 80 be 98 bd 0e 3d 56 58 00 bf
       -0.1651927 -0.2513471 0.03484878 -0.5013479
0003c0 94 37 e7 3e 20 3f 07 bd 18 ed a7 bc ae 59 9a bd
       0.4515959 -0.033019185 -0.020498797 -0.07536636
0003d0 91 db 28 be 3e 7d 24 3e 13 3b b4 3e 74 2d cf be
       -0.16490008 0.16063401 0.3520132 -0.40464365
0003e0 32 b2 45 bd b9 1d 78 bc 42 63 8a bd 7e ff 07 3e
       -0.048265643 -0.015143805 -0.06757213 0.13281056
0003f0 fa bf 02 be e6 4a e2 3d a0 7e 05 be 24 30 9b bd
       -0.12768546 0.11049442 -0.13036585 -0.075775415

lstm.bias_ih_l0_reverse f4 [256]
000000 7c ea 89 3e 2a 88 1e 3f fa af cd 3e fc c2 87 3e
       0.2693671 0.6192652 0.40173322 0.2651595
000010 e5 a8 e0 3d d2 5e 9c 3c 19 ac 6a 3d bc ff 44 3e
       0.10969714 0.019088183 0.05729303 0.1923818
000020 7f 94 ff 3d 22 f5 c0 3e f6 fe 67 3e 45 a9 c5 3c
       0.12479495 0.37687021 0.22655854 0.024128566
000030 bd 31 a0 3e ba 07 1d 3e fd c9 cd 3e a5 f7 81 3e
       0.31287947 0.15334979 0.40193167 0.2538425
000040 0e 96 71 3e 64 34 de 3d 72 04 cc 3d 77 98 34 3e
       0.23592398 0.108498365 0.099617854 0.17636286
000050 d2 17 91 3e a6 fe 83 3d f6 08 b3 3e 54 5d 2c 3f
       0.28338486 0.06445055 0.34967774 0.6732991
000060 88 c0 b0 3e 2b 96 e6 3d 2d 72 0f bd 8b 31 18 3e
       0.3452189 0.11259111 -0.035020996 0.14862649
000070 36 57 41 3d c8 fa 22 3e e7 b2 e6 3d f1 6b f9 3c
       0.04720231 0.15915978 0.11264592 0.030446978
000080 b3 73 63 3e db 75 33 3d 6b 9a 70 3e 90 72 4f 3e
       0.22212104 0.043813568 0.23496406 0.20258546
000090 67 4b 89 3d 68 ba 8e 3e fe 51 8f 3e 25 96 d2 3e
       0.06703835 0.27876592 0.27992243 0.41130176
0000a0 2c ff 17 3e 19 f1 d1 3d f3 23 87 3e d5 9a d9 3d
       0.14843434 0.10251064 0.26394615 0.10625235
0000b0 77 65 8a bd 8e e6 d3 3e 69 34 4b bd c7 1a 2e 3e
       -0.06757634 0.41386837 -0.04961053 0.17002402
0000c0 4a e5 f5 3e 9f 17 6b 3d 90 75 b5 3e ff f5 d7 3d
       0.48026496 0.057395574 0.35441256 0.10544967
0000d0 2c d2 a2 3e f2 89 ef 3e 0c d1 86 3e fc fe a4 3e
       0.31800973 0.4678493 0.26331365 0.32225788
0000e0 c6 32 c9 3c 0a f2 5b 3e d7 89 bd 3d 4a 78 be 3e
       0.024560343 0.2147905 0.092548065 0.37201148
0000f0 f2 16 17 3e aa b6 be 3e f1 49 27 3d 02 c0 c0 3d
       0.14754847 0.37248737 0.040842 0.094116226
000100 42 a6 88 bd 9f e7 3a be 4f 20 d1 bd 09 cb 19 3e
       -0.06672336 -0.18252419 -0.102112405 0.15018858
000110 69 f8 e6 bd a9 38 98 3c e3 cb b6 3d 98 6a f4 3c
       -0.11277849 0.018581705 0.08925607 0.029835984
000120 96 83 31 3e 4f a7 52 3e e3 b7 b5 3d 41 64 be 3d
       0.17335352 0.20571636 0.08872964 0.09296466
000130 b2 73 78 3e 05 92 32 3d 7b 39 1b 3d c5 9d 24 3e
       0.24262884 0.043596286 0.037896615 0.1607581
000140 08 e4 67 3d f5 bc 16 3e 7e 50 5d 3d 9d 77 e0 3a
       0.056613952 0.14720519 0.05403184 0.0017125491
000150 a1 84 da bd b2 4c a9 3d 66 96 6b 3d 9d 6d 0b 3e
       -0.10669828 0.082665816 0.057516478 0.13616033
000160 1c b6 f0 3d db fc 39 3d f8 2d 82 3d 18 64 70 3d
       0.117534846 0.045407157 0.06356424 0.058689207
000170 dd b0 18 3e f0 1f ca bd 86 f8 02 3e e0 7e bc bd
       0.14911218 -0.09869373 0.12790117 -0.09203887
000180 41 0e e8 3d e3 d4 c3 3c 24 6a 97 3e d8 33 a7 3c
       0.11330844 0.023905223 0.29573166 0.020410463
000190 1d 81 27 be 72 16 19 bd 61 28 55 3d 9a 7e 96 3d
       -0.16357847 -0.03737492 0.05204046 0.07348366
0001a0 76 4a 00 3e 6e 8f e6 3c 14 22 fc 3d f0 0d 3c bd
       0.12528405 0.028144564 0.123111874 -0.04591173
0001b0 5f fa 50 bd 1c da e6 3c 95 6c 16 3e 8f 55 76 ba
       -0.051020022 0.028180175 0.14689858 -0.00093969045
0001c0 79 fd bd 3c a3 f4 57 3c c1 9e 6b 3c c2 26 01 3e
       0.023192154 0.0131808845 0.014381112 0.12612441
0001d0 c8 bf a9 3e 83 76 52 3d 67 6e d6 3d 84 f1 1c be
       0.3315413 0.051382553 0.10470276 -0.15326506
0001e0 bb a9 7a 3d f2 64 27 3e 72 c0 8e 3d e0 db 60 bc
       0.061197024 0.16347101 0.069703 -0.013724297
0001f0 de 7b af bd 32 00 e8 3c dc a0 11 3e 93 a4 21 3e
       -0.08568548 0.028320406 0.14221519 0.15785436
000200 de 02 cd bd f2 7a 01 be 1e f9 69 be 21 19 32 3e
       -0.100103125 -0.12644556 -0.22848937 0.17392398
000210 f9 67 57 bd 4d 81 99 3b c3 e3 09 3e 7e 72 b2 bd
       -0.05258939 0.0046846033 0.1346579 -0.08713244
000220 94 e3 81 3d 1e 39 87 be 24 d7 16 be ec 34 06 3e
       0.06342235 -0.26410764 -0.14730507 0.13106126
000230 52 25 f2 bc b7 10 db 3d 4e 51 4e bc 28 2c 43 be
       -0.029558811 0.106965475 -0.012592627 -0.19059813
000240 e3 55 ba bd f3 32 60 bd db c8 9b bd d7 b7 6c be
       -0.09098413 -0.05473609 -0.076066695 -0.23117004
000250 df 42 55 3e 99 2b 42 3e c9 0d 2a be 31 2f 91 be
       0.2082629 0.18961944 -0.16606821 -0.28356317
000260 d3 ac 7b 3e 53 f3 12 3e a2 1b 95 bd 87 b9 85 bc
       0.24577646 0.14350633 -0.07280661 -0.016323818
000270 16 6f 96 bc b3 50 12 3e e1 2a a8 3d 65 42 2c be
       -0.018363517 0.14288597 0.082113035 -0.16822203
000280 4d 13 93 3d 7d 11 1a 3e f2 d3 5f 3e 93 12 84 3d
       0.07181416 0.15045734 0.21858194 0.06448855
000290 34 47 2a be f8 10 5f bc cf d1 56 bd f0 d5 7d be
       -0.16628724 -0.0136148855 -0.052446183 -0.24788642
0002a0 e0 5f ae bd 57 6e b1 3d 93 2b 86 bd 47 06 d8 bb
       -0.085143805 0.08663624 -0.0655128 -0.006592545
0002b0 89 f3 07 3d c4 d0 3f be 47 d0 90 bd 0d b0 10 be
       0.033191238 -0.18731982 -0.07070976 -0.14129658
0002c0 42 19 aa 3e 4c 44 14 be 5f b3 c4 bc e1 15 27 be
       0.33222395 -0.14479178 -0.024011312 -0.1631694
0002d0 60 6c 6a bd 0b c7 94 bd 4e 53 8c 3e 4d fb d1 3d
       -0.05723226 -0.07264527 0.27407306 0.1025301
0002e0 73 55 08 3e 7f ad 63 be 4c 46 bf bd 5f c0 56 3d
       0.13313846 -0.22234152 -0.0933958 0.052429553
0002f0 35 f7 f9 bb 31 c2 3e 3e 2e b2 1c 3e 29 c6 2c bd
       -0.0076283463 0.18628766 0.15302345 -0.042181168
000300 1b ae b1 3e 73 32 f3 3e 29 c4 36 3e 35 e1 91 3e
       0.34703144 0.47499427 0.17848267 0.28492132
000310 d8 55 2a 3e 56 1a 0e 3e fa 62 05 3e 27 93 39 3e
       0.1663431 0.13877234 0.13026038 0.1812254
000320 9d 3c de 3d 86 11 80 3e bd 67 90 3e dc 8f 2f 3e
       0.10851405 0.2501337 0.28204146 0.17144722
000330 50 f1 85 3e df d3 58 3e e2 7a d4 3e ac 7f 10 bd
       0.2616067 0.21174572 0.41500002 -0.035278007
000340 97 ed 02 3e 40 cb 01 3e a2 5b fd 3d b5 8f 3e 3e
       0.12785946 0.1267519 0.12370993 0.18609507
000350 3e bd 7d 3e 51 f7 f2 3c a9 16 92 bd 08 db 2d 3e
       0.24779221 0.029658945 -0.07133228 0.16978085
000360 ba f9 94 3d c1 e2 c9 bc ba 55 1e 3d 0d 56 82 3d
       0.07274194 -0.024644258 0.038655974 0.06364069
000370 ce 4a 06 3e a2 d7 45 3d 74 d7 0f bd f7 0e 34 3e
       0.13114473 0.048301347 -0.03511758 0.17583834
000380 8c b3 b1 3e 94 b1 b1 bc 25 22 90 3d 8d db f6 3d
       0.34707296 -0.021691121 0.070377626 0.12053595
000390 3c 64 6e 3e 10 1e 70 3e 0e 9c a0 3e 31 7b 7a 3e
       0.23280424 0.23448968 0.3136906 0.24461056
0003a0 96 14 20 3e 76 db a1 3d 0f 56 c0 3d 0d 25 be 3d
       0.15632853 0.07903187 0.093914144 0.092844106
0003b0 66 db b2 ba bc 8d 8a 3e e9 cc 30 bd 0d 31 3d 3e
       -0.0013645708 0.2706126 -0.043164168 0.18475743
0003c0 9a f0 2b 3d b6 cc 1b 3e e3 8b c7 3d c1 64 13 3e
       0.041977502 0.1521481 0.09743478 0.14393903
0003d0 41 9c 5c 3e 6a 7b 1f 3f 03 eb db 3d f2 9c 55 3e
       0.21543981 0.6229769 0.10738184 0.20860651
0003e0 f5 95 11 3e 45 fb 8c 3e 4c 98 5b 3e 3e f6 d0 3e
       0.1421736 0.27535453 0.21444815 0.40812868
0003f0 af 14 cb 3d f5 09 63 3e f3 ca 5d 3e f6 82 8e 3d
       0.099160545 0.22171767 0.2165945 0.069585726
