trained_models/HCT116_intra_cell_line_model.pth (torch, 151491 bytes, 18 tensors)

lstm.weight_ih_l0 f4 [128, 9]
0	0xbdea474d	-0.11439381
1	0x3c954688	0.018222108
2	0xbc73e86f	-0.014886959
3	0xbced294f	-0.028950362
4	0xbe8e1746	-0.2775213
5	0x3e2ab671	0.16671158
6	0x3de1e083	0.1102915
7	0x3d88a4c6	0.06672053
8	0xbe1aa9e3	-0.15103869
9	0xbde92354	-0.113836914
10	0x3d442183	0.04788352
11	0xbcc1c512	-0.02365354
12	0x3df251d1	0.118320115
13	0xbce26def	-0.027640311
14	0x3e215b0e	0.15757391
15	0xbd39dddb	-0.045377593
16	0x3c00f286	0.007870322
17	0xbd8a7a75	-0.06761638
18	0x3e787898	0.24264753
19	0x3e9a511f	0.30140015
20	0xbcd8ab02	-0.02644873
21	0x3b21326e	0.0024596709
22	0x3ca1d69e	0.019755658
23	0xbe28ae28	-0.16472685
24	0x3e1e03df	0.15431164
25	0x3e32236f	0.1739633
26	0x3db62655	0.0889403
27	0x3e773e08	0.24144757
28	0xbe29bc9d	-0.16575857
29	0x3da55fb4	0.080748945
30	0x3d8c17c4	0.068404704
31	0x3de26b36	0.11055605
32	0xbd597f0e	-0.053099684
33	0x3ddfab94	0.10921398
34	0x3e18124b	0.14850728
35	0xbe3fc876	-0.18728814
36	0x3bcbc930	0.006219052
37	0xbc9a6954	-0.018849052
38	0xbd3278a1	-0.043572072
39	0xbe9c9b4c	-0.30587232
40	0xbb81331e	-0.003942861
41	0xbe7967b2	-0.24355963
42	0x3e583a8c	0.21116084
43	0xbd187f53	-0.0372308
44	0x3d6ad26d	0.057329584
45	0x3d96c294	0.073613316
46	0xbd4b5307	-0.049639728
47	0x3d1a30f9	0.03764436
48	0xbd33e521	-0.043919686
49	0xbd425340	-0.047442675
50	0xbe569998	-0.20957029
51	0xbe9f6653	-0.31132755
52	0x3df211e6	0.1181982
53	0xbcb8e213	-0.022568738
54	0x3e35184d	0.17685051
55	0x3e2b942f	0.16755746
56	0x3d53b5bc	0.051686987
57	0xbdd6c228	-0.10486251
58	0x3c27a613	0.010232466
59	0xbcd53b92	-0.026029382
60	0xbe27575f	-0.16341923
61	0x3e0fe46c	0.1405198
62	0xbc8e7599	-0.01739006
63	0x3ddd9d91	0.10821069
64	0xbdcd696f	-0.100298755
65	0xbd202918	-0.03910169
66	0x3db6f560	0.0893352
67	0x3c614cc7	0.013751215
68	0x3d8dc5a5	0.06922463
69	0xbe1fd8b5	-0.15610011
70	0x3daad43d	0.083412625
71	0xbda9b6be	-0.082868084
72	0x3db12d82	0.08651258
73	0x3cfbb58c	0.030726217
74	0x3d9a7dd7	0.07543533
75	0xbdca4b2d	-0.0987762
76	0x3d06b3cd	0.032886315
77	0xbe8d17f9	-0.27557352
78	0xbc5ab58d	-0.013348949
79	0x3d628ec6	0.05531194
80	0xbd2e4451	-0.04254562
81	0xbd20e6d1	-0.039282624
82	0x3c9d550e	0.019205596
83	0x3dd3dd2f	0.10344922
84	0x3e2274ac	0.1586482
85	0xbdad8f5c	-0.08474609
86	0xbe7b31f2	-0.24530771
87	0x3e1afb85	0.1513501
88	0x3d2be5ab	0.041967075
89	0x3e8f3b49	0.27974918
90	0x3d0418f1	0.03225035
91	0xbe53dde1	-0.20690109
92	0x3df67897	0.120347194
93	0x3d878f0c	0.06619081
94	0xbca1a1aa	-0.019730408
95	0xbe0a44f9	-0.13502873
96	0x3e4d5aad	0.20054121
97	0x3dbb2a94	0.091389805
98	0x39e5ebe7	0.00043854045
99	0xbd1e5063	-0.03865088
100	0x3e0854c0	0.1331358
101	0xbd97818b	-0.07397755
102	0x3d580d37	0.052746978
103	0x3e18af50	0.14910626
104	0xbe16f037	-0.14740072
105	0xbec8608b	-0.39136156
106	0x3e260dc8	0.16216195
107	0x3d3ac9c3	0.04560257
108	0x3db881a1	0.090091
109	0xbd44b09a	-0.048019983
110	0x3cd231d8	0.025658533
111	0x3d4cf6c2	0.050040014
112	0x3e261b6f	0.16221403
113	0xbe1289bd	-0.14310355
114	0x3e24af14	0.16082412
115	0x3e19e166	0.15027389
116	0x3e61ecdb	0.2206301
117	0xbe0c0ff6	-0.13677964
118	0xbd1b2865	-0.03788032
119	0xbe95c809	-0.29254177
120	0xbebbc37b	-0.36672577
121	0xbe9a7c35	-0.30172887
122	0x3e2c919c	0.1685242
123	0xbe40df74	-0.1883524
124	0x3ddae545	0.10688261
125	0xbe3a4642	-0.18190864
126	0xbe033654	-0.12813693
127	0xbdad9825	-0.08476285
128	0x3dcd7269	0.10031588
129	0x3e3725e0	0.17885542
130	0xbcb68c89	-0.02228381
131	0x3d81662c	0.06318316
132	0x3e73c4f6	0.23805603
133	0x3ac90608	0.001533688
134	0xbcaaf999	-0.02087097
135	0x3e4b9590	0.19881272
136	0x3e0fa7e1	0.14028884
137	0x3d586b85	0.052836914
138	0xbd87baa9	-0.066273995
139	0xbd81924e	-0.063267335
140	0xbe214fa5	-0.15753038
141	0xbcd3c3b4	-0.025850154
142	0xbc943614	-0.018092193
143	0xbd8268ab	-0.0636762
144	0x3e118ff9	0.14215077
145	0xbcb8eb79	-0.02257322
146	0x3d8b8a85	0.0681353
147	0x3e4138fb	0.18869393
148	0x3e52e2aa	0.20594278
149	0x3cbb794d	0.02288499
150	0x3a4dc763	0.00078498403
151	0x3e831394	0.25600874
152	0x3db11e9d	0.08648417
153	0xbdcba396	-0.09943311
154	0xbef5ff4c	-0.4804634
155	0xbdae66aa	-0.08515675
156	0xbe51d0ab	-0.20489757
157	0xbdcf8766	-0.10133247
158	0x3e0a0517	0.13478504
159	0xbe1b0732	-0.15139464
160	0xbe7d7e90	-0.24755311
161	0xbd68817f	-0.056764122
162	0xbc68ce91	-0.0142094055
163	0x3e588ff9	0.21148671
164	0xbd0ab2d5	-0.033861954
165	0x3cc72613	0.024310147
166	0xbdc654b1	-0.09684122
167	0xbdb23b7c	-0.08702752
168	0xbda413a5	-0.080115594
169	0xbdcd48b0	-0.1002363
170	0xbd9809b3	-0.07423725
171	0xbe253508	-0.16133511
172	0x3b109805	0.0022063267
173	0xbdcbbda3	-0.0994828
174	0x3d9d3e75	0.07677928
175	0xbd737c10	-0.059444487
176	0x3d9be1a8	0.076114
177	0x3d9104a4	0.07080963
178	0xbe8afe84	-0.27147305
179	0x3e9138ba	0.2836359
180	0xbd281e38	-0.041044444
181	0x3c35a89f	0.011087566
182	0xbe9ae6d6	-0.3025424
183	0xbdcf3e46	-0.101192996
184	0xbef86b34	-0.4851929
185	0x3e412dd9	0.18865146
186	0xbea7fc7e	-0.32809824
187	0xbf058766	-0.52159727
188	0xbe175e8a	-0.14782158
189	0xbe172233	-0.1475914
190	0xbb5d34cc	-0.0033753393
191	0xbd5e8308	-0.05432418
192	0xbd833dcb	-0.064082704
193	0xbd938986	-0.07203965
194	0xbc228e9c	-0.009921696
195	0xbe27e738	-0.16396797
196	0x3e545ff8	0.20739734
197	0x3e27a5b5	0.16371806
198	0x3e58d4b8	0.21174896
199	0xbeac329e	-0.33632368
200	0x3dbe3ce0	0.09288955
201	0xbe7a5d4e	-0.24449655
202	0x3e92cd67	0.28672335
203	0xbe8b0acd	-0.27156678
204	0x3ef0f71f	0.47063538
205	0x3d9b1973	0.075732134
206	0x3db41984	0.08793929
207	0xbc2be0d4	-0.010490615
208	0xbd9ea566	-0.07746391
209	0x3c111e9e	0.008857397
210	0xbd7e48d1	-0.062081162
211	0xbce8431e	-0.028352316
212	0xbe97336e	-0.29531425
213	0x3e1b051e	0.15138671
214	0x3e22b678	0.15889919
215	0x3e009246	0.12555799
216	0x3bd4de0a	0.0064961957
217	0xbd1e83fe	-0.038700096
218	0xbd8dc705	-0.069227256
219	0x3dfd458c	0.12366781
220	0xbe98761f	-0.2977762
221	0x3e513947	0.20432006
222	0xbdec4996	-0.11537473
223	0xbe7ddfe9	-0.24792446
224	0x3d76c583	0.060246956
225	0xbd82a173	-0.0637845
226	0xbcd5f04e	-0.026115563
227	0x3d67369f	0.056448575
228	0x3de7b614	0.113140255
229	0x3e3fbce3	0.18724398
230	0xbe458bbf	-0.1929159
231	0xbb8096ae	-0.0039242124
232	0x3e0bbac7	0.13645469
233	0x3df1e820	0.118118525
234	0xbe33ce48	-0.17559159
235	0xbde404dd	-0.1113374
236	0xbe1f55a3	-0.15560012
237	0x3e13db69	0.14439167
238	0x3ddd2b43	0.10799267
239	0x3d6a1d16	0.057156645
240	0xbe4e783f	-0.20163058
241	0xbd99f349	-0.07517106
242	0x3d72753e	0.059193842
243	0x3df23111	0.11825765
244	0xbd8cf0f5	-0.068818964
245	0x3d25a193	0.040437292
246	0xbd407e57	-0.046995487
247	0x3ddd81d8	0.10815781
248	0xbe69295d	-0.22769685
249	0x3e956c58	0.29184222
250	0x3e3f246a	0.18666235
251	0x3d46e702	0.04856015
252	0xbe6808a7	-0.2265955
253	0x3e25f90d	0.16208287
254	0xbd8d4c59	-0.06899328
255	0xbe0364a8	-0.12831366

lstm.weight_hh_l0 f4 [128, 32]
0	0xbe2afab0	-0.16697192
1	0xbe1cc500	-0.15309525
2	0xbde61922	-0.112352625
3	0xbe78ce7e	-0.2429752
4	0x3e6c6910	0.23086953
5	0xbd3c408e	-0.04596
6	0xbca84642	-0.020541314
7	0xbb9f53b3	-0.0048622726
8	0xbd451a0c	-0.048120543
9	0x3db8a603	0.09016039
10	0x3d593a9a	0.053034402
11	0xbddedc08	-0.108818114
12	0xbd7288a6	-0.05921235
13	0x3e6747c1	0.22585966
14	0x3c234e76	0.009967437
15	0x3dc123af	0.09430634
16	0xbe119046	-0.14215192
17	0xbd8fe36b	-0.070257984
18	0xbdddfa9d	-0.10838816
19	0xbe744894	-0.23855811
20	0x3e162907	0.14664088
21	0xbd6e7bf7	-0.05822369
22	0xbe8d6760	-0.2761793
23	0xbd4fa3f7	-0.05069348
24	0x3d145239	0.036211226
25	0x3e4d285d	0.20034929
26	0xbc819383	-0.01581741
27	0xbde01dfe	-0.109432206
28	0xbeab6497	-0.3347518
29	0x3eae6bee	0.3406672
30	0x3d4ac3b9	0.049503062
31	0x3c050dd0	0.008120969
32	0x3d0cf3de	0.034412257
33	0x3e1270ec	0.14300889
34	0xbcb667af	-0.022266237
35	0x3cc81f60	0.024429023
36	0x3e8318e5	0.2560493
37	0x3e4bc54d	0.19899483
38	0x3e0088f5	0.12552245
39	0x3d85b392	0.06528391
40	0xbd2a4529	-0.041569863
41	0x3d52444a	0.051334657
42	0xbd63c336	-0.05560609
43	0x3da2e0ca	0.07953031
44	0xbd28da24	-0.04122366
45	0xbe494959	-0.19656886
46	0x3d0e4d02	0.03474141
47	0x3b15837f	0.0022813973
48	0xbd498b05	-0.049204845
49	0x3e178d0d	0.147999
50	0x3e48f723	0.19625525
51	0x3ddd4e3c	0.10805938
52	0x3d170d6e	0.036878042
53	0xbe3602a1	-0.1777444
54	0x3c69812c	0.014251988
55	0xbe0fe9b2	-0.14053991
56	0xbdf57db6	-0.11986868
57	0xbe875c37	-0.26437542
58	0x3de234c6	0.11045222
59	0x3c75f329	0.015011587
60	0xbe255d58	-0.16148889
61	0x3d37c828	0.04486862
62	0x3e118fa5	0.14214952
63	0x3d7d3c04	0.061824813
64	0x3e19e6d5	0.15029462
65	0x3e035e3b	0.12828915
66	0xbd807056	-0.062714264
67	0xbea9cfc2	-0.3316632
68	0x3e43452c	0.19069356
69	0x3d88e6fb	0.06684681
70	0x3d1229f0	0.035684526
71	0x3e032479	0.12806882
72	0x3ddb0eff	0.1069622
73	0x3e1d04d0	0.15333867
74	0xbe34b54c	-0.17647284
75	0xbdf57f5e	-0.11987184
76	0xbe30dab7	-0.17270933
77	0xbe6b4332	-0.22974852
78	0x3ea7df7d	0.32787696
79	0x3e3513d5	0.17683347
80	0x3d9f71bf	0.07785367
81	0xbddc52a3	-0.10757949
82	0x3e3fec6f	0.18742536
83	0xbde4ce34	-0.111721426
84	0x3c3a17fd	0.011358258
85	0x3d806d45	0.062708415
86	0xbaa3057c	-0.0012437548
87	0xbe3c4c4c	-0.1838848
88	0xbdb76dae	-0.089564666
89	0xbe8636a5	-0.26213565
90	0xbcd8b5c4	-0.02645386
91	0xbe3111be	-0.17291924
92	0xbe00e7cf	-0.12588428
93	0xbc69da1e	-0.014273195
94	0x3e5593aa	0.2085711
95	0x3dcc19b0	0.09965837
96	0xbe47b22d	-0.19501562
97	0x3dbe1239	0.092808194
98	0x3d1032ce	0.0352047
99	0xbd44f01d	-0.048080552
100	0x3ead9899	0.33905485
101	0x3dde954f	0.10868322
102	0x3e1cea16	0.15323672
103	0x3d6122f3	0.05496497
104	0xbe061629	-0.13094391
105	0x3e691888	0.22763264
106	0xbd0d170e	-0.034445815
107	0xbcc0fdd2	-0.023558531
108	0x3e0700e7	0.13183938
109	0xbdc2e80d	-0.095169164
110	0x3d862440	0.06549883
111	0xbd864327	-0.06555777
112	0x3b42d0d0	0.0029726513
113	0xbc9c23ac	-0.019059978
114	0x3e29b4b2	0.16572836
115	0x3d26debe	0.040739767
116	0xb9a1e145	-0.00030876152
117	0x3e15bdb6	0.1462315
118	0x3da5016d	0.080569126
119	0xbc9ab910	-0.018887073
120	0x3d3d3ab4	0.04619856
121	0xbd9a84ce	-0.07544862
122	0xbcfaa103	-0.030594354
123	0xbe9187db	-0.28423962
124	0xbe221527	-0.15828381
125	0x3d296fdd	0.041366447
126	0x3e413d3c	0.18871015
127	0xbe0a83c9	-0.13526835
128	0xbd8e7906	-0.06956677
129	0xbe1af41f	-0.15132187
130	0xbcc24792	-0.023715768
131	0xbddf7a83	-0.10912039
132	0x3e311d25	0.17296274
133	0x3d62ea9e	0.05539953
134	0x3de2a07c	0.11065766
135	0xbde5c6d0	-0.11219561
136	0xbdac0a0c	-0.08400354
137	0x3dd151ca	0.10220678
138	0x3d83265c	0.06403801
139	0xbd4ce8c6	-0.050026678
140	0x3e2fc410	0.17164636
141	0xbcf1a62e	-0.029498186
142	0x3d713f1a	0.05889807
143	0x3e648227	0.22315274
144	0xbe133fbb	-0.1437978
145	0xbd292890	-0.04129845
146	0x3eaa38fe	0.33246607
147	0xbe3c762d	-0.18404455
148	0x3cbd3bb6	0.023099761
149	0x3d115b32	0.03548736
150	0x3e1c11e2	0.15241197
151	0x3d383c3b	0.044979315
152	0xbd56cd72	-0.05244202
153	0xbb9bc5ed	-0.004753819
154	0xbd9878a1	-0.07444883
155	0xbe248ec3	-0.16070084
156	0xbdc7b882	-0.09751989
157	0xbc0ecab0	-0.008715317
158	0x3d0b2c88	0.033978015
159	0xbde23c2b	-0.110466324
160	0x3d56aac8	0.052408963
161	0x3d8d19ea	0.06889708
162	0xbdc116c5	-0.09428171
163	0xbdaf6759	-0.08564634
164	0x3d3b79ae	0.04577034
165	0x3e0023b4	0.1251362
166	0xbc94268e	-0.01808479
167	0xbe761a05	-0.24033363
168	0xbe1a7ef8	-0.15087497
169	0x3dbcd841	0.09220935
170	0x3c9ab736	0.01888619
171	0x3d459bd7	0.048244324
172	0xbe1d6621	-0.1537099
173	0xbd886e36	-0.06661646
174	0xbdf76915	-0.1208059
175	0xbe1a6071	-0.15075852
176	0x3d8a7f98	0.06762618
177	0xbe88ecf6	-0.26743287
178	0x3d60634e	0.054782204
179	0x3d68a36f	0.056796487
180	0xbdece213	-0.11566558
181	0x3ded47a8	0.11585933
182	0xbe2bbcae	-0.16771194
183	0x3da77fa8	0.08178645
184	0x3e42d882	0.19027904
185	0xbdcedb9c	-0.10100481
186	0xbe5f2bc7	-0.21794043
187	0x3c18209e	0.00928512
188	0xbdaabcd8	-0.083368
189	0x3e67d22e	0.22638771
190	0xbda1002e	-0.078613624
191	0x397bb93a	0.00024006228
192	0xbcfdcc0e	-0.03098109
193	0x3da4f80a	0.08055122
194	0xbe8e104c	-0.2774681
195	0xbeb3ff9f	-0.3515596
196	0x3e570fdd	0.21002145
197	0x3e30eef3	0.17278652
198	0x3e4ff21b	0.203072
199	0x3cc318f0	0.023815602
200	0xbd315ea5	-0.04330315
201	0x3e5deae0	0.21671629
202	0xbc870d86	-0.01648594
203	0xbe2dfcdf	-0.16990994
204	0xbec64968	-0.3872788
205	0xbd6e54c8	-0.058186322
206	0x3e838d91	0.25693944
207	0x3df76b45	0.12081007
208	0xbe3a9222	-0.18219808
209	0x3d7d827f	0.06189203
210	0xbc6849ef	-0.014177783
211	0x3ed1e896	0.4099776
212	0x3e818f44	0.25304615
213	0x3e029f4e	0.12756082
214	0xbdb12688	-0.086499274
215	0x3d9074c2	0.0705352
216	0x3e18a654	0.14907199
217	0xbe4dc9c6	-0.20096502
218	0x3d173dd9	0.036924217
219	0xbe3cd524	-0.18440682
220	0xbe0d6372	-0.13807467
221	0x3d5a1fc4	0.05325295
222	0x3e33433c	0.17506117
223	0x3dc6bc29	0.097038575
224	0x3e003636	0.1252068
225	0x3cbc1577	0.022959454
226	0xbda75612	-0.081707135
227	0x3cc94fa7	0.024574114
228	0x3e569d11	0.20958354
229	0x3e292b6c	0.1652047
230	0xbc09025d	-0.00836238
231	0x3e56032e	0.2089965
232	0xbe2e2c0a	-0.17008987
233	0x3da080d2	0.078370705
234	0xbe976e57	-0.2957637
235	0x3e344054	0.17602664
236	0x3cbbf3c0	0.022943377
237	0xbb9de339	-0.004818347
238	0x3db95b0b	0.09050568
239	0xbe19271a	-0.14956322
240	0xbe91ad12	-0.28452355
241	0x3e28c9e5	0.16483267
242	0xbd0c74ca	-0.034291066
243	0x3e8bd5a0	0.2731142
244	0xbe80521d	-0.25062647
245	0x3d3e688a	0.046486415
246	0x3d81d79b	0.063399516
247	0xbcbaa964	-0.02278585
248	0xbe0004c6	-0.12501821
249	0xbe2fd11c	-0.17169613
250	0xbd2e826e	-0.042604856
251	0xbe92f2aa	-0.28700763
252	0xbe25b372	-0.16181734
253	0xbe865060	-0.26233196
254	0x3e644928	0.22293532
255	0xbd13bc29	-0.036068115

lstm.bias_ih_l0 f4 [128]
0	0x3d12c220	0.035829663
1	0x3ec9c29a	0.39406282
2	0x3ecbcbb2	0.39803845
3	0x3ea0135b	0.31264767
4	0x3e0c4603	0.13698582
5	0x3c9fe84e	0.019519951
6	0x3ed674df	0.4188604
7	0x3eb37e6a	0.35057384
8	0xbc5a7bdc	-0.013335194
9	0x3dea6b75	0.11446277
10	0x3e5c3594	0.21504813
11	0x3e6a0d98	0.22856748
12	0x3e66004b	0.2246105
13	0x3e35d479	0.17756833
14	0x3ecd9e12	0.4015966
15	0x3d518ca6	0.051159523
16	0x3e24bd28	0.16087782
17	0x3c9781dd	0.01849454
18	0x3d3c2a69	0.045938883
19	0x3da86315	0.082220234
20	0x3dfd8386	0.12378602
21	0x3e16b0d0	0.14715886
22	0x3de0c7bd	0.10975597
23	0xbda7faf1	-0.0820216
24	0x3d12efff	0.03587341
25	0x3ed53246	0.41639918
26	0x3ce79a47	0.028271807
27	0x3cc9fbaa	0.024656136
28	0x3dcbb7e8	0.09947187
29	0x3e22cf06	0.15899286
30	0xbd6fde37	-0.05856153
31	0x3df58706	0.11988644
32	0xbcc5fba1	-0.024167838
33	0x3d69fa46	0.057123445
34	0x3e944d43	0.28965196
35	0x3e7a5e85	0.24450119
36	0x3e84b63f	0.25920293
37	0xbde1a8ae	-0.11018501
38	0x3e35964f	0.1773312
39	0x3e29298c	0.16519755
40	0xbb7a025b	-0.0038148377
41	0x3e3ffe2e	0.18749306
42	0x3e7706a5	0.24123628
43	0x3d4356ea	0.04769031
44	0x3df55e42	0.11980869
45	0x3d3c4d54	0.045972183
46	0x3db29bff	0.0872116
47	0x3daa0351	0.08301414
48	0x3bf146d2	0.007363179
49	0x3df8d935	0.12150804
50	0x3b57875a	0.0032887072
51	0x3e26c6e4	0.16286808
52	0x3e1d33da	0.15351811
53	0xbd248174	-0.04016252
54	0x3e510f25	0.20415933
55	0x3e2742b8	0.16334045
56	0x3e30d09a	0.17267075
57	0xbd0f4783	-0.03498031
58	0x3e5702d1	0.20997168
59	0x3d6ccfb5	0.057815272
60	0x3d11bc61	0.035580043
61	0xbda4c0fe	-0.08044623
62	0x3d1be80e	0.0380631
63	0x3e339e08	0.17540753
64	0x3da9cc07	0.08290868
65	0x3e5f2420	0.21791124
66	0xbebd3f06	-0.36962146
67	0xbeb386df	-0.35063836
68	0x3e46fc77	0.19432245
69	0x3e60b572	0.21944216
70	0xbc77acc2	-0.015116872
71	0x3d95f5cc	0.07322273
72	0x3e2e8dc5	0.17046268
73	0x3eaf6f59	0.3426464
74	0xbdfcde50	-0.1234709
75	0xbe56c45b	-0.20973341
76	0xbe2f5b16	-0.1712459
77	0xbde704f7	-0.11280244
78	0x3e8280b2	0.25488812
79	0x3c463d0a	0.012099514
80	0xbe8182b6	-0.25295037
81	0x3d93561f	0.07194161
82	0x3df0038a	0.11719425
83	0x3d9a8f5d	0.075468756
84	0x3d284025	0.041076798
85	0x3e519745	0.20467861
86	0xbe3ca8a6	-0.1842371
87	0x3c5c60c8	0.013450809
88	0xbca1ab28	-0.019734934
89	0xbe3573ff	-0.1772003
90	0xbe053116	-0.13007006
91	0x3d6bf7e0	0.05760944
92	0xbceb976a	-0.028758723
93	0xbcf3d1bb	-0.029763093
94	0x3d88cb5b	0.06679412
95	0xbdb615b2	-0.08890857
96	0x3eaa6eba	0.33287603
97	0x3e93e0a4	0.28882325
98	0x3ed0f012	0.4080816
99	0x3e88f2bb	0.2674769
100	0x3d757f4f	0.059935864
101	0x3e200844	0.15628153
102	0x3ea6f1b1	0.3260627
103	0x3e652e14	0.22380859
104	0x3d20e651	0.039282147
105	0x3d92e398	0.07172316
106	0x3e300944	0.17191035
107	0x3e15d481	0.14631845
108	0x3e10e9ec	0.14151734
109	0x3e49d4e9	0.19710125
110	0x3e385f9d	0.18005224
111	0xbcc6c51a	-0.024263907
112	0x3d8a666a	0.06757815
113	0x3e9919eb	0.29902586
114	0x3e9f26e4	0.3108436
115	0x3bb627d3	0.0055589466
116	0x3bbbc175	0.005729849
117	0x3e05314e	0.1300709
118	0x3e46be88	0.1940862
119	0x3dd3bfd6	0.10339324
120	0x3e10edb0	0.1415317
121	0x3e1cd572	0.15315798
122	0x3da87944	0.082262546
123	0x3d169dcf	0.03677159
124	0x3e03b897	0.12863384
125	0x3f02bfac	0.5107372
126	0x3e91527d	0.28383246
127	0x3d88bc13	0.06676497

lstm.bias_hh_l0 f4 [128]
0	0x3e24684c	0.16055411
1	0x3ebea6eb	0.37236723
2	0x3f041c9d	0.5160616
3	0x3eadaa8a	0.33919173
4	0x3e8a6bd9	0.27035406
5	0x3e3761b6	0.17908368
6	0x3e8579ad	0.26069394
7	0x3ebff97e	0.37495035
8	0x3e66c778	0.22537029
9	0x3cfb7481	0.030695202
10	0x3ea02894	0.3128096
11	0x3e893890	0.26800966
12	0x3e95eda6	0.29282874
13	0x3de3304c	0.11093196
14	0x3e3cef0d	0.18450566
15	0x3e4c5f72	0.19958284
16	0x3e8ffb86	0.28121585
17	0xbc573985	-0.013136272
18	0x3e94e74b	0.29082713
19	0x3e601490	0.21882844
20	0x3eaba085	0.33520904
21	0x3df5a8fc	0.11995122
22	0x3d4f69a9	0.050637875
23	0x3e13efb5	0.1444691
24	0x3e5655f6	0.20931229
25	0x3eccf0d4	0.40027487
26	0xbb6a2acf	-0.0035731082
27	0x3dbb567c	0.09147355
28	0x3dfc4c0b	0.123191915
29	0x3e9f6519	0.3113182
30	0x3e2c7093	0.16839819
31	0x3e710105	0.23535545
32	0xbd2a1fe4	-0.04153432
33	0x3da41bd7	0.080131225
34	0x3e8f30d0	0.27966928
35	0x3e236ab2	0.1595867
36	0x3e73e17d	0.23816486
37	0x3e3ec186	0.18628511
38	0x3df788d2	0.12086643
39	0x3e265f36	0.16247258
40	0x3e18919b	0.14899294
41	0xbda5fc09	-0.081047125
42	0x3ccec64c	0.02524104
43	0x3e24e6af	0.16103624
44	0xb9bd1b30	-0.00036069145
45	0x3de04e18	0.10952395
46	0x3d27e1d0	0.040986836
47	0x3dacf96e	0.084460124
48	0x3d862f27	0.06551962
49	0x3d2a9aa4	0.041651383
50	0x3ddd72d8	0.1081292
51	0x3e6ed99a	0.23325196
52	0x3e052012	0.13000515
53	0x3d3775cd	0.044790078
54	0x3e435079	0.19073667
55	0x3d029d49	0.03188828
56	0x3e0a0a82	0.13480571
57	0x3e0fbdd2	0.14037254
58	0x3de5acc7	0.11214595
59	0x3ddb1f62	0.10699345
60	0x3dc32bc6	0.095298335
61	0x3cae9a24	0.021313734
62	0x3da10948	0.078630984
63	0x3e0945aa	0.13405481
64	0x38da7660	0.00010417099
65	0x3e047223	0.12934165
66	0xbe98ab81	-0.29818347
67	0xbe4afa0c	-0.19821948
68	0xbd9c8d9f	-0.076441996
69	0x3e1b0c60	0.1514144
70	0x3e2deb56	0.16984305
71	0xbda4684e	-0.08027707
72	0xbde0d908	-0.109788954
73	0x3eb8abb3	0.36068496
74	0xbe05c5c2	-0.1306372
75	0xbcfcf694	-0.030879296
76	0x3d265248	0.040605813
77	0xbe016536	-0.12636265
78	0x3dc376be	0.09544133
79	0xbd6d2f96	-0.05790671
80	0x3cfde938	0.030994996
81	0xbe3e0a1b	-0.18558542
82	0x3d8bd51a	0.06827755
83	0xbd4e8922	-0.05042375
84	0x3e89cddf	0.2691488
85	0x3e27c197	0.16382442
86	0x3ddd5d65	0.10808829
87	0xbe1c9aa1	-0.15293361
88	0x3d756553	0.059911083
89	0xbe85d840	-0.26141548
90	0x3e04ef56	0.12981924
91	0xbcc406f4	-0.023929097
92	0x3de350cf	0.110993974
93	0x3dfc62b4	0.123235136
94	0xbe0fe323	-0.1405149
95	0x3df5de84	0.12005332
96	0x3dc65015	0.09683243
97	0x3e5aecb0	0.21379352
98	0x3e63549c	0.22200245
99	0x3e839c7a	0.2570532
100	0x3e576302	0.21033862
101	0x3eb1a1da	0.34693795
102	0x3eeae9aa	0.45881397
103	0x3e8ea5e7	0.27860948
104	0x3e2d7477	0.16938959
105	0xbcbf70d0	-0.023369223
106	0x3dfeed17	0.12447565
107	0x3db29316	0.08719461
108	0x3e808899	0.25104216
109	0x3e178e4b	0.14800374
110	0x3ea8afe5	0.32946697
111	0x3b8245aa	0.0039755898
112	0x3cadcb1a	0.02121501
113	0x3e4e2876	0.20132622
114	0x3e9a5ea3	0.30150327
115	0x3e80599e	0.25068372
116	0x3e97f726	0.29680747
117	0xbd055efc	-0.032561287
118	0x3eadc879	0.3394201
119	0x3e3b2148	0.18274415
120	0x3deab68b	0.114605986
121	0x3e6e5c2c	0.23277348
122	0x3e5cceb5	0.21563227
123	0x3e55e514	0.20888168
124	0xbcaedbe0	-0.021345079
125	0x3ede3152	0.43397003
126	0x3e9c25ce	0.30497593
127	0x3e257755	0.16158803

lstm.weight_ih_l0_reverse f4 [128, 9]
0	0xbdb3ad6e	-0.087733135
1	0x3e874412	0.2641912
2	0xbe49f4d5	-0.19722302
3	0xbe2b7129	-0.16742386
4	0x3d8759e0	0.06608939
5	0xbc1e592c	-0.009664815
6	0xbe3e0682	-0.1855717
7	0xbe4cb5f7	-0.19991289
8	0xbe362aee	-0.17789814
9	0x3dbe6fad	0.09298644
10	0x3d61eff4	0.055160478
11	0xbe208649	-0.15676226
12	0xbd49729b	-0.049181562
13	0xbce501b4	-0.027954914
14	0xbe407891	-0.18795992
15	0x3da73206	0.08163838
16	0x3e3be4cc	0.18348998
17	0x3ee5766f	0.4481692
18	0xbe58a246	-0.21155652
19	0xbcbd64a7	-0.023119284
20	0xbe2af290	-0.16694093
21	0x3daf4508	0.085580885
22	0xbd94e370	-0.07269943
23	0x3e38f447	0.18061934
24	0xbe70e13e	-0.23523423
25	0xbdd98da5	-0.1062272
26	0x3e2ecc65	0.17070158
27	0x3d96ed3e	0.07369469
28	0x3e6949c5	0.22782047
29	0x3e15e425	0.14637811
30	0x3db1b872	0.08677758
31	0x3e9acb71	0.30233338
32	0xbe625ab3	-0.22104912
33	0x3e84870d	0.25884286
34	0x3e1fc0a9	0.15600838
35	0xbdf47b06	-0.11937527
36	0x3cee2672	0.029071067
37	0x3e5ea069	0.21740879
38	0x3d80067c	0.06251237
39	0xbcaa67fe	-0.02080154
40	0xbe0b0959	-0.13577785
41	0x3dce6249	0.1007734
42	0x3e0282ba	0.1274518
43	0xbddbad1d	-0.10726378
44	0xbe49070c	-0.19631594
45	0xbd188db0	-0.0372445
46	0xbe609db8	-0.21935165
47	0xbe0cb7dc	-0.13742012
48	0xbbeb2e87	-0.0071771774
49	0xbd60f866	-0.05492439
50	0xbe6a7078	-0.22894466
51	0x3e18037d	0.1484508
52	0x3de17705	0.11009029
53	0x3e774573	0.24147587
54	0xbd25fa30	-0.0405218
55	0xbe090318	-0.13380086
56	0x3e03cc58	0.1287092
57	0x3deb44db	0.114877425
58	0x3e808363	0.2510024
59	0x3e76852a	0.24074236
60	0x3eb8dce0	0.36106014
61	0x3eb4b4c2	0.35294157
62	0x3dd6528c	0.10464963
63	0xbe8b1b7d	-0.2716941
64	0x3cf1462c	0.029452406
65	0xbd905171	-0.07046784
66	0xbd732c6f	-0.059368547
67	0x3dabf2d4	0.08395925
68	0x3d4363ab	0.047702473
69	0xbe5d1254	-0.21589023
70	0xbd639d7f	-0.05557012
71	0xbd9845a3	-0.07435157
72	0xbdb13965	-0.08653525
73	0xbc5ff226	-0.0136685725
74	0xbce6d9b7	-0.028179986
75	0xbec5c233	-0.38624725
76	0x3d725871	0.059166376
77	0x3e2788fd	0.1636085
78	0xbea04ae1	-0.31307128
79	0xbd30648e	-0.043064646
80	0x3d9362d6	0.07196586
81	0xbe6a4017	-0.22876011
82	0x3dbf4812	0.09339918
83	0xbdd9cbe6	-0.10634594
84	0x3db86e75	0.09005443
85	0x3df06da6	0.11739664
86	0x3e7c897a	0.24661818
87	0x3c5f4689	0.013627657
88	0x3d911b8b	0.070853315
89	0xbf190482	-0.59772503
90	0xbd82adab	-0.06380781
91	0x3ea0484c	0.31305158
92	0x3dd7568d	0.10514555
93	0xbe108a16	-0.14115176
94	0x3da548bd	0.08070514
95	0xbe230176	-0.15918526
96	0xbb0785ec	-0.002067919
97	0x3d9cc2ec	0.07654366
98	0xbe53b230	-0.20673442
99	0xbe389bb1	-0.18028142
100	0xbe365472	-0.17805651
101	0xbe5af1d2	-0.2138131
102	0xbeeccbe6	-0.46249312
103	0x3cf375b9	0.02971922
104	0xbe8a6121	-0.27027228
105	0x3eaf490f	0.34235427
106	0xbe71cb54	-0.2361272
107	0x3e195b54	0.14976245
108	0x3d5d6907	0.05405524
109	0x3e9203dc	0.2851857
110	0x3c6cdf90	0.014457598
111	0xbd11609a	-0.035492517
112	0xbe213b13	-0.15745191
113	0x3de5a755	0.11213557
114	0xbe099c05	-0.13438423
115	0xbe13066e	-0.14357921
116	0x3d188b90	0.037242472
117	0xbe82101a	-0.2540291
118	0x3e815426	0.25259513
119	0xbe30c273	-0.17261676
120	0xbe8bf078	-0.273319
121	0xbdfe4804	-0.1241608
122	0x3e1b34b9	0.15156831
123	0xbe0865ac	-0.13320035
124	0x3d996475	0.07489864
125	0x3d114893	0.035469603
126	0xbd766243	-0.060152303
127	0xbe21f7e8	-0.15817225
128	0xbd828793	-0.06373515
129	0xbe2fa47f	-0.17152594
130	0xb8f68bd5	-0.0001175624
131	0xbdd5ead6	-0.10445182
132	0xbda4ff9b	-0.080565654
133	0x3ca17846	0.019710671
134	0xbe10dd6f	-0.1414697
135	0xbd6d4ed8	-0.05793652
136	0xbe031b20	-0.12803316
137	0x3d98fb68	0.07469827
138	0x3e0f6b82	0.14005855
139	0xbe7525d2	-0.23940209
140	0xbe26a9af	-0.16275667
141	0xbe3abf5b	-0.18237059
142	0xbe0a3403	-0.13496403
143	0xbe4e4d1b	-0.20146601
144	0x3d2f26fd	0.04276179
145	0x3e4eb21a	0.20185128
146	0xbdabdc1d	-0.08391593
147	0x3d992617	0.07477968
148	0xbea51a6e	-0.32246727
149	0x3e33a442	0.17543128
150	0xbe173d22	-0.14769414
151	0xbd396326	-0.04526057
152	0xbe396e5d	-0.18108507
153	0xbe97c560	-0.29642773
154	0xbc8f6c31	-0.017507644
155	0xbc9c012f	-0.019043533
156	0xbd6ffc21	-0.05859006
157	0x3daa7a4c	0.083241075
158	0xbe69ac1f	-0.22819565
159	0x3d9eb9a7	0.07750254
160	0x3e4db051	0.2008679
161	0xbd70bf88	-0.05877641
162	0x3e1e8356	0.15479788
163	0x3ea50f1f	0.322381
164	0xbe65a165	-0.22424848
165	0xbb9b82eb	-0.0047458312
166	0x3e0ec675	0.13942893
167	0xbdabab8f	-0.083823316
168	0x3c6616b8	0.0140435025
169	0xbde87c98	-0.11351889
170	0x3e353a5c	0.17698044
171	0xbe7b043a	-0.24513331
172	0x3cf96963	0.03044576
173	0x3e1d13c4	0.15339571
174	0xbe146769	-0.14492573
175	0x3d932e8d	0.07186613
176	0x3e923290	0.285542
177	0xbbd01cf4	-0.0063511077
178	0xbe18c239	-0.1491784
179	0xbe835f69	-0.2565873
180	0xbdcc24e6	-0.09967975
181	0x3de4a7fb	0.11164852
182	0xbd9cd002	-0.07656862
183	0xbc2769c0	-0.010218084
184	0x3d986c9c	0.074425906
185	0x3d8ca0c7	0.06866603
186	0xbe175868	-0.14779818
187	0x3e3de779	0.18545331
188	0x3db23a0b	0.08702477
189	0xbe049ed0	-0.12951207
190	0x3e1167ac	0.14199704
191	0x3d34c2bd	0.04413103
192	0x3e4517c6	0.1924735
193	0x3da1a6d5	0.07893149
194	0xbd75acde	-0.059979312
195	0xbde0c5c0	-0.10975218
196	0xbdcbd929	-0.099535294
197	0xbd5a437f	-0.053287026
198	0xbd3f3140	-0.046677828
199	0x3d9fabde	0.07796453
200	0xbd6a43a4	-0.057193413
201	0x3e26aab9	0.16276063
202	0xbea0743e	-0.31338686
203	0xbbc76276	-0.0060847355
204	0xbe076b03	-0.13224415
205	0xbd068d10	-0.03284937
206	0xbe94fe2e	-0.29100174
207	0xbe8e1f32	-0.27758175
208	0x3e42ec30	0.19035411
209	0xbe3d39f5	-0.1847914
210	0xbe7082cd	-0.23487397
211	0xbe884f45	-0.26622978
212	0x3df35517	0.11881464
213	0xbda342f0	-0.07971752
214	0xbdae835a	-0.08521147
215	0xbb3134d1	-0.0027039538
216	0xbb602955	-0.0034204323
217	0x3d4896d6	0.048971973
218	0x3d876536	0.06611101
219	0xbd90a704	-0.07063106
220	0x3bf000fd	0.0073243366
221	0xbc7945db	-0.015214409
222	0xbdce2aab	-0.10066732
223	0x3df10d7f	0.11770152
224	0x3e5e32d2	0.21699074
225	0x3e544d11	0.20732524
226	0x3d79ff54	0.061034516
227	0xbd9a3e75	-0.07531444
228	0x3db94187	0.090457015
229	0x3d840f6f	0.06448256
230	0xbe500715	-0.20315202
231	0x3e7375eb	0.23775451
232	0x3df9429e	0.12170909
233	0x3e60664d	0.21914025
234	0xbe85de18	-0.26146007
235	0xbd4ae68c	-0.049536273
236	0xbe23813e	-0.1596727
237	0xbdac1b59	-0.08403654
238	0xbc4c4eea	-0.012469986
239	0x3dbb08f7	0.09132569
240	0xbc956b92	-0.01823977
241	0xbe05390d	-0.13010044
242	0xbd24902c	-0.040176556
243	0x3c476152	0.012169199
244	0x3ec4d31f	0.38442323
245	0xbdd417ea	-0.10356124
246	0xbe17a9e3	-0.148109
247	0xbe9a7f85	-0.30175415
248	0x3d948ff9	0.07254023
249	0xbd54f5e6	-0.05199232
250	0xbd69e8c3	-0.057106744
251	0xbe970f80	-0.29504013
252	0xbe34ee9d	-0.17669149
253	0xbe4b79e1	-0.19870712
254	0x3cb38789	0.021915214
255	0xbc91e236	-0.017808061

lstm.weight_hh_l0_reverse f4 [128, 32]
0	0x3e038292	0.12842777
1	0x3d3a24f2	0.04544539
2	0xbcdb28dc	-0.026752882
3	0x3cb812ec	0.02246996
4	0x3bb18d13	0.0054184287
5	0xbdf7fb61	-0.121084936
6	0xbe147ca1	-0.14500667
7	0xbd864f93	-0.06558146
8	0x3a2f14af	0.00066788023
9	0xbe4231a2	-0.18964246
10	0x3e39b219	0.18134345
11	0xbd8e62b7	-0.06952422
12	0xbd6cfe23	-0.05785955
13	0x3c9f6246	0.01945604
14	0xbd3ad1fd	-0.045610417
15	0x3ddcd5dc	0.10782978
16	0xbdc06cc9	-0.09395749
17	0x3e0adff0	0.13561988
18	0xbe3b1dbd	-0.18273063
19	0x3e5589f9	0.20853414
20	0xbe138274	-0.14405233
21	0xbe228d4d	-0.15874214
22	0xbd3a5d40	-0.045499086
23	0xbd263cae	-0.040585212
24	0xbe1e928f	-0.15485595
25	0xbdee7042	-0.11642505
26	0xbe2880d5	-0.16455396
27	0x3e05ecd9	0.13078631
28	0xbe735dc2	-0.23766235
29	0x3d81d92a	0.06340249
30	0xbe1f2798	-0.15542448
31	0x3e139987	0.14414035
32	0xbdad4762	-0.08460881
33	0x3e69c3ed	0.22828646
34	0x3dfdcac9	0.12392194
35	0xbe177177	-0.14789377
36	0xbdca6bac	-0.09883818
37	0xbe549e8f	-0.2076361
38	0x3e0fdcf1	0.14049126
39	0xbd63e4f5	-0.055638272
40	0x3dbcb35e	0.09213899
41	0xbd669cd9	-0.056301925
42	0xbdd73b2e	-0.105093345
43	0xbb5aea0b	-0.003340366
44	0xbdd90cfe	-0.10598181
45	0x3c5d2e70	0.013499841
46	0x3d5543d3	0.052066635
47	0x3bb9a087	0.0056648883
48	0x3b6418a4	0.0034804726
49	0xbd50c481	-0.05096865
50	0xbe432b45	-0.19059475
51	0x3dcd7d14	0.100336224
52	0xbd3b215e	-0.04568612
53	0x3cf0828b	0.029359123
54	0xbdc4e6c5	-0.09614328
55	0xbe1e1de4	-0.1544109
56	0x3d114d56	0.035474144
57	0x3e2e1467	0.1699997
58	0x3dba674e	0.09101735
59	0x3dc7ae05	0.097499885
60	0xbe1c6eb5	-0.15276606
61	0x3e26f775	0.16305335
62	0xbddff835	-0.109360136
63	0x3dee0744	0.116224796
64	0xbe006613	-0.12538938
65	0x3e867697	0.26262352
66	0xbdb60853	-0.088883065
67	0xbdbe1cca	-0.09282835
68	0xbe8b0bc9	-0.2715743
69	0xbe4d9da8	-0.20079672
70	0x3cecc6d9	0.028903412
71	0x3e1d3676	0.15352806
72	0x3e478a50	0.19486356
73	0xbdc603da	-0.096687034
74	0x3deb96a8	0.11503345
75	0xbcb59395	-0.0221651
76	0x3df637df	0.12022375
77	0x3e27e220	0.16394854
78	0xbe7cf918	-0.24704397
79	0x3e0a29cc	0.13492507
80	0x3e280296	0.16407236
81	0xbe2055ac	-0.15657681
82	0x3e581e7c	0.21105379
83	0xbd13cc57	-0.036083546
84	0xbd8d4c17	-0.068992786
85	0xbdd97193	-0.10617366
86	0xbd25db9b	-0.040492635
87	0x3e0f0f25	0.13970621
88	0xbda96749	-0.08271653
89	0x3e58b637	0.2116326
90	0x3da77ccc	0.081781
91	0x3e4689bf	0.19388483
92	0x3e822922	0.25422007
93	0xbdb59ae3	-0.08867433
94	0xbe728cd2	-0.23686531
95	0x3e1e964d	0.15487023
96	0x3df9fe2a	0.12206681
97	0x3e49ab60	0.1969428
98	0x3e244320	0.16041231
99	0x3e28809d	0.16455312
100	0x3e76fd1f	0.24119996
101	0x3e332bdf	0.17497204
102	0xbd965693	-0.073407315
103	0xbe18477f	-0.14871024
104	0xbada020e	-0.0016632692
105	0xbd61f96b	-0.055169504
106	0xbe582796	-0.21108851
107	0xbd41c1dc	-0.04730402
108	0x3e0c92df	0.13727902
109	0x3c4865d3	0.012231308
110	0xbd81c5d8	-0.06336564
111	0xbd6d534b	-0.057940762
112	0x3e99cead	0.30040494
113	0x3d1b2d5a	0.037885047
114	0xbdbd375f	-0.09239077
115	0x3e609fae	0.21935913
116	0x3dae1bb9	0.085013814
117	0xbda25f6f	-0.07928359
118	0x3e0bcfa2	0.13653424
119	0xbe024ac4	-0.12723833
120	0x3e92864e	0.2861809
121	0x3e39d8df	0.18149136
122	0xbdd13e78	-0.10216993
123	0xbe7d9f3c	-0.24767774
124	0xbd31f14e	-0.043443017
125	0xbb7593de	-0.003747217
126	0x3db3bc08	0.087760985
127	0x3dd6ce61	0.104885824
128	0xbe0861ac	-0.13318509
129	0x3de86118	0.11346644
130	0xbe1489c1	-0.14505674
131	0x3e483fc0	0.19555569
132	0x3bad1d05	0.0052830004
133	0xbdc29ac7	-0.09502178
134	0xbd805c7b	-0.06267639
135	0xbd47e5cc	-0.048803136
136	0xbc792ca6	-0.015208399
137	0xbe594b2a	-0.21220079
138	0xbdafb9ca	-0.08580358
139	0xbea425aa	-0.32059985
140	0x3ae32fc8	0.0017332966
141	0x3e2d5dff	0.16930388
142	0xbe2e8344	-0.17042261
143	0xbe8a3443	-0.26992998
144	0x3d5ff84c	0.054680154
145	0xbe240dd5	-0.16020902
146	0xbc481d9c	-0.012214091
147	0x3e12568f	0.14290832
148	0x3dba4781	0.090956695
149	0x3d321448	0.043476373
150	0x3d7408d5	0.059578735
151	0xbe55322f	-0.20819925
152	0x3d421b78	0.047389477
153	0x3da596be	0.080853924
154	0xbdc5544b	-0.09635218
155	0xbd120768	-0.035651594
156	0x3e1e6bcc	0.15470809
157	0x3e27f727	0.16402875
158	0xbc451437	-0.012028745
159	0x3df0ff62	0.117674604
160	0xbd82474c	-0.06361255
161	0xbce4d578	-0.027933821
162	0x3d137ee0	0.03600967
163	0x3b85cdf5	0.00408339
164	0xbd44fd18	-0.04809293
165	0xbd839c74	-0.064263254
166	0x3e36c5aa	0.1784884
167	0xbd379c96	-0.044827066
168	0x3e377556	0.17915854
169	0xbe46239b	-0.1934952
170	0xbe77a09e	-0.24182364
171	0xbd4c1145	-0.049821157
172	0xbd4479ab	-0.047967594
173	0xbca192a4	-0.019723244
174	0x3de36fd9	0.111053176
175	0x3e1de715	0.15420182
176	0x3e2e4673	0.17019062
177	0x3dbed3b4	0.09317723
178	0xbc037e13	-0.008025664
179	0x3df2afd6	0.11849944
180	0x3e58d582	0.21175197
181	0xbd5b8ad5	-0.053599197
182	0x3dad3ffa	0.08459468
183	0xbd9f81ef	-0.07788455
184	0x3e177217	0.14789616
185	0xbdc814a5	-0.09769563
186	0x3e410a53	0.18851595
187	0x3c0acc10	0.008471504
188	0x3dbafbdb	0.09130069
189	0x3e55d2e4	0.2088123
190	0x3db2e270	0.08734596
191	0x3b55f854	0.0032649236
192	0x3e01d806	0.12680063
193	0x3e994ff0	0.299438
194	0x3db7e28f	0.089787595
195	0x3e7b5d40	0.24547291
196	0xbe301cef	-0.17198537
197	0x3e164915	0.14676316
198	0xbd2f8fd8	-0.04286179
199	0x3e3d8f53	0.18511705
200	0xbce5c934	-0.028050043
201	0xbe220b57	-0.15824638
202	0x3e017b5a	0.12644711
203	0xbd656ff4	-0.05601497
204	0xbf053812	-0.5203868
205	0xbe56ab75	-0.20963843
206	0xbe85c9ef	-0.26130626
207	0x3d111325	0.03541865
208	0xbe4947ca	-0.19656292
209	0x3e0068ff	0.12540053
210	0x3c07307f	0.008251308
211	0x3dbc3579	0.091898866
212	0x3d927e54	0.071530014
213	0x3dfa0283	0.1220751
214	0xbccee6e0	-0.025256574
215	0x3e2362bc	0.15955633
216	0x3e250783	0.16116147
217	0x3d6d3b46	0.057917856
218	0xbe5731b7	-0.21015058
219	0x3ca5137e	0.020150896
220	0x3cddd533	0.0270792
221	0xbb1bf589	-0.0023797473
222	0xbe3c4ff9	-0.18389882
223	0x3d59bcf8	0.05315873
224	0xbe005733	-0.12533264
225	0x3e342d92	0.17595509
226	0x3dcd9a70	0.10039222
227	0x3bc0eca4	0.0058875848
228	0xbe29db2b	-0.16587512
229	0xbe80d2da	-0.25160867
230	0xbcc5b717	-0.024135156
231	0x3bd7c663	0.006584929
232	0x3e68f7e2	0.2275081
233	0xbda2c34f	-0.079474084
234	0x3e245e70	0.1605165
235	0xbe285e09	-0.16442122
236	0xbb7d5862	-0.0038657417
237	0xbda6a55b	-0.08137008
238	0xbe0a4398	-0.13502347
239	0x3c92110c	0.017830394
240	0x3dc9ca11	0.09852994
241	0x3cbfcac4	0.023412116
242	0xbe50fc18	-0.20408666
243	0xbd692a26	-0.05692496
244	0xbe8c8b29	-0.2744992
245	0x3d931d5c	0.07183334
246	0xbe031906	-0.12802514
247	0x3e255a73	0.16147785
248	0xbe276816	-0.163483
249	0x3e230742	0.15920737
250	0x3cabef49	0.020988123
251	0xbe3054d4	-0.1721986
252	0xbdc9bb5a	-0.098501876
253	0x3c8b21e2	0.01698393
254	0xbd5a502d	-0.053299118
255	0x3de2e5b0	0.11078966

lstm.bias_ih_l0_reverse f4 [128]
0	0x3e09594b	0.13412969
1	0x3b9fd523	0.004877703
2	0x3e8e8a81	0.27840045
3	0x3e00c14e	0.1257374
4	0x3e91e735	0.2849671
5	0x39d86116	0.00041271065
6	0xbd5cffc1	-0.053954843
7	0x3e764a2b	0.2405173
8	0x3d0f4a06	0.034982704
9	0x3e5b263f	0.21401308
10	0x3e8da44f	0.2766442
11	0x3e6df1ce	0.23236772
12	0x3e6a74ee	0.22896168
13	0xbd82473b	-0.063612424
14	0x3d727407	0.059192684
15	0xbda142d6	-0.07874076
16	0x3e07f51e	0.13277099
17	0x3d7dc7e7	0.06195822
18	0x3ea0db63	0.3141738
19	0x3accffae	0.0015640163
20	0x3d184073	0.03717084
21	0x3e8faa4a	0.28059608
22	0x3d39e82a	0.045387425
23	0x3ec756c5	0.38933387
24	0x3e327cb8	0.17430389
25	0x3ec9b6d3	0.39397296
26	0x3e6a3974	0.22873479
27	0x3e7cb3fa	0.2467803
28	0x3d961d19	0.07329769
29	0x3e01e1ed	0.1268384
30	0x3e7ac280	0.24488258
31	0x3d870aa7	0.06593829
32	0x3de0ed7a	0.10982795
33	0xbd094738	-0.033515185
34	0x3e047b6b	0.12937705
35	0x3dcbdeff	0.099546425
36	0xbc0665d2	-0.008202987
37	0x3db43205	0.08798603
38	0x3e27888c	0.16360682
39	0xbe0be5d5	-0.13661893
40	0x3db697cf	0.08915674
41	0x3decf18a	0.115695074
42	0x3e469254	0.19391757
43	0xbd02af7c	-0.031905636
44	0x3e4450f8	0.19171512
45	0x3e8d844f	0.27640006
46	0x3e23dd9e	0.16002509
47	0xbdc848e3	-0.09779527
48	0xbbdd9e07	-0.006763223
49	0x3c4956f4	0.012288798
50	0xbb477c02	-0.0030438905
51	0x3d831180	0.06399822
52	0x3da0637a	0.07831474
53	0x3e308db6	0.17241558
54	0xbd168a62	-0.036753066
55	0xbb2a7276	-0.0026008165
56	0x3d0f53eb	0.03499214
57	0xbbeee960	-0.007291004
58	0x3e8a2c75	0.26987043
59	0x3e1bca7b	0.15213959
60	0x3d4ba15e	0.04971444
61	0x3e27801b	0.16357462
62	0x3d59521c	0.05305682
63	0x3dbde06b	0.0927132
64	0xbe7ca907	-0.24673854
65	0x3e28065f	0.1640868
66	0x3e5aa0e6	0.2135044
67	0x3936a56e	0.000174185
68	0x3a10da9a	0.0005525738
69	0xbd23152c	-0.039815113
70	0x3dba0178	0.090823114
71	0x3e8b14b7	0.27164242
72	0xbd635217	-0.05549821
73	0xbe05233c	-0.13001722
74	0x3e0a406e	0.1350114
75	0xbdfb9a7e	-0.122853264
76	0xbe49070b	-0.19631593
77	0x3d6ae60d	0.0573483
78	0xbe513d3f	-0.2043352
79	0x3e68fb46	0.22752103
80	0x3d02e541	0.031956915
81	0x3df7566e	0.12077032
82	0x3d607809	0.054801974
83	0xbe64950a	-0.22322479
84	0xbdbfd893	-0.0936748
85	0xbddd5c6b	-0.10808643
86	0xbbf19dfc	-0.0073735695
87	0x3e8f757f	0.2801933
88	0xbd9880b6	-0.07446425
89	0x3ed5c6cc	0.41753232
90	0xbe1a9d7f	-0.15099142
91	0x3db55b39	0.0885529
92	0x3e3e48dd	0.18582483
93	0xbd056666	-0.032568358
94	0xbe2bbe7f	-0.16771887
95	0x3ea90c89	0.33017376
96	0x3d11c6e8	0.035590082
97	0x3e8e4434	0.2778641
98	0x3df9ebe1	0.122031935
99	0x3e1cb21c	0.15302318
100	0x3e3af415	0.18257172
101	0x3dbb5a0f	0.09148037
102	0xbc13d2ce	-0.009022428
103	0xbd44547a	-0.047932126
104	0x3e078e4a	0.13237873
105	0x3e4d6558	0.20058191
106	0x3eae7a26	0.34077567
107	0x3e0c3744	0.13692957
108	0x3dc2c619	0.095104404
109	0x3e18ae2c	0.14910191
110	0x3e512ff1	0.20428444
111	0xbc134f3e	-0.008991061
112	0x3dbcb0d7	0.09213417
113	0x3e5200b2	0.20508078
114	0x3e0540b3	0.13012962
115	0x3cbdc066	0.023163032
116	0x3e828c54	0.25497687
117	0x3c0dc6c6	0.008653348
118	0x3e866919	0.26252058
119	0x3de9e714	0.11421028
120	0x3ea606b2	0.32426983
121	0x3e847d09	0.25876644
122	0x3d6d75d8	0.057973713
123	0x3e50b3b1	0.20381047
124	0x3e467c97	0.19383465
125	0x3e07abe1	0.1324916
126	0x3e111716	0.14168963
127	0x3e269c2b	0.16270511

lstm.bias_hh_l0_reverse f4 [128]
0	0x3e12003a	0.14257899
1	0x3c8e19f9	0.01734637
2	0x3ece90cc	0.40344846
3	0x3d29dfcc	0.041473195
4	0x3e969368	0.29409337
5	0x3e50adbe	0.20378777
6	0xbc5cd077	-0.013477436
7	0xbd5fe365	-0.05466022
8	0x3d6fc03d	0.058532942
9	0x3de26e8b	0.11056241
10	0x3e304de9	0.1721722
11	0x3cb249cd	0.021763707
12	0x3db97d31	0.090570815
13	0x3e8a53a6	0.27016944
14	0x3db7db7c	0.0897741
15	0x3defa004	0.117004424
16	0x3d4b93fc	0.049701676
17	0x3e88a7f9	0.26690653
18	0x3dcca2d3	0.09991994
19	0x3bc67ac6	0.006057116
20	0x3e6d3428	0.23164427
21	0x3e943db8	0.28953338
22	0x3e03e3bb	0.12879841
23	0x3de2aaff	0.11067771
24	0x3e126bca	0.14298931
25	0x3e1bb75d	0.15206666
26	0x3e72010a	0.23633209
27	0x3db0d487	0.086342864
28	0x3e0e1035	0.1387337
29	0x3ebde989	0.37092236
30	0x3e9a900f	0.30188033
31	0x3ddcda01	0.107837684
32	0x3c5154d6	0.012776574
33	0xbdc152ad	-0.09439597
34	0xbc26f45e	-0.010190098
35	0x3cff331e	0.031152304
36	0x3e588d92	0.21147755
37	0x3d60e676	0.054907285
38	0x3e4b8ad9	0.19877185
39	0x3e256728	0.16152632
40	0x3d4fb4d6	0.050709568
41	0x3d45b522	0.048268445
42	0x3e490a26	0.19632778
43	0x3e536b78	0.20646465
44	0x3e4eddd8	0.20201814
45	0x3df6d1cc	0.12051734
46	0x3daecbb8	0.0853495
47	0x3e4534f8	0.19258487
48	0x3e1eb735	0.15499575
49	0x3e0fa2cc	0.14026946
50	0xbdffc8de	-0.12489484
51	0x3e3331af	0.17499422
52	0xbd4560c7	-0.048187997
53	0xbd58c260	-0.052919745
54	0x3e14ff58	0.14550531
55	0x3e336a61	0.17521049
56	0x3e1bdce1	0.15220977
57	0x3e84f9c3	0.25971803
58	0x3e5c15d3	0.214927
59	0x3db10a13	0.086445
60	0x3e762fd6	0.24041685
61	0xbd6dcf1a	-0.058058836
62	0xbc024416	-0.007950803
63	0x3e089ac6	0.13340291
64	0xbe1d755c	-0.153768
65	0x3e4d93f4	0.20075971
66	0x3e1ae438	0.15126121
67	0x3e3845b5	0.17995341
68	0xbe5d8f43	-0.21636681
69	0xbd09b4cb	-0.033619683
70	0xbdba9f36	-0.09112398
71	0xbd06da9a	-0.03292332
72	0x3e07160e	0.13192007
73	0x3e16cab2	0.1472576
74	0xbd054366	-0.03253498
75	0xbe2ffcea	-0.17186323
76	0x3daf6672	0.08564462
77	0x3e1274c9	0.14302363
78	0xbe2de380	-0.16981316
79	0xbcfe6e1a	-0.03105836
80	0x3c5fcc44	0.013659541
81	0xbdf9e9d6	-0.12202804
82	0x3db93029	0.09042389
83	0xbd924243	-0.07141545
84	0x3c23f361	0.0100067565
85	0xbe3137d5	-0.17306454
86	0xbe097ac2	-0.13425735
87	0x3e00aa3d	0.12564941
88	0x3e4173d0	0.18891835
89	0x3e73dbcb	0.23814313
90	0xbe81b9b0	-0.2533698
91	0xbcedab32	-0.029012296
92	0x3e152ebe	0.14568612
93	0x3a16c481	0.0005751327
94	0xbe2cf84d	-0.16891594
95	0x3e4c37d6	0.19943175
96	0x3e7c3342	0.24628928
97	0x3db6aec2	0.08920051
98	0x3d6fc152	0.058533974
99	0x3eb04bae	0.3443274
100	0x3e773799	0.24142303
101	0x3d995570	0.07486999
102	0x3e3a12e5	0.1817127
103	0x3ddb9721	0.10722185
104	0xbc637807	-0.013883597
105	0x3e7814ad	0.24226637
106	0x3e8098f1	0.25116685
107	0x3d9ad1a0	0.07559514
108	0x3e819256	0.25306958
109	0x3d918b03	0.071065925
110	0x3e011dd6	0.12609038
111	0x3e9d98a1	0.3078051
112	0x3dbaa565	0.09113578
113	0x3e74f03d	0.23919769
114	0x3dae4201	0.08508683
115	0x3d89fee5	0.067380704
116	0x3e564cd1	0.2092774
117	0x3e32ee61	0.17473747
118	0xbaf4b109	-0.0018668483
119	0x3e63d654	0.22249728
120	0x3d76a36d	0.06021445
121	0x3eeb6be1	0.45980743
122	0x3e9f7f4d	0.3115181
123	0x3e869d5b	0.26291928
124	0x3e943273	0.2894474
125	0x3d36c264	0.04461898
126	0x3e287b51	0.16453291
127	0x3d5dd55e	0.05415856

lstm.weight_ih_l1 f4 [128, 64]
0	0x3dc18a5d	0.09450219
1	0xbdc2152d	-0.09476695
2	0xbd9fb7a0	-0.077986956
3	0x3d258bdf	0.040416595
4	0x3e387222	0.18012288
5	0x3da8eb05	0.082479514
6	0x3db7e693	0.089795254
7	0x3e9ac55c	0.30228698
8	0xbd869b8f	-0.06572639
9	0x3e8cfd02	0.2753678
10	0xbe7f330e	-0.2492182
11	0xbde3cf5f	-0.11123537
12	0x3d934863	0.07191541
13	0xbdb9c372	-0.09070481
14	0x3e059bda	0.13047734
15	0x3a080e5c	0.0005190128
16	0xbea925a9	-0.33036545
17	0x3df77cfb	0.12084385
18	0xbdab0430	-0.08350408
19	0x3c8fbde7	0.017546607
20	0xbd8d9fa4	-0.06915215
21	0xbca9d305	-0.020730505
22	0x3ed70bf6	0.42001313
23	0x3de2a0ee	0.11065851
24	0xbe43547b	-0.19075195
25	0xbd7693ac	-0.060199425
26	0x3de969ba	0.11397119
27	0xbdf7c0c6	-0.120973155
28	0x3da541cc	0.080691904
29	0x3e0de6c4	0.13857561
30	0x3d3d8561	0.04626978
31	0x3d8c4c2d	0.06850467
32	0x3d23fe59	0.040037487
33	0x3efa70b7	0.4891412
34	0x3ebe5467	0.3717377
35	0x3e5262c7	0.20545493
36	0xbed085be	-0.40727037
37	0xbc40368a	-0.011731753
38	0xbd221c17	-0.03957757
39	0x3e62a5ef	0.22133611
40	0xbc84bc83	-0.01620317
41	0xbeada24b	-0.33912882
42	0x3e72fa04	0.23728186
43	0xbe6300e9	-0.22168316
44	0xbe938f26	-0.2882015
45	0xbe5fd4fd	-0.21858592
46	0xbe1593ee	-0.14607212
47	0x3dbb6c10	0.09151471
48	0x3d44cd89	0.048047576
49	0xbd214a66	-0.039377593
50	0x3ed464ba	0.41483098
51	0x3ebea113	0.37232265
52	0xbd93cf2b	-0.072172485
53	0x3e433d73	0.1906641
54	0x3df5627a	0.119816735
55	0xbc15bc6d	-0.0091391625
56	0x3eb644f3	0.3559948
57	0x3e9b1103	0.30286416
58	0xbef51a0e	-0.4787144
59	0xbe39ce20	-0.18145037
60	0x3f00064d	0.50009614
61	0x3d65724f	0.056017216
62	0xbe0ea223	-0.13929038
63	0x3ed996de	0.42497915
64	0x3c1bba32	0.009504842
65	0xbe5faa13	-0.21842222
66	0xbeb4bd22	-0.35300547
67	0xbe887264	-0.26649773
68	0xbdf132e0	-0.11777282
69	0xbc654622	-0.013993772
70	0x3e55aad5	0.20865948
71	0xbdf1c6f0	-0.118055224
72	0x3e548ceb	0.20756881
73	0xbd080cfa	-0.0332155
74	0x3df3f9b8	0.119128644
75	0x3db61dbc	0.0889239
76	0xbeb94aa5	-0.36189762
77	0xbe3ef4fb	-0.1864814
78	0x3dfc2ab8	0.123128355
79	0x3dac1a09	0.08403403
80	0x3e0e33ab	0.13886897
81	0x3de1099b	0.1098816
82	0xbe717be5	-0.23582418
83	0xbe568561	-0.20949318
84	0xbd9a095d	-0.07521317
85	0xbdf7b688	-0.12095362
86	0xbeaec0fa	-0.34131604
87	0x3e00e93a	0.12588969
88	0xbd58eb16	-0.05295857
89	0xbcdd6b5c	-0.027028732
90	0xbd49b6a9	-0.049246464
91	0x3dbed606	0.093181655
92	0xbe314ab1	-0.17313649
93	0x3e1d05fb	0.15334313
94	0x3e05c117	0.13061939
95	0xbbc33a8c	-0.005957907
96	0x3e4135fa	0.18868247
97	0xbe4112b1	-0.18854786
98	0xbe746577	-0.23866831
99	0x3e4f17d3	0.20223932
100	0x3dd302d3	0.10303273
101	0x3ddf3f6c	0.10900769
102	0x3d0c1268	0.03419724
103	0xbcd275dc	-0.025690965
104	0xbdb47e13	-0.08813109
105	0x3ce5401b	0.02798467
106	0x3e26b68b	0.16280572
107	0xbf3250c9	-0.6965452
108	0x3e19e804	0.15029913
109	0x3dff81e4	0.124759465
110	0x3d83d941	0.06437922
111	0xbe7b9110	-0.24567056
112	0x3e29afc7	0.1657096
113	0xbcc6820c	-0.024231933
114	0xbda8282a	-0.08210786
115	0x3ed750e8	0.42053914
116	0xbe66afe4	-0.22528034
117	0xbc222539	-0.00989657
118	0x3e466b32	0.1937683
119	0xbcf56933	-0.02995739
120	0x3ce639a2	0.028103653
121	0xbc5766bf	-0.013147055
122	0x3dd72f24	0.10507038
123	0xbdfbdbe1	-0.12297798
124	0xbe0693cb	-0.13142316
125	0xbcbcc1dc	-0.023041658
126	0xbe198b04	-0.14994437
127	0xbdac8efb	-0.08425709
128	0xbde91011	-0.113800175
129	0xbe7eb23b	-0.24872677
130	0xbe58ab40	-0.21159077
131	0xbe1d7346	-0.15376005
132	0x3e28192d	0.16415854
133	0xbcd9e6b3	-0.026599264
134	0x3e024d83	0.12724881
135	0x3f01622e	0.50540435
136	0xbe8b0e5f	-0.27159402
137	0x3d68e32c	0.056857273
138	0x3cdc8bf0	0.026922196
139	0x3da23a7e	0.07921313
140	0x3d2cf090	0.042221606
141	0x3d17df21	0.037078027
142	0x3d09ebad	0.033672024
143	0x3d63d68f	0.05562454
144	0xbe631a8d	-0.22178097
145	0xbdf023d4	-0.11725584
146	0x3d24ec8f	0.040264662
147	0x3e6b9933	0.2300766
148	0x3d26c876	0.04071852
149	0x3e95f9ee	0.29292244
150	0xbde1fa11	-0.110340245
151	0xbd0a7572	-0.03380341
152	0x3d1fac0c	0.038982436
153	0xbe810a19	-0.25203016
154	0x3e57b506	0.21065149
155	0xbead17cd	-0.3380722
156	0xbdc62f4c	-0.0967699
157	0xbe688bd0	-0.22709584
158	0x3e607d17	0.21922718
159	0x3de33555	0.11094157
160	0xbc7b5726	-0.015340602
161	0x3e9ca927	0.30597803
162	0x3e2912eb	0.16511123
163	0x3e35033e	0.17677018
164	0xbe3e5ee7	-0.1859089
165	0xbdb000ab	-0.085938774
166	0xbdc58b96	-0.096457645
167	0x3e1bf2ca	0.15229335
168	0xbd9d8906	-0.07692151
169	0xbb612158	-0.003435215
170	0xbddd1693	-0.10795321
171	0xbe215843	-0.15756325
172	0xbdb53a43	-0.08849003
173	0x3de21fc3	0.11041214
174	0x3d4c3bed	0.049861837
175	0xbda66e00	-0.081264496
176	0xbd44c438	-0.04803869
177	0x3d042863	0.03226508
178	0x3e909d87	0.28245184
179	0xbdf60906	-0.1201344
180	0x3cbea5f9	0.023272501
181	0xbcfdcca3	-0.030981367
182	0x3ebcd053	0.3687769
183	0xbe03a41a	-0.12855569
184	0x3f08c145	0.53419906
185	0x3e2c90f3	0.16852169
186	0xbec080cc	-0.37598264
187	0xbe09ec2d	-0.13469
188	0x3f03669c	0.51328444
189	0x3e0d91dd	0.13825174
190	0xbe5f3b95	-0.21800072
191	0x3e96a4dd	0.29422656
192	0x3de6150f	0.11234485
193	0x3dc423c2	0.09577133
194	0xbebfd9fa	-0.3747099
195	0xbe74daba	-0.23911563
196	0xbe10865e	-0.14113757
197	0xbdcd179a	-0.10014267
198	0x3ea9292e	0.3303923
199	0xbe06cc03	-0.13163762
200	0x3e41d4e6	0.1892887
201	0xbe2850fa	-0.1643714
202	0x3e39e53f	0.18153857
203	0xbbb3829d	-0.005478217
204	0xbe28731a	-0.16450158
205	0xbe8d1b55	-0.27559915
206	0x3e873f16	0.26415318
207	0x3ea182af	0.31545016
208	0xbdda09d8	-0.10646409
209	0xbdedd23d	-0.116123654
210	0xbe84dfe9	-0.2595208
211	0xbd8d0345	-0.06885389
212	0xbcbbdcd3	-0.022932446
213	0xbd2a8b57	-0.04163679
214	0xbdcb034f	-0.099127404
215	0x3d23754e	0.039906792
216	0x3c0f48aa	0.008745352
217	0x3d3144e2	0.043278582
218	0x3c885dcd	0.01664629
219	0xbc87d3cb	-0.016580483
220	0xbde1f89c	-0.110337466
221	0x3eb7eb33	0.3592163
222	0x3e8a3a7b	0.26997742
223	0x3e4d94aa	0.20076242
224	0xbdbfcb2f	-0.09364926
225	0xbdf5a01b	-0.11993428
226	0x3d63e134	0.055634692
227	0x3ee1f4bf	0.4413204
228	0x3db7ee1c	0.08980963
229	0x3e96d47d	0.2945899
230	0x3d0a5e87	0.033781555
231	0xbe604d55	-0.219045
232	0xbdc9669b	-0.098340236
233	0x3dd3edc5	0.10348085
234	0x3e64f495	0.22358926
235	0xbee2654b	-0.44217905
236	0xbd03843c	-0.03210853
237	0x3e30d64b	0.17269246
238	0x3a1dd5ef	0.00060209533
239	0xbe2f6b11	-0.17130686
240	0x3ef16452	0.4714685
241	0x3cb80b59	0.022466348
242	0xbefca1ff	-0.49342343
243	0x3db4df08	0.08831602
244	0xbdce7b0d	-0.10082064
245	0xbe00a1f7	-0.12561785
246	0x3ebeae82	0.37242514
247	0x3e4534bf	0.19258402
248	0xbe9df3e6	-0.30850142
249	0x3e9ae39a	0.3025177
250	0x3c1de5a9	0.009637275
251	0xbed5b43c	-0.4173907
252	0x3d72d74a	0.059287347
253	0xbdb4d9b4	-0.08830586
254	0xbd36b8b0	-0.044609725
255	0x3d63442a	0.05548493
