trained_models/HCT116_left_out_model.pth (torch, 151506 bytes, 18 tensors)

lstm.weight_ih_l0 f4 [128, 9]
00000000: 9001 4cbb 1cba 0ebe 4004 6ebd 3161 593d
00000010: 53a6 9fbe da09 b43d 89ab 10bd 7ff6 223d
00000020: c6a9 9d3c 0b03 cfbc 974a 94bd 6e6b 6c3d
00000030: 5c83 1b3e 8979 b83d 6da7 96bd ff9c a6bd
00000040: ce88 85bb 98cc b5bc 5387 383e a078 2e3d
00000050: fea1 34bd 534e e3bd 15dd 61bc fe9c d5bd
00000060: 9fd0 5ebd 12c9 073d b4cf 773c 52a0 9c3e
00000070: 3992 75be 5978 e23d 5617 f23d f71b 713e
00000080: 8517 d73d 063a e6bc 590b d5bd b605 4bbe
00000090: 083e 063e 1951 63bd 936d 823d 3d34 0ebe
000000a0: 7028 fb3d 1597 fdbd b404 153e 790d 5abc
000000b0: 162e 15bd 87e3 363d e696 29bd f264 ca3d
000000c0: b6ea a6bd 698a 2f3d 5edb 45be 4460 cebd
000000d0: 5741 f63d a498 de3c 1240 8d3d e43c fc3d
000000e0: 3ddc a9bd e3f2 4bbe 2139 14bd 06d2 0e3d
000000f0: 384b 19be 2638 c63d 458a 733d 1e26 243e
00000100: 7020 00be 7df2 0b3c 0c18 d7bd 957b 09bd
00000110: e252 40be d623 efbd 0a6a b63d 364e be3d
00000120: 9c48 253e 7fdb 5e3c 49df 8e3c 5fec 933d
00000130: f3d2 213d 8086 843d f98c 07be 3d7f b93d
00000140: c454 18bd b02d f4bd c557 3fbd 734a d53a
00000150: 3dd0 c63d 6ad3 58bd f2d6 9ebe 1393 4e3e
00000160: fcfb 5d38 d7a7 823e f2c9 8b3d e2a9 fbbb
00000170: b904 a73d 07fc 543d e57c 34bc 26ee 00be
00000180: 459a c53c 84da 9f3d 2d3a 8dbd c60b c6bd
00000190: 7006 133e a63f 4dbd e813 fd3d 51be 0fbd
000001a0: a84b 4abe 615d 1dbe 595e 2c3e 351c 5938
000001b0: e4ac ad3d 8ef6 d33d 37e4 783b 4c96 bf3d
000001c0: bc56 943d e397 0fbe fd31 2d3e db92 7c3d
000001d0: b3eb 3a3e 6e6c 94bc 10fe 1ebe c32d 71be
000001e0: 27f4 7fbe 06a2 ccbd c585 223d a5d8 38be
000001f0: 3274 983c b272 49be 55e3 61be ae6d a3bd
00000200: d9d1 263d bd00 dc3d ef3d 17be 997a 5c3d
00000210: 95e8 c13c 723a 163d 08d4 afba 4cbe 093e
00000220: 42b1 26bd f816 923c 844e 0bbe d72c ebbd
00000230: dfc5 21be fff9 97bd 7555 3dbd 7480 f93c
00000240: 9b6b 9f3d cc27 1dbe aa5a 903d e562 173e
00000250: 9ab3 b33d fccc 3a3d ca59 bbbd 6935 0d3e
00000260: 63e9 d63c d5c1 bbbd 248a 86be 3ea0 4dbe
00000270: 8f3a 53be 9208 edbd 08ab ea3c a802 3e3c
00000280: 13b2 24be a9e7 053d e94b 803d 8e8b 6d3d
00000290: e86b aabd 1bca a13d 489c 0abe 34b8 04bd
000002a0: 1e1d d7bd c3f3 8bbd 299f 9a3c c84f 8a3b
000002b0: fde0 c23c ea92 6bbd 270f 463e 4104 3f3e
000002c0: 764c 193d b258 793d 79c8 bdbd b221 f53d
000002d0: 6856 923c 219a bc3d 3c54 20be bf04 003d
000002e0: 43bb b5bd 4ff4 483e 1b6e 6ebe 750a 27be
000002f0: a086 27bd 000e 17be a670 f2bc b83c c0bc
00000300: b892 23be 8bb6 133d a37f e43d e204 1bbe
00000310: fc1e 003e 1e80 2a3e 112e db3d e624 8cbe
00000320: 1bf4 8dbc 2fed 53be 2b15 8f3d 10c6 41be
00000330: 8368 713d 13b0 20bc 0e06 123d bd77 72b9
00000340: 42fc 4b3d 4255 5f3d af3b b83c a3ea c63c
00000350: 2f2c 5abe 680b 2e3e 280d fc3d d4cf a83d
00000360: c7d9 f23d 800e ddbd 1613 0bbe 9837 0a3e
00000370: 688b 39be 8afb 0c3e e238 eabd a7d7 04be
00000380: ba69 e83c 28b5 10be 5b92 5cbd ad01 123e
00000390: 4e0e 283e 1f39 423e e82c dfbc 4426 0abe
000003a0: b68f 2f3e 72ff 803d 9272 a0bd 9058 6b3c
000003b0: 9a96 b9bd e41f d03d 70e8 2f3e 1b9a 12be
000003c0: f527 21be 611d f4bc ade4 dc3d fe1b d1bc
000003d0: 2f28 3fbe 04fc 1ebc dc88 3dbe ab1e efbd
000003e0: 6375 0bbe 7016 8d3d 82f5 2f3e 7009 733c
000003f0: b2ce fbbc a6e0 b73d fd66 5c3d ab71 d4bd
-0.003112886 -0.13938183 -0.058109522 0.053071205 -0.31181583 0.087909415 -0.03531984 0.03978586
0.019245993 -0.025270006 -0.072407894 0.05771964 0.15186828 0.09007556 -0.07356153 -0.081354134
-0.0040751463 -0.022192284 0.18020372 0.042595506 -0.0440998 -0.110989235 -0.01378562 -0.104303345
-0.054398175 0.03315074 0.015125204 0.30591065 -0.23981561 0.11058111 0.11820857 0.23545824
0.10502533 -0.02810384 -0.10402555 -0.19826397 0.131096 -0.055497263 0.06368556 -0.13887115
0.12263572 -0.12382332 0.14552575 -0.013308876 -0.036420904 0.04465058 -0.041403674 0.09882535
-0.08150236 0.042856608 -0.19321963 -0.10076955 0.12024181 0.027172394 0.06896986 0.123163015
-0.0829396 -0.19916873 -0.036187295 0.034868263 -0.149701 0.09678678 0.059458036 0.16030166
-0.12512374 0.0085417 -0.105026335 -0.033565123 -0.18781617 -0.11676757 0.08906944 0.09292261
0.1614098 0.013602137 0.017440455 0.072228186 0.039507817 0.06470966 -0.1323737 0.09057472
-0.037190214 -0.11922777 -0.046714563 0.0016272798 0.09707687 -0.052935995 -0.31023365 0.20173292
5.2925185e-05 0.25518677 0.068256274 -0.0076801637 0.08155198 0.051998165 -0.011016105 -0.12590846
0.024121413 0.078053504 -0.06895862 -0.09670214 0.14357924 -0.050109528 0.123573124 -0.03509361
-0.19755423 -0.15367652 0.16832866 5.17631e-05 0.08480242 0.10349761 0.0037977824 0.09354839
0.07243106 -0.14022784 0.169136 0.06166349 0.18253975 -0.01811811 -0.15526605 -0.23552613
-0.2499548 -0.09991841 0.039678354 -0.18051393 0.018610094 -0.19672659 -0.22059377 -0.07979904
0.04072747 0.10742328 -0.1476972 0.053827856 0.023670474 0.03667683 -0.0013414631 0.13451499
-0.04069639 0.017833218 -0.1360417 -0.11483162 -0.15798138 -0.0742073 -0.046224076 0.030456759
0.07784196 -0.15347213 0.07048543 0.14783819 0.08774491 0.045605645 -0.09147985 0.13789906
0.026234334 -0.0916783 -0.26277268 -0.20080659 -0.20627807 -0.115739 0.028646007 0.011597313
-0.16083555 0.03269163 0.06264479 0.057994418 -0.08321363 0.07899877 -0.13536179 -0.032402232
-0.105036005 -0.06833603 0.018874722 0.0042209364 0.023788923 -0.057513155 0.19341718 0.18653966
0.037426434 0.060875602 -0.09266753 0.119693175 0.017863467 0.09209085 -0.15657133 0.031254526
-0.08873608 0.19624446 -0.2328419 -0.16312583 -0.040899873 -0.14751434 -0.02959473 -0.023466453
-0.15973938 0.03606276 0.11157157 -0.15138581 0.1251182 0.16650435 0.10702146 -0.273719
-0.017328313 -0.20695947 0.06986459 -0.18923211 0.05893756 -0.009807604 0.035650305 -0.00023123524
0.04980112 0.054524668 0.022489397 0.024281805 -0.21305917 0.16996539 0.12307197 0.08242765
0.11857944 -0.10793781 -0.135815 0.1349777 -0.18119586 0.1376783 -0.11436631 -0.1297289
0.028370727 -0.14131606 -0.053850513 0.14258452 0.16411707 0.18967102 -0.027243093 -0.1349116
0.17144665 0.06298722 -0.078343526 0.014364377 -0.09061928 0.10162333 0.17178512 -0.14316599
-0.15737899 -0.029799165 0.10785804 -0.025526043 -0.18667673 -0.00970364 -0.18509239 -0.11675771
-0.13618998 0.06889045 0.17183498 0.014833793 -0.030738208 0.08978395 0.053809155 -0.10373243

lstm.weight_hh_l0 f4 [128, 32]
00000000: 9920 39be f6f0 1abe 2d8a fcbc b0af f2bd
00000010: 0f58 093e 3f7a 98bd ceb8 8fbd a874 fb3b
00000020: 1724 f7bd a93c f63d 67cf 3b3e 3e98 89be
00000030: fde3 a0bb 5849 833e 1c08 85bd 3636 173e
00000040: 5052 2abe 23da 7fbe 3d06 c93b a583 02be
00000050: dc47 193e 53c8 f53c 61d6 2dbd ff55 59bc
00000060: 5da9 133d f0aa 1a3e 1a4b 3dbd dc0c febd
00000070: b934 49be 7bfb 613e 7c37 443e 244a 533e
00000080: 9fc8 973c 9a4e 0a3e 9101 8c3b 13de c23d
00000090: cc35 483e 60e3 083e 8213 373e f09c 833e
000000a0: 7f30 8fbd 3b41 853c d11d 07bd ce4a 973d
000000b0: 91a9 d43c 366a c23c 0a48 083c 053d 623d
000000c0: 81a5 5bbd 6b76 9e3d 5fb0 df3d 9168 a03d
000000d0: 3f0e 923d 3ada 53bd 4510 e3bc 1cb5 c9bc
000000e0: 3883 ddbd d602 76be 9b83 fe3d 4298 a2bc
000000f0: 58e9 d2bc 97e2 023d 6407 0f3e 0e47 0c3e
00000100: be8a 383e 34df 533d ef94 60bc ac26 6fbe
00000110: e88e 363d c8d3 aa3b 2a8a 113d a9f4 253e
00000120: 511b 673d 691c 953d 43a4 1bbe d56c 2d3a
00000130: 4b8f 0fbd dd6e b2bd 7638 4f3e e2cc 233e
00000140: 52ea 9a3d 9150 41be 7b97 013e 8cda 07be
00000150: f628 fa3c a9d4 453d 4c20 203e a6e8 85bd
00000160: 4f71 9ebc c5db 51be 706d 883d 470b 80be
00000170: 27e8 98bd a30c 1bbd ca26 0b3e cbc5 173e
00000180: 18ac 02be cc90 8dbc a18e d63d 4bc6 88ba
00000190: 5d84 733e 232a 25bd f56c 383e e9da 073e
000001a0: d468 0dbe 87d7 fe3d ccda 663d 9c51 d33d
000001b0: b8bf c53d e0b6 51bd c419 383d 5340 bfbd
000001c0: a719 be3d ca84 29bd 37b5 093e 592a c43d
000001d0: c485 5abd 2338 613d 35a9 f23d c58b bebc
000001e0: 3ec7 ce3d 9f52 9c3d da2a 08bd 2ebd 31be
000001f0: 5970 51be ad9b 04be 353a da3d cdee 09be
00000200: ae1c 163d 7b5b e03c 2a0b 16bd 5b51 c0bd
00000210: d1dd bb3d 4899 4d3d 1d58 373e cbf0 113d
00000220: f9f6 c83a 0b9e b63d 42d7 123e 093e 2abd
00000230: 402c 063e 85cd 14bd 441e 833d b6d0 543e
00000240: ba66 02be 0871 b3bd bde7 623e 1a9f 1dbe
00000250: ec6b eb3c 085e be3d aa59 a53d e7e4 e13d
00000260: e6ee a33c 79eb 463d 9d26 99bd 7722 7d3c
00000270: d6af a4bd 26a3 133e cc88 53bd ea2c abbd
00000280: d983 203d aa57 dd3d e9dd 14bd b05e 153b
00000290: f8a6 953c 8366 fe3d fcdd 2f3c 52d2 52bd
000002a0: 048f 29be ff11 783d fd29 41bd 5a80 973d
000002b0: d81b cabd 94f0 5a3e c5b6 cebd bdb1 09be
000002c0: bd0e 88bc e6f3 60be 7caa f3bb af47 5f3c
000002d0: 4455 f3bd 6f3f 6b3e 7da7 fcbd 2796 023e
000002e0: 8374 a33d 6c29 a6bd 74cf 1cbe 2452 babb
000002f0: c451 2abd a2f3 c73d fd7f d2bd 9b14 f43c
00000300: 2f91 95bd 6afe 47bd 5b57 2ebe f81d f4bd
00000310: 6d8f 823d 85eb 083e f4a5 023e 3371 3fbd
00000320: 76e8 e2bd 83a4 cc3d 271c 183e 689a 5abd
00000330: 7b25 05be 0c41 e93d d18b 263e 9812 9b3d
00000340: 50bd 5fbd 6c15 8f3d b47f b8bc 0ddb ef3c
00000350: 29a2 783e 8507 193d d76f 733e b647 1c3e
00000360: 8106 b33d 5425 20be e8d1 4fbd 7805 5cbe
00000370: 1b2a c6bd e246 cb3d 96c6 483e 3c3d 5c3e
00000380: 8e50 703e 6f27 263e 3836 5ebd a0cc 643d
00000390: d9f4 693e f16a 023e f8dd 29bd a5bd d43d
000003a0: 7fe8 eebd adec fc3c 3bf5 19be 4bd5 593d
000003b0: e11c 163b 1892 49be 1c9a e53c 3a53 a0bd
000003c0: c9bf ccbd f8af 493d 5b8f 0fbd c6f6 be3d
000003d0: ed33 adbd 6d93 c63b 47cc 013e 646a 92bd
000003e0: f3e9 ec3c 9b1b 27be 6f68 9b3c 4efb 53be
000003f0: 7392 8ebd d829 0dbe 055e c53d 737e 06bd
-0.18078841 -0.15130982 -0.030827606 -0.11849916 0.13412498 -0.074451916 -0.070176706 0.0076738186
-0.120674305 0.12023289 0.18340836 -0.26873964 -0.004909991 0.25641894 -0.06495687 0.14766774
-0.16632962 -0.24985556 0.006134777 -0.12745531 0.14968818 0.030002749 -0.042440776 -0.013265132
0.03605019 0.1510427 -0.0462142 -0.124047965 -0.19649018 0.22068588 0.1916179 0.20633751
0.01852828 0.13506547 0.0042726477 0.095150135 0.19551772 0.13367987 0.17878535 0.2570567
-0.06991672 0.016266456 -0.03298742 0.07387315 0.025959762 0.023732286 0.008317957 0.055233974
-0.053624634 0.0773743 0.10922312 0.078324445 0.071316235 -0.05172179 -0.027717719 -0.024622492
-0.108160436 -0.2402452 0.124274455 -0.019847993 -0.025746033 0.031954374 0.13967663 0.1369898
0.18021676 0.051726535 -0.013707384 -0.23354596 0.04456988 0.0052132346 0.035532154 0.16206612
0.056422535 0.072808094 -0.1519938 0.00066156435 -0.035048764 -0.08712552 0.20236382 0.15996125
0.07564224 -0.1887839 0.12655441 -0.13266963 0.03053711 0.04829851 0.1563732 -0.06538515
-0.01934114 -0.20493992 0.066614985 -0.25008604 -0.074661545 -0.03785385 0.13589016 0.14821546
-0.12760961 -0.017280959 0.10476423 -0.0010435072 0.23780961 -0.040323388 0.18010314 0.13267101
-0.1380952 0.12443452 0.056361005 0.103183 0.09655708 -0.051199794 0.044946447 -0.09338441
0.092822365 -0.041386403 0.13448034 0.0957839 -0.053350225 0.054985177 0.1184868 -0.023260007
0.10096596 0.07632946 -0.03324399 -0.17357323 -0.20453013 -0.1295001 0.10655633 -0.13470002
0.036648445 0.027387371 -0.03663174 -0.09390517 0.091731675 0.05019501 0.17904706 0.03563003
0.0015332393 0.08916863 0.14339927 -0.041563068 0.13102818 -0.03632881 0.06402257 0.20782742
-0.127345 -0.087617934 0.22158714 -0.15392724 0.028737985 0.09295279 0.08073743 0.11029988
0.020011377 0.048564408 -0.07478068 0.015450112 -0.080413505 0.14417705 -0.05164413 -0.08358176
0.03918824 0.10807736 -0.036344443 0.0022792034 0.018268093 0.12421896 0.010734078 -0.05147011
-0.16558462 0.060564037 -0.047159184 0.07397528 -0.09868592 0.21380836 -0.10093454 -0.13446708
-0.01660859 -0.2196804 -0.007436095 0.013627931 -0.118814975 0.22973417 -0.12336633 0.12752591
0.07981207 -0.08113369 -0.15313512 -0.0056860615 -0.041581884 0.09763266 -0.10278318 0.029794982
-0.07303082 -0.048826613 -0.17025511 -0.119197786 0.063750125 0.13371094 0.12758619 -0.046738815
-0.11079495 0.099923156 0.1485449 -0.05336991 -0.13002579 0.1138936 0.16264273 0.07571906
-0.0546239 0.06986508 -0.022521831 0.029279256 0.24280609 0.037360687 0.23773132 0.1526173
0.08741475 -0.1563924 -0.05073729 -0.21486461 -0.09676 0.09925629 0.19607005 0.21507734
0.23468229 0.1622598 -0.054250926 0.055859208 0.22847308 0.12736107 -0.04147145 0.10387734
-0.11665439 0.030874575 -0.15034954 0.053181928 0.0022905397 -0.19684637 0.028027587 -0.07828374
-0.099975176 0.049240083 -0.035048824 0.09324412 -0.0845717 0.006060055 0.12675582 -0.07149199
0.02892015 -0.16319124 0.018970696 -0.20701334 -0.06961527 -0.13785493 0.096370734 -0.032835435

lstm.bias_ih_l0 f4 [128]
00000000: 5232 a53c 777a 953e 990f ac3d 5480 9e3d
00000010: a45f bd3d dff2 a4bd ae9f 953e abd1 843e
00000020: 9147 f7bd d9da 773d a05c e13d b549 243e
00000030: f131 3c3e d507 033e 8b4e 993e 000a cb3c
00000040: 868e 053e 0cda c13c e74d a7bc c65d ef3c
00000050: 2698 69bd c699 6c3d 4d6b 203e e9d0 b5bd
00000060: d10a 31bd f96f 5a3e 2009 aebc a2ad 6abd
00000070: eec8 4b3d 4a5e dcbb 9026 a2bd 1042 b93d
00000080: 6ec5 2dbd f68c 553d 654a 383e 01f5 a63d
00000090: 6360 213e c076 19be def1 4c3e 01cb f13d
000000a0: a05b 12bd b866 393e a8c7 523e 5b81 633d
000000b0: c1d6 ef3d 14ad 933c 50de a83d 15da ee39
000000c0: ff36 58bd f8e1 fb3d 9522 1abd f707 fa3d
000000d0: 5d25 fe3d 7e1d adbd fc6d 5a3e dca4 853d
000000e0: 7e3f 153e 2211 2bbe 925d 373e b8b5 953d
000000f0: f90c f8bc b6c9 3abd ab22 8e3d 6d80 193e
00000100: 2c30 733d f4fd 1b3e a057 6fbe a60d 7bbe
00000110: efee 3f3e ff5d 183e f513 dcbb b6a5 9b3d
00000120: 27ba ed3d efc7 5b3e e90d 96bd f0e5 fabd
00000130: ffff 1cbe c803 88bd e44c 683e 80a7 d03b
00000140: adcf 06be f133 4e3c 6b32 b33d e8f2 0c3d
00000150: 2577 3dbd dc69 143e 838c a7bd 8dfd b83d
00000160: 5fb7 71bd 8422 91bd f991 33be aa90 383a
00000170: 7cc6 b7bd d709 3bbd c194 b33d 2645 16bd
00000180: f206 8e3e b8a0 903e e273 8e3e 8b21 2c3e
00000190: 46ec 81bd a790 203d 13fa 9d3d baf7 c43d
000001a0: 25e4 debd 1a87 c83c 0c6d ac3d c563 873d
000001b0: 8ef9 823d d342 163e 96ae 243d efa2 78bd
000001c0: 6926 ebbc 00fe 913e 724f 3b3e d42f ccbd
000001d0: 635e 8bbd 65bb ad3d e35d a23c aa36 ed3d
000001e0: f23d 3a3d ebd6 7c3d 6aa5 e63c 74e7 7ebd
000001f0: a453 773d 4f89 8d3e e1fa 813e 3ed5 66bc
0.020165596 0.29194996 0.084014125 0.077393204 0.092467576 -0.080541365 0.29223388 0.25941214
-0.12074197 0.060511444 0.11003995 0.16043742 0.18378426 0.12795956 0.29942736 0.024785042
0.1304265 0.023663543 -0.020422889 0.02921952 -0.057029866 0.057763837 0.15665932 -0.08877737
-0.043223206 0.21331777 -0.021244586 -0.057294495 0.04975217 -0.0067251073 -0.079175115 0.090458035
-0.04242461 0.052136384 0.1799713 0.081521995 0.15759425 -0.14986706 0.2001414 0.11806298
-0.03573191 0.1810559 0.20583975 0.055543285 0.11710883 0.018026866 0.08245528 0.0004555738
-0.052786823 0.122989595 -0.037630636 0.122085504 0.1240947 -0.08452891 0.21331018 0.06525585
0.14575002 -0.16705754 0.17906788 0.07310051 -0.030279623 -0.045602523 0.06940206 0.14990397
0.059372112 0.15233594 -0.2337327 -0.24516925 0.1874349 0.14879607 -0.0067162463 0.07599966
0.11607771 0.21462987 -0.07326872 -0.12250888 -0.1533203 -0.06641346 0.22685581 0.006367624
-0.1316516 0.012585626 0.08749851 0.03441134 -0.046256203 0.14493507 -0.08181097 0.09032736
-0.059012767 -0.070866615 -0.17536153 0.00070405996 -0.08973405 -0.04566368 0.08768607 -0.03668704
0.27739674 0.2824762 0.27822787 0.1680967 -0.06343894 0.03920045 0.077137135 0.096175626
-0.10883359 0.024478484 0.084192365 0.066108264 0.06395255 0.14673929 0.04020556 -0.06070226
-0.028704839 0.285141 0.18292025 -0.0997006 -0.06805112 0.08483008 0.01982016 0.11582692
0.045469232 0.0617284 0.028155047 -0.06223245 0.0603825 0.2764382 0.25386718 -0.014088927

lstm.bias_hh_l0 f4 [128]
00000000: 413b 163e d69d 893e 6a33 513e 6721 d53d
00000010: 4781 693e 6d94 a63d b4aa 053e f861 913e
00000020: 72b4 fa3d 3b3a cbbc 6d21 563e 46df 4c3e
00000030: 723b 813e 0772 783d c7be 9f3d 4650 343e
00000040: 2c93 813e f499 0bbc 48fd 693e a483 2c3e
00000050: 115c 213e a73e f73c f053 c53d 4d50 103e
00000060: 8682 083e e187 493e 408f 5bbd 6bcd 2d3c
00000070: 751a 973d 3895 173e 67c0 1a3e 25d6 543e
00000080: 706e 75bd 8846 9a3d 210c 2e3e b234 a3bb
00000090: d191 0b3e 7184 1a3e edc5 123e b336 ec3d
000000a0: b00b f53d 3748 babd 96c0 5fbc 1f94 2e3e
000000b0: 367d afbb 2895 a93d 5938 113d 9a07 fb3a
000000c0: e42f d03b f9b3 2a3d be96 8d3d 34e3 463e
000000d0: 3b7e cd3d c974 de3a 3103 4c3e 74dd 8bbd
000000e0: fcd4 db3d 02ff 383c ef4b a23d 5a28 fc3d
000000f0: 730c f93c fbba 6b3d 8cbe e23d e55b dd3d
00000100: b63b cabc 206e 7e3d 262a 26be 23c2 bbbd
00000110: b312 b5bd 7a13 a23d 080e 393e fa22 a3bd
00000120: 1383 2cbe 684a 6e3e 03bd a4bd eeb1 743d
00000130: 3837 7c3d 234f a4bd 4152 853d fef1 84bd
00000140: 0a3a 213e ef4b 7ebe 56f3 193d 20bc bfbd
00000150: ee2b 3e3e 96f5 d23d 7cf9 5b3e c5ed a0bd
00000160: 8a80 b43c b8fc 20be 2ce6 b53d fd54 a8bd
00000170: aef4 563d 7ee2 e13d a204 fcbd 4f4d 343e
00000180: 5f13 1b3d c349 543e ab97 b63d 6c57 213e
00000190: d6ef b73d 90df 6d3e d629 5a3e 4d6b 1b3e
000001a0: 5393 be3c 15e2 93bd c443 143d 7c6a c23b
000001b0: 72fe 333e 8b54 c63d 918b 443e 7400 03bd
000001c0: 9b69 9bbd 53d9 3e3e 51a9 313e 324e 193e
000001d0: 2a73 693e b1fb a4bd a034 2b3e 1bfa 483e
000001e0: d2aa 943c e1a5 123e 6a43 283e e7ee e63d
000001f0: 50a5 bcbd 420d 4b3e 9bd1 8c3e 4e65 a83d
0.14671041 0.26878232 0.20429769 0.104067616 0.22803222 0.08133779 0.130534 0.28395057
0.122414485 -0.02480804 0.20911188 0.20007047 0.25240666 0.06065562 0.0780006 0.17608747
0.25307596 -0.008520592 0.22850525 0.16847092 0.15757777 0.030181242 0.096351504 0.14093132
0.1333104 0.1968074 -0.05360341 0.0106080575 0.07378093 0.14803016 0.15112458 0.20784815
-0.059919775 0.07532984 0.16996814 -0.004980647 0.13629843 0.15089585 0.14333315 0.115338705
0.1196512 -0.09095805 -0.013656756 0.17048691 -0.0053555025 0.082804024 0.035454128 0.0019152046
0.0063533653 0.04167554 0.069135174 0.19422609 0.10033842 0.001697206 0.19923092 -0.06829348
0.10733983 0.011291267 0.079246394 0.12312384 0.030401444 0.057551365 0.110715 0.10808543
-0.024686676 0.062116742 -0.16227016 -0.09167888 -0.08841457 0.07913871 0.18071759 -0.079656556
-0.16846876 0.23270571 -0.080438636 0.05974 0.0615761 -0.08022907 0.06509829 -0.06491469
0.15744796 -0.24833654 0.03758558 -0.09362054 0.18571445 0.10300748 0.2148189 -0.07857851
0.022033948 -0.15721405 0.088817924 -0.08219335 0.05247944 0.11029528 -0.12305571 0.17607616
0.03786027 0.20731263 0.08915647 0.15756005 0.08981292 0.23229814 0.21305022 0.15177651
0.023263609 -0.07220856 0.03619744 0.005933104 0.17577532 0.09684094 0.19193865 -0.031982854
-0.07588502 0.1863759 0.17349745 0.14971235 0.22797838 -0.08055819 0.16719294 0.19626658
0.01814786 0.1432109 0.16431966 0.11276036 -0.09211218 0.19829276 0.27503666 0.08222447

lstm.weight_ih_l0_reverse f4 [128, 9]
00000000: 93b3 953d ea3c 7c3e 7bc1 00be 2eb1 02be
00000010: aa3c 2a3e a61e 6d3b f738 2ebe fea2 11be
00000020: 3534 80bd 0875 053d 3643 3a3e 2aa9 27be
00000030: 92c0 2a3c e73a 823d 0fcf 6dbe d2e6 fc3d
00000040: 705e 203e 3cdc 9a3e f676 fdbd 9c81 19bd
00000050: a593 83bd 58a4 4f3e ca56 33bc 4602 223e
00000060: 337a c9bd 982e 453d 624d 293e 762b 34bd
00000070: afcd 8e3c 836c 8f3d d7f7 483d 437f db3c
00000080: 432d 59be cc36 0c3e 5dab e9bd b0cc 89bd
00000090: fd99 ab3c 66f0 e03d b71f db3d 110d 22be
000000a0: 1a68 b5bd 0b84 dabc 0b2a 9d3d 4f27 90bc
000000b0: b442 a1bd b313 553c 009c 1bbe b7fe e6bd
000000c0: f3d2 b63d 0b0f 01be 8175 21be 4604 1a3e
000000d0: 2231 b3bd ca6f 2c3e ef1a 40be 2ebd 8abd
000000e0: 4d63 0a3e 9f5c 7fbc 1baf 673e 104c 933d
000000f0: 7f63 aa3e 9451 4c3e defb 0d3e 0bc1 c5bd
00000100: cdbf 333b 7b64 b53c eaf2 c9bb f4ce 593e
00000110: 245f 363d f0f7 0bbe 42cf 943d 1843 533d
00000120: d6af 163d cf51 2cbc 6d3a 173e 1f90 fbbd
00000130: 20b3 f63d 9bf8 af3d 0973 53be a5dd f8bd
00000140: 49ad ebbc dee7 0fbe 892c babd b8a2 acbd
00000150: 56c3 9a3d 7ff1 d33c d413 ab3d 8aac 443e
00000160: caf1 973d 7cda 0ebe 29de b43d d3d2 2e3e
00000170: b510 c23d 45f0 c6bd 511a e93d cde1 683b
00000180: 1879 f7bd 2c4f 10be 0a85 ccbd 55ee 76be
00000190: 83d9 25bc 5478 80bd 2092 0cbe 4114 37bc
000001a0: e76e b3bd ba22 1d3e f142 18be fbc7 3e3e
000001b0: f0aa 7b3d 6dbc 043e b9b0 b4bc cf33 65bd
000001c0: 7241 32bd 425b 313b c15f 37be 350d 0ebe
000001d0: c301 ed3d 9256 94bd 4e92 e43d 888c 38be
000001e0: 606d 13be 0ac1 78be c319 c5bd e6b2 303d
000001f0: d156 88bd ada2 f83d c48a bd3c 1abf 8fbe
00000200: b40f 953d 41d4 12be 4fab 833d a768 17be
00000210: 3075 8dbd 4b9d 2a3e ee3c 7fbd cfb2 1b3d
00000220: 2171 b2be a959 2a3e 4f56 d73d dbe2 5dbe
00000230: cb6f e9bd fdc1 23be 60d9 9f3d 4cb7 2cbe
00000240: d6c1 833d 45c6 023e 45c3 f2bd 630e 19bc
00000250: f0a1 50be 2ccf cf3c 1b91 5dbd b20c e73d
00000260: b436 993d 6ed1 25be 131f 68bc 811a eebc
00000270: 427c bd3d f083 1f3e d41a aabd 2516 5e3e
00000280: 1fd9 f23d 647d f6bc 1f90 973c 297c 233d
00000290: 4078 2ebe 01c5 71be ddc7 afbd bd67 06be
000002a0: b574 00be f400 2cbe 487f 3e3e e05d ddbd
000002b0: fe64 29bc 87cb 893d 52d4 f1bd 91e7 1d3e
000002c0: 4050 70bb a95b 963d 8add 5cbd 679f 23bd
000002d0: 684a 033c 27ac 353d 0f23 8abd 8f9e b73d
000002e0: 8706 3ebb 19f9 f1bd f7cc 48be 1ccd 043e
000002f0: 0c14 b03d 741c 10bd ec7a 71bd fda0 043e
00000300: 52f4 3c3e 7345 4c3a 98cb f63d 44c5 8fbd
00000310: 8cce 473c edc4 393c 7501 8f3d 7277 fbbc
00000320: 6317 b1bd 2211 ae3d a9bf 89be 7641 58be
00000330: 983e ce3d ce8e 64bd 01c8 2dbe ac84 01bd
00000340: d239 aa3d c4d7 66bc cb1b 34be 7923 4ebd
00000350: d82f 0fbc f85a 58bd b1d6 2ebe 7d11 5d3e
00000360: ec3f 6e3c 02ad 96bd e3e0 90bd 9579 d4ba
00000370: a24b 553d 4e02 71bd 057f 8a3a 2743 f2bc
00000380: 51cf 1f3e a2d7 103e 14b3 643d 8329 18be
00000390: 55ec 9f3d 7921 073b 3bc6 2cbe b473 363e
000003a0: 2e50 e73d 4cdf e83d 5434 38be f5fd 3cbe
000003b0: 0b94 843d 0bad b7bd 3585 26bd e6d5 8fbd
000003c0: 0c61 b93c 9271 ebbd 06f5 883d 732d 1c3e
000003d0: 41d1 803e 0b7a c43c 8958 b7bd 5de0 6cbd
000003e0: dfc3 343e 8a44 6bbd c0d3 013d 3b0b 37be
000003f0: a4f0 37bd 8bb3 62be be5b be3d 5afe 0b3c
0.07309642 0.24632612 -0.12573807 -0.12762901 0.16624704 0.0036181598 -0.17013918 -0.14222333
-0.06259958 0.032582313 0.18189701 -0.16373125 0.010421889 0.06358891 -0.23223518 0.12348713
0.15661025 0.3024615 -0.123762056 -0.03747712 -0.06424645 0.20277536 -0.010945985 0.1582118
-0.09837761 0.04814014 0.16533425 -0.04398676 0.017432062 0.07003119 0.049064483 0.026794082
-0.21208672 0.13692778 -0.11409638 -0.06728494 0.02094745 0.10983352 0.106994085 -0.15825297
-0.088577464 -0.026674291 0.07674035 -0.017596869 -0.07874051 0.013005185 -0.15196228 -0.11279052
0.08926954 -0.12603395 -0.1576748 0.15040693 -0.08749606 0.16839519 -0.18760274 -0.067743644
0.13514443 -0.015586047 0.22625391 0.07192242 0.33279034 0.19952995 0.13865611 -0.09655961
0.0027427555 0.02214264 -0.006162991 0.21270353 0.044524327 -0.136688 0.07266094 0.051577657
0.036788784 -0.010517552 0.14768381 -0.12283348 0.12045884 0.085923396 -0.20649351 -0.1215165
-0.028769152 -0.14053294 -0.09090526 -0.08429474 0.075567886 0.02587199 0.08353391 0.19206443
0.074191645 -0.13950533 0.08831436 0.1707261 0.09475843 -0.097137965 0.113819726 0.0035534978
-0.12083644 -0.14092702 -0.09986313 -0.24114354 -0.01012266 -0.06272951 -0.13727617 -0.0111742625
-0.08761387 0.15345278 -0.14869286 0.18630974 0.061442316 0.12962504 -0.022056924 -0.05595761
-0.043519445 0.002706245 -0.17907621 -0.13872226 0.11572602 -0.072430745 0.11160718 -0.18022358
-0.14397192 -0.24292389 -0.09624054 0.04313936 -0.06657184 0.12140403 0.023137458 -0.28075486
0.07278386 -0.14338781 0.06429159 -0.14786015 -0.06907117 0.16661565 -0.062313966 0.038012322
-0.34851936 0.16635765 0.10514509 -0.2166857 -0.11398276 -0.1599197 0.07805133 -0.16866797
0.06433456 0.12770946 -0.11853651 -0.009341809 -0.20374274 0.025367342 -0.05409346 0.11281718
0.07481137 -0.16193172 -0.014167565 -0.029065372 0.09252216 0.15577674 -0.08305898 0.21688135
0.11857819 -0.030089088 0.01850134 0.03991333 -0.17038059 -0.23610307 -0.08583043 -0.1312551
-0.1254452 -0.16797239 0.18603241 -0.10808921 -0.01033902 0.06728273 -0.11808075 0.15420367
-0.0036668926 0.073417015 -0.053922214 -0.03994694 0.008013345 0.04435363 -0.06744968 0.089657895
-0.002899559 -0.1181509 -0.19609438 0.12968868 0.08597574 -0.035183385 -0.058955118 0.12952037
0.18452576 0.0007792331 0.12050551 -0.07020047 0.012195241 0.011338455 0.069827 -0.030696604
-0.08647039 0.084993616 -0.26904038 -0.21118721 0.100705326 -0.05580025 -0.16970827 -0.031620666
0.083118096 -0.0140895285 -0.17588727 -0.050326798 -0.008739434 -0.05282113 -0.17074086 0.21588702
0.014541607 -0.07357217 -0.07074144 -0.0016210551 0.052074082 -0.05884009 0.0010566419 -0.029573036
0.15606429 0.14144757 0.055834845 -0.14859585 0.07808749 0.0020619316 -0.16872494 0.17817575
0.1129459 0.113707155 -0.17988712 -0.18456252 0.064735495 -0.08968552 -0.04065438 -0.0702322
0.022629283 -0.11496271 0.066873595 0.15251713 0.25159648 0.023983976 -0.089524336 -0.057831157
0.17652844 -0.05743841 0.03169608 -0.17875378 -0.044907227 -0.22138803 0.09294842 0.008544529

lstm.weight_hh_l0_reverse f4 [128, 32]
00000000: 4b2b f23d a939 9a3d a2ec f13c cb7c 09be
00000010: 3396 0e3b fb78 65be 5e82 82be 5050 1abd
00000020: 0740 ec3c 04f5 0ebe a594 1d3e f135 13bd
00000030: 80c8 b3bd dfe4 e63d 7755 f8bd c7d6 1b3e
00000040: 7436 03be 6f55 283e d2fb 02be 43a2 213e
00000050: c868 ebbd 9786 fabd f349 12bd c18f 2e3c
00000060: f87c 92bd c1cf 15be 9ee6 43be 8ab4 0b3e
00000070: 21cb 11be 98a3 6b3d dbea 1abe 0a0e 3d3e
00000080: 320e 16be 0942 4f3e 8730 2e3e 97c9 7abe
00000090: c25c 0cbe 227d 30be 33d4 5a3d 444b a93b
000000a0: 6310 4e3c 03be 15bd df74 83bd ec66 c13d
000000b0: 4770 1abe da4c c93d a0c5 643d 3c2c 1c3d
000000c0: 2213 903d e69e 4bbd 38ce 2dbe 5a50 a43d
000000d0: 8751 e83c 0a02 5f3d 699b e1bd 2855 27be
000000e0: cc81 6ebd b6b5 173e c6bf cb3d a682 403e
000000f0: 29f9 e9bd 13b2 083e b08b 08be fd87 183e
00000100: ec9d 89bd 53c3 5b3e 23c5 8dbd adf9 ebbd
00000110: 9ccc 05be c3ce 99bd b614 09bd d855 003e
00000120: cffa 953d 4213 a6bd d582 b13d d4cf 5e3d
00000130: 4449 983c 8522 8f3d 75c9 51be 29c1 223e
00000140: 2ae9 3e3e f944 f9bd d295 513e 2d0d 20bd
00000150: 5ca0 e93c bb33 81bd 3fc3 ddba ad5e 823d
00000160: 1899 c1bd 5d7c e83d a1f8 e1bc 90fb 093e
00000170: 9664 203e 10f4 19bd 2a8d 57be a409 3f3d
00000180: 8a19 05be b147 863e 890a 763e ad92 b13d
00000190: e26f cd3d 7a90 363d f905 f43b f842 a1bd
000001a0: 5344 cebc 8e21 c73d ba57 5cbe 9a78 0e3e
000001b0: ea9c a53c 6ef4 cabd a108 58bd fa8e 2e3e
000001c0: 1d4c 5c3e 2bd3 0b3e dceb 58bd 3644 b93d
000001d0: 4243 37be 1a00 44be e485 8dbc 76cb 6cbc
000001e0: 7258 163e 81fa 0f3e 45ef 23be cd92 39be
000001f0: befb 67bd b4d7 bbbc dd12 debc 11de 033e
00000200: 6766 33be 4b85 f93d 3157 babd 95e8 513d
00000210: 8f6b 0abd 54e7 92bd 3166 94bd 4870 77bd
00000220: ef60 30bd ff4a 90bd 41a3 2bbe 510f 06be
00000230: fa7d 893d ace0 053e fc65 03be 8c94 19be
00000240: 3d5c 30bd 2220 24bd 4f62 c43a 0467 0b3d
00000250: a9d2 b03d 728e 21bd c902 02be 1bbc abbd
00000260: da0a 963d 6820 803d 02af f4bd c00c 20bd
00000270: 6af3 303e 5599 2f3e 8cc4 2abd d5f6 4d3e
00000280: 18be 80bd a5f4 38bd 95df ce3d 8e83 4fbc
00000290: 4a90 bcbc 479e 09be 1042 05bd 054a bebd
000002a0: 9569 2b3e 87ad b0bd 7f37 62be 886c 893d
000002b0: 3bfb a2bc fb49 90b9 6635 973d f37e b23d
000002c0: 4263 1d3e db66 113d 561b 47bd 4b24 8b3d
000002d0: 6125 123e 648d c2bd f4fe 69bd 5d3a 083d
000002e0: 8557 d33d 620b 9ebd 0d28 0c3e 7dba 03bd
000002f0: d3a6 1f3e 27de 1e3e 9bcc a03d d670 0e3d
00000300: e1f7 c83d 91eb 1e3e d973 cc3c bee8 de3d
00000310: 4655 5ebe 396a 743d ec7d 9bbd ae3e 5f3e
00000320: 5eae 08be 8706 6cbc fdc5 bb3d 1a50 0f3e
00000330: cdbf 5abe d887 3dbd b6f5 17be cdd8 a93d
00000340: 9c98 02be 7c4f 043e 5243 75be c24c 263d
00000350: ec9a b73d 1fb3 2bbe 8d56 f7bd 2f12 5bbb
00000360: 069e 4e3d 3cc9 24bd a7a9 a6bc 3ea1 083d
00000370: 2f84 bbbc 6e63 a83d 4d09 42be a256 893d
00000380: 6242 b3bd 287d 023e d8e1 833d 5e7e b6bd
00000390: e7f9 3ebe 9d9c 33be 1659 51be 1a32 ee3c
000003a0: 0822 f93d 8a94 1b3d 0477 893d ae9d c6bd
000003b0: 46f4 173d b138 88bd ee13 a8bd 421d e93d
000003c0: 14de 003e c8b4 d93d ee5e e8bc c2b9 8fbd
000003d0: 7f60 0bbe 5f59 d4bc fc3d d6bc b208 063e
000003e0: 9cbf ebbd 7ab3 733d 9200 9d3c cf34 52be
000003f0: 8eb5 30bd 1ff6 bd3d eab1 8fbc 8cf9 0f3e
0.11824664 0.07530529 0.02953178 -0.13426511 0.0021757006 -0.22409432 -0.25490087 -0.03767425
0.028839124 -0.13960654 0.15388735 -0.035940114 -0.08778477 0.112741224 -0.12125676 0.1521865
-0.12813741 0.1643884 -0.12791374 0.15784554 -0.11494595 -0.12232702 -0.035715055 0.010654391
-0.07152742 -0.14630033 -0.19130942 0.13643089 -0.14237644 0.057529062 -0.15128653 0.18462387
-0.14653853 0.20240034 0.17010699 -0.24490963 -0.1370726 -0.17235234 0.053425025 0.005166443
0.012577149 -0.036558162 -0.06418776 0.09443459 -0.15081893 0.098291114 0.055852532 0.038128123
0.07034899 -0.049712084 -0.16973197 0.08023138 0.028359188 0.054445304 -0.1101597 -0.16341078
-0.058229253 0.14815411 0.09948687 0.18799838 -0.11424477 0.1334918 -0.13334537 0.14895625
-0.06719574 0.21461229 -0.069223665 -0.11522231 -0.13066334 -0.0751014 -0.033467017 0.12532747
0.073232286 -0.08109142 0.08667532 0.05439742 0.018589623 0.06989006 -0.20487006 0.15893997
0.18643633 -0.121713586 0.20467308 -0.039075065 0.028518848 -0.06308695 -0.001691915 0.06365714
-0.094530284 0.113518454 -0.027584376 0.1347487 0.1566337 -0.03758627 -0.21049944 0.046640053
-0.12998024 0.2622657 0.24027456 0.08670554 0.100311056 0.044571377 0.007447001 -0.078741014
-0.025179064 0.09723197 -0.2151784 0.13913193 0.020216424 -0.099099025 -0.052742604 0.17046729
0.2151341 0.13654773 -0.052959308 0.09046213 -0.1789675 -0.19140664 -0.017275758 -0.014452806
0.14682177 0.14060403 -0.16009243 -0.18122406 -0.056636564 -0.022930004 -0.027108604 0.1287768
-0.17519532 0.12183627 -0.09098662 0.051247198 -0.033793982 -0.071730286 -0.07246054 -0.060409814
-0.043061193 -0.07045554 -0.16761495 -0.1309178 0.06713481 0.13073987 -0.12831873 -0.14998072
-0.043056715 -0.040069707 0.0014982912 0.03403379 0.0863393 -0.039442487 -0.12696375 -0.08385488
0.073262885 0.06256181 -0.119474426 -0.03907466 0.17280355 0.17148335 -0.041691348 0.2011369
-0.062862575 -0.045155186 0.10101239 -0.012665642 -0.023018021 -0.13439284 -0.032533705 -0.09291462
0.16739495 -0.08626848 -0.22091483 0.06710154 -0.019895187 -0.0002752094 0.07383232 0.0871562
0.15369895 0.03549848 -0.048610054 0.06794032 0.14272071 -0.09499624 -0.057127908 0.033258785
0.103194274 -0.07717015 0.13687153 -0.03216027 0.15590982 0.15514432 0.078515254 0.034775577
0.09812904 0.15519549 0.024957584 0.10884236 -0.21712217 0.059671614 -0.07592377 0.21801254
-0.13347766 -0.014405853 0.09168623 0.139954 -0.21362229 -0.04627213 -0.14839825 0.082933046
-0.12753528 0.12920946 -0.23951462 0.040600546 0.08965096 -0.16767548 -0.12077055 -0.0033427586
0.05044367 -0.040230975 -0.020344568 0.033356898 -0.022890178 0.0822209 -0.1894886 0.06705977
-0.08752896 0.12743056 0.06439561 -0.089108214 -0.18650018 -0.17540212 -0.2044414 0.029076625
0.12164694 0.037983455 0.067121536 -0.09698044 0.03709819 -0.06651438 -0.08206926 0.113825336
0.12584716 0.106301844 -0.028365579 -0.07017852 -0.13611029 -0.025921522 -0.026152603 0.13089254
-0.11511156 0.059497334 0.019165311 -0.20527957 -0.043141894 0.092754595 -0.01754089 0.14060038

lstm.bias_ih_l0_reverse f4 [128]
00000000: 1ef3 423d 71e0 9abd 23fd 043e dcc1 223e
00000010: 9919 393e 1ce1 25bd 2685 80bd e437 423e
00000020: 203d fbbc 388b 2e3e a871 603e d2a6 083e
00000030: bf6d bf3d 2b1a b0bd c406 9ebd 869b c3bc
00000040: 20a5 613d bd17 90bd 0159 733e ab64 a8bd
00000050: 224b 2ebc 4247 2e3e 155a 803b a47f 543e
00000060: ae46 fd3d b502 753e 5bf3 ea3d 3e75 3c3e
00000070: 365c e3bd ca45 4c3d ac51 1d3e 60f8 943d
00000080: 2cda a73d cbc3 95bd d168 f63d ab1b df3d
00000090: 5257 93bd f36a 823d 9222 2c3e 1707 fbbd
000000a0: 9b78 863d 0aed 193e ba4a 623e f2a9 28be
000000b0: 7317 093e 511b 443e 019b 243e f316 7cbd
000000c0: 8522 143d 8678 28bb a6d3 f73c 48f0 0b3d
000000d0: 1e77 a53c 082e 113e 980c 8dbd f403 53bd
000000e0: c086 0d3d 076d 09be 81c6 783e 8a68 3a3e
000000f0: 54dc 78bd b96d 3c3e a86b 8f3b a29f ce3d
00000100: f66a 32be 0cea b43d 1120 143e 7927 04bd
00000110: e13a 963d 087c 9dbc e605 f73d e45a 303e
00000120: fb92 2ebe 328d 3abe 2408 413e e2ff 67bd
00000130: 6bc9 39be d7d6 523d caaa 1ebe bcfd 293e
00000140: 49ca fa3d 5849 913d 2f4c ef3b 32f0 dbbd
00000150: aa9f ddbd da3c 94bd 20a4 873a 7374 543e
00000160: da30 00be a5e2 663e c660 a6bd af36 6c3c
00000170: b585 d53d 9cfe 913d 0434 51bd 6fe1 863e
00000180: f3d5 c439 a317 673e 09b5 323d 55da 943d
00000190: 192c b73c fb5a d1bc be14 bdbd 25aa 9dbd
000001a0: af96 423d 5d89 193e 778e 763e 70b4 abbd
000001b0: 4b28 723c d4f7 a83d 842d 0a3e 7eff e0bb
000001c0: 6517 07bd 8562 c73d 1a02 1e3d e615 b4bd
000001d0: ba1c 443e b356 12bd caeb 5b3e 0447 853d
000001e0: 5e0d 673e 7626 253c 9c41 9c3c 250b 073e
000001f0: 003e 3ebd c370 c23c 60e5 033e e728 1b3e
0.047595136 -0.0756234 0.12987189 0.15894264 0.18076171 -0.040497884 -0.06275396 0.18966633
-0.030668795 0.17045295 0.21918356 0.13344887 0.09347104 -0.08598741 -0.07716134 -0.02387787
0.055089116 -0.07035778 0.23764421 -0.08222326 -0.01063803 0.1701937 0.0039169886 0.20751816
0.12366997 0.23926814 0.114721976 0.184041 -0.11101572 0.049871244 0.15363187 0.07273936
0.0819591 -0.07312735 0.12031711 0.10893949 -0.071943894 0.06368055 0.16810063 -0.12257212
0.065659724 0.1503183 0.22098818 -0.16471079 0.13387851 0.19151045 0.16074754 -0.061545324
0.036165733 -0.0025706603 0.030252289 0.034164697 0.020198401 0.14177716 -0.06887168 -0.051517442
0.034552336 -0.13420497 0.24294473 0.18203941 -0.060756996 0.18401231 0.0043768473 0.10089041
-0.17423615 0.088337034 0.14465357 -0.032264207 0.07335449 -0.019224182 0.12061672 0.17222172
-0.17048256 -0.18217924 0.18850762 -0.056640513 -0.18143241 0.05147442 -0.15494838 0.16600698
0.12245614 0.07094067 0.007302783 -0.10739173 -0.10821469 -0.07238169 0.0010348596 0.20747547
-0.12518635 0.22547396 -0.08123927 0.014417334 0.10425893 0.07128641 -0.051074997 0.26343867
0.00037543438 0.2256761 0.04362968 0.07268206 0.022359895 -0.025556078 -0.09232472 -0.07698468
0.047506984 0.14993806 0.24077784 -0.08384025 0.014780114 0.082503945 0.13493925 -0.0068663945
-0.032981295 0.09735588 0.038576223 -0.08793239 0.19151583 -0.035727214 0.21476665 0.06507686
0.22563693 0.010079971 0.019074254 0.13187845 -0.046445847 0.02373541 0.12880468 0.15152322

lstm.bias_hh_l0_reverse f4 [128]
00000000: 79fc 653d 83e3 80bd 1f64 833e c032 963d
00000010: 8376 423e aa08 2a3e 1961 b1bc 5757 e3bd
00000020: 0a02 dbbb 0e9a 853d eb84 e63d 0af4 a5bd
00000030: fccf 42bd 9b9b 813e 6109 3dbd fd4a 333e
00000040: 56e9 efbc 6c87 0d3e 9f5e a63c a60a 9fbd
00000050: 0105 403e b67e 373e 14ea b53d abf4 9abd
00000060: ddb6 bc3d af21 e9bb 5eca fa3d 3e59 a73c
00000070: 6c0d 36bd 3a5d 983e be49 583e 8773 ec3d
00000080: e088 8cbc 5e8f 0abe a31b b1bc fb7f 213d
00000090: 9ab7 1a3e 8222 f73c 0dbc 503e 9243 383e
000000a0: 0e6c da3c 5c6b a73d 11db 643e a11b 9f3d
000000b0: 9708 143e 89f1 073d c31b ae3d 21d6 703e
000000c0: 882d 4d3e 229f 023e 1ad0 bfbd 5727 163e
000000d0: 033c debd 8310 b2bd f676 ee3d f7e7 033e
000000e0: 1528 1d3e a2bd 0c3e fb63 403e 9011 ec3d
000000f0: bb45 083e 2aeb 29bd 6a0f 6cbd 2053 113e
00000100: 7850 a2bd cbd2 003e 0652 a63d 38a2 193e
00000110: e1e1 16be 1359 55bc 8588 83bd b3ee 0cbe
00000120: d7bd a23c 618c cb3d 38a9 953c fe66 d8bd
00000130: 9a8f d83d 6b0b 0e3e e8bc f4bd b9bf c7bd
00000140: 8cc1 d43d d160 34be feb6 303d 0f70 413d
00000150: e080 1dbb 40e8 0cbe 9711 03be f04d 4e3d
00000160: 52c6 123e 3cc2 2f3d 364a 3ebe 7815 d7bd
00000170: efed 823d 5cf7 d63d 1d20 56bd d1c9 063e
00000180: 604b 5c3e f626 0a3d 9bc1 abbc ab70 883e
00000190: faa5 a83d b7ac 2dbd bbc0 cf3d c105 a63d
000001a0: 3723 cfbd 2a26 453e 9c5c 1a3e d4bc 15be
000001b0: 9929 343e 0216 4b3b 94f1 623d 7c1d a13e
000001c0: 813b 0bbd 8ccb 073e 8125 f0bb fbec 2fbd
000001d0: 0134 143e 7006 083e bfc3 5ebd 509e 333e
000001e0: f8c4 2dbd 6d52 5c3e 297b 8d3e d9ef 443e
000001f0: 89a9 503d 487e 86bd a749 1b3e 2071 293d
0.05614898 -0.062933944 0.25662324 0.073338985 0.18990521 0.16604868 -0.021652745 -0.11100643
-0.0066835927 0.06523524 0.11255821 -0.081031874 -0.04756163 0.2531403 -0.046151523 0.17509075
-0.029286068 0.1382119 0.02030879 -0.07765703 0.18751909 0.1791943 0.088825375 -0.07566198
0.09214566 -0.007114611 0.1224563 0.020428296 -0.044446394 0.29758626 0.2112188 0.115454726
-0.01715511 -0.13531253 -0.021619624 0.039428692 0.15109101 0.030167822 0.20384236 0.17994526
0.026662853 0.08174774 0.22349192 0.07768942 0.14456402 0.03318933 0.08501389 0.23519184
0.200369 0.12756017 -0.09365864 0.14663444 -0.1085129 -0.086945556 0.11643784 0.12881456
0.15347321 0.13744214 0.1878814 0.11526787 0.1330785 -0.041484036 -0.057631887 0.14191866
-0.079255044 0.12580411 0.081211135 0.15003288 -0.14734603 -0.013021725 -0.064225234 -0.13762932
0.019865913 0.099388845 0.018269166 -0.10566519 0.10574265 0.13871543 -0.119500935 -0.09753365
0.10388479 -0.17615058 0.043143265 0.047226008 -0.0024033114 -0.13760471 -0.12799679 0.050367296
0.14333466 0.042909846 -0.18582997 -0.10502142 0.063930385 0.10496399 -0.05227672 0.13162924
0.21513128 0.033728562 -0.020966342 0.2664846 0.082347825 -0.04240104 0.10144182 0.08106566
-0.101141386 0.1925284 0.1507439 -0.14622813 0.17593993 0.003098846 0.055406168 0.31467807
-0.033992294 0.1326124 -0.0073286896 -0.04295061 0.14472963 0.13283706 -0.054385897 0.1754086
-0.042424172 0.21515818 0.27633026 0.1923212 0.05094293 -0.06567055 0.15164815 0.04136765

lstm.weight_ih_l1 f4 [128, 64]
00000000: b5a1 943c 6d1d 7cbc 3aea e5bc f1a1 363d
00000010: 8652 8a3e 68fc 0f3e 00b5 003d f6f4 443e
00000020: b799 793d 7349 5f3d dde5 95be f049 69bd
00000030: 20b9 bcb8 fad9 57be 4fda cd3d ba06 d63d
00000040: eff8 92bd aeaf 803d 9ff2 04be d6be 043e
00000050: 21e7 e83d ec94 c6bd a273 443e 9f70 a23c
00000060: cb0f fdbd 3ae1 41bd 1142 c83d a8b2 223d
00000070: 68d4 023e 7a85 a9bc 5485 bcbd e8e7 5fbd
00000080: c329 82bd a878 273e f630 ef3d cb79 343e
00000090: c920 75be b6ce 05bc 07a0 c0bd 9916 603e
000000a0: 0881 003c 678a 2ebd 09da 053e 7632 32be
000000b0: e303 79be 6d2e 1dbe 8f58 5abe 8fdf 0dbe
000000c0: 48cc cfbd 87db 88bd eb26 6d3c 98e7 033e
000000d0: 319c 08bd baea 223d edbd d23c 0ce4 14bb
000000e0: ee4c 4a3e df82 063d 107e bc3c f7b9 b6bd
000000f0: 0207 8f3e 71c1 00be 6677 983d eda3 893e
00000100: 7aa8 01be 0d53 56be 849d 91be c82f 7dbe
00000110: d1a1 b0bd cf0d 613c 3b6c 453e 39cd 93bc
00000120: 98b1 f43d 3bc2 0e3d 9f99 4b3e 58d6 3e3d
00000130: 0c80 0fbe 7d72 debc cf30 d43d d067 7d3d
00000140: a0a5 813e 7c72 09be c9ae 30be 0691 84be
00000150: 2ca6 9b3b 3791 2c3b 8ee4 0cbe d49a 6a3e
00000160: aab5 10bd 54d2 f1bc db06 50bd 1f77 ee3c
00000170: 4579 debd d0aa 8abc 2453 583e 7e0b b9bd
00000180: 02a4 b13d 33b3 0bbe 938a 2cbe 6066 3e3e
00000190: 19c4 8b3c 8d5a c4bd 0775 9fbd c2f6 1ebd
000001a0: 8eb1 8bbd a381 1a3d 7b4c 443d 7c5a 65be
000001b0: 4dd2 c1bb 587b 073d 40e0 233d fc9b 87be
000001c0: bea1 6a3d cedc 1abe 1257 ffbd 68ce 2e3e
000001d0: 6f53 0dbe a5b2 0abe 500e 13be 68e8 9a3d
000001e0: 78ba 0b3e 71a0 233b e225 653d cd5b 72be
000001f0: d9b5 a4bd e69e 323e df0f 12be 33cf a3bd
00000200: 2289 283d 6348 99bd 52c9 efbc 1854 3abd
00000210: ebd7 0b3e 2c4a 6fbd 5f86 b1bb b0d3 8c3e
00000220: ea66 3bbe 41c1 1fbd 91f2 5e3c 53eb 963d
00000230: 71cc 173e 60b3 60be 353b 59be e82e bdbd
00000240: 1347 89be 1f21 97bd b7ca 323d 44db d63d
00000250: e072 813d b5c7 4a3e 9d5b b3bd f1af f2bd
00000260: a9c4 2a3b 61de 86be a3ed 973e 944c 99be
00000270: 1cc4 223d cd48 76bd 879b a43d 40ab f43c
00000280: 5d37 50be b484 893e b9c0 983e a745 9ebd
00000290: 59b3 04be c83c 6abe fcae 3ebe b2ba c43e
000002a0: 3c1e 193d fc79 853e fca3 79be e44a b5bd
000002b0: 0ee1 b4be deb2 493e 9794 7dbd 4ab7 003e
000002c0: 8f79 01be 9a6d 323e b122 9b3d 8883 a0be
000002d0: 920f 323e c91d 8cbd df55 853d 4488 423e
000002e0: e827 913e 993d f1bc 6c3b a8be 6ce4 1b3e
000002f0: b4e5 8a3e 08cc fdbd cdb4 7dbe 0623 1e3e
00000300: 286e 083e 6124 e63d aa2b 24be cd6b 60bd
00000310: 99cf 0dbe 073a 03bd 26b0 763e ecb0 f1bd
00000320: 2c0c 383d 1988 02be 59cb 393e a715 8e3c
00000330: df9e 4ebb 9edb 7bbe eac9 6f3e 936c 803e
00000340: 0989 d5bd f9ca 4cbe d848 1ebe 3d9a e3bd
00000350: cbf8 acbd 20b7 6a3d b03d 493e 6e17 a53d
00000360: 7572 dc3d 2390 7d3d c4ae 8c3d 3696 2fbe
00000370: d86c 2e3d 8266 ab3d 1ecc f23d a254 0c3e
00000380: 0164 ccbd 0bc2 f3bd f76f 813a d008 a73d
00000390: 0210 043d 108e 033e 3df8 1dbe 2a2d 39be
000003a0: 2e7b cbbd 3641 433e 1076 643c 6176 a1bd
000003b0: dd6a 52bc ff4b acbc bf58 f53c d836 d5bd
000003c0: f4ab 443e bddc 1b3e fd25 bcbe a936 05be
000003d0: 2807 94bd 7766 08be 46f5 233e c1c7 8a3d
000003e0: 83a5 3dbe fd78 1d3e 4f89 e03d 94d3 71be
000003f0: a7e4 383e b227 dfbd 4ac7 753d 4c18 7f3d
0.018143514 -0.015387875 -0.02806579 0.044588033 0.27016085 0.14061129 0.031422615 0.1923407
0.06093761 0.054513406 -0.29276934 -0.056955278 -8.999021e-05 -0.21079245 0.10051405 0.10450502
-0.071763866 0.06283508 -0.12983178 0.12963423 0.11372209 -0.09696373 0.19184735 0.019829093
-0.12356528 -0.047333933 0.09778226 0.03972116 0.12776339 -0.02069353 -0.09205118 -0.054664522
-0.06355622 0.1635462 0.116792604 0.17624585 -0.23938288 -0.0081669595 -0.09405523 0.2188362
0.007843263 -0.04261246 0.13071455 -0.17402062 -0.24317889 -0.15349741 -0.21322845 -0.13854812
-0.101463854 -0.066824965 0.014474611 0.12881315 -0.03335208 0.039774634 0.02572533 -0.0022718934
0.19755909 0.032839652 0.02300933 -0.08922189 0.27935034 -0.12573792 0.074446484 0.26882878
-0.12661925 -0.20930119 -0.28440487 -0.24725258 -0.08624614 0.013736202 0.19279568 -0.018042194
0.11947936 0.0348532 0.1988282 0.046591133 -0.1401369 -0.027154202 0.10360872 0.06186658
0.25321674 -0.13422579 -0.17254175 -0.25891894 0.004750034 0.0026331672 -0.13759062 0.22910625
-0.0353295 -0.029519238 -0.050787788 0.029109536 -0.10862974 -0.016927153 0.21125466 -0.09035395
0.0867386 -0.13642578 -0.16849737 0.1859374 0.01706128 -0.09587584 -0.07785993 -0.038809545
-0.06820975 0.037721287 0.0479245 -0.22397798 -0.0059149624 0.033076614 0.040008783 -0.26486194
0.057283156 -0.15123293 -0.12467779 0.17070925 -0.13801359 -0.1354471 -0.14360929 0.07563859
0.13645351 0.0024967457 0.05594433 -0.23667832 -0.08042497 0.17443427 -0.14263867 -0.079985045
0.041146405 -0.0748451 -0.029270802 -0.045490354 0.13656585 -0.058420345 -0.0054176296 0.27505255
-0.18300977 -0.03900266 0.013607637 0.07369103 0.14824082 -0.21943426 -0.21213992 -0.09237462
-0.26812038 -0.07379364 0.043650355 0.1049104 0.06320739 0.19802745 -0.08757708 -0.118499644
0.002605716 -0.26341537 0.2967349 -0.29941237 0.039737806 -0.060128022 0.08037477 0.029866815
-0.2033362 0.26859057 0.29834536 -0.07728129 -0.1295904 -0.22874749 -0.18621439 0.38423687
0.03738235 0.2606963 -0.24378961 -0.08852175 -0.35327953 0.19697139 -0.061909284 0.12569919
-0.12644027 0.17424622 0.07574976 -0.3135035 0.17388752 -0.068416186 0.06510519 0.18997294
0.2835076 -0.029448317 -0.32857835 0.15223855 0.27128375 -0.123924315 -0.24776001 0.15443048
0.13323271 0.112374075 -0.16032282 -0.054790307 -0.13848723 -0.03203776 0.24090633 -0.11801323
0.044933483 -0.1274723 0.18143977 0.017344309 -0.00315278 -0.24595496 0.23416868 0.25082836
-0.10426528 -0.19999303 -0.15457475 -0.11113403 -0.08445891 0.057303548 0.19652438 0.080611095
0.107640184 0.061905038 0.068692714 -0.17147145 0.04258427 0.08369161 0.118553385 0.1370416
-0.09980012 -0.11902245 0.0009875287 0.08155978 0.03224183 0.12847161 -0.15426727 -0.18083635
-0.09935604 0.19067845 0.013944164 -0.07883907 -0.012842861 -0.021032332 0.029949544 -0.10410851
0.1920622 0.15220924 -0.36747733 -0.13009132 -0.072279274 -0.13320337 0.16011533 0.06776381
-0.18520169 0.15378185 0.109636895 -0.23615867 0.18055974 -0.10896243 0.06000451 0.06227903

lstm.weight_hh_l1 f4 [128, 32]
00000000: e18f e33c ba43 1ebc 54dd d33d 5bcd dc3d
00000010: 49db 913d ba75 abbe 9a0a da3d 0702 cabd
00000020: f971 3d3e 3c4c 46be 3a2e 5d3e 5d5d 68be
00000030: b775 303d f8b2 09ba 254a ed3c 52bc f1bd
00000040: 4be5 3fbe d3a0 633d eeb3 17be 9e36 1bbe
00000050: a495 5ab8 368e 0e3e 330e 9abd 3159 db3d
00000060: af64 a43e 7653 12be 4368 86bd c6d1 45bd
00000070: 27ee 403e 9960 bd3c e88a 843d c1d0 033e
00000080: 6b38 e23d f4b6 0bbd 38d8 063c 6bfa db3c
00000090: abe7 23bc 8aae 15be 67cb 3c3e 15b3 883c
000000a0: 63f8 0a3d c495 d93d 6727 823d ac3f f0bd
000000b0: c5e6 5fbd dd15 e7bc 6d89 14be 6372 55be
000000c0: 6a2b 1f3e 1166 33be 0a01 1abe 96dc 523c
000000d0: e19f 5b3e 1195 ed3d a5e2 653d a2ac 87bd
000000e0: ed54 5bbd 3e46 863d a8c2 19bd 35d5 4b3d
000000f0: abf7 233e 0d5b 1dbe cb29 26be fe9d 123c
00000100: eb0a cd3d 5181 023c 7cf3 61bd 4bd4 963d
00000110: 2c00 6e3d 64eb 66be a076 52bd ee28 dbbb
00000120: 48e7 703e 5174 78be e2ae 90bc 339c 893c
00000130: 88f1 08be fdcc 7a3e 3803 083d 572f 653e
00000140: 0728 bebd 883a 0c3e 2204 72bd 2c84 1f3e
00000150: 8466 76be 4590 643d cdf4 00bd f380 f8ba
00000160: 2da8 2f3e 522b 10be 26ea 96bd 35f7 8d3d
00000170: 0d6e d8bd 8201 483d ad88 353e 3531 e1bd
00000180: 5147 173e 602d 02be ec02 543d 0873 bebd
00000190: cddb 98be 1b8e d93d a13e 0e3d 1001 18be
000001a0: eaff 2ebe b974 12bd 31e4 fbbd 6a05 893d
000001b0: ba07 a2bd 8654 b6bd 17fa 933c 1839 e43d
000001c0: 74ab 34be 7ab6 0abe 0c60 9c3d ba59 68be
000001d0: f62f 57bd 394f d5bd 6c89 003c eaa6 fa3d
000001e0: ea2e 1f3e 428c bf3d 8e6d 3a3e fe3e 9abd
000001f0: 4502 e73d b457 bcbd d874 a1bd d708 25be
00000200: 737e 2e3d ec5a c73d 8d50 8a3e e70a 2d3d
00000210: b46b b5bc 89ba ad3c 85e2 d4bd 9a0b 023d
00000220: b281 37bd 1ee0 14be 704a 10bd e2cd 78be
00000230: 4197 393e 90c5 04be 3d7a d43c 52ee 153e
00000240: 408b 82be 0b2d 22be 258c dfbb 6b05 94bc
00000250: e3fc 9ebd 7e9d 96bd efa2 303e cba7 e13c
00000260: 8666 073e 4c92 66bd d2c5 debc da09 1fbd
00000270: d77f b9bd b052 eb3d f186 e6bd b669 acbd
00000280: afd5 3d3e 93a7 51be f7f4 27be dc6a 9f3d
00000290: ada2 2d3e f842 25be a9e8 203e 95d8 25be
000002a0: dda9 ca3d 5520 943d 3527 393e 1294 32be
000002b0: b16f 1ebd c0be 37be e74c 183d df1c 523d
000002c0: f11a 37bd b3b0 4e3c e2a2 fe3d 1517 1abd
000002d0: a63d 313e 8d0c fc3d aaad d23c 8b0e 133e
000002e0: bb98 633c 0984 20be ab7d 8bbb 959c 103e
000002f0: 2ba8 213e e416 fc3d 67d4 e73d 0d34 57bb
00000300: 4d8e 473e 0f15 ddbd 573d 093c b12c 1f3d
00000310: 720f 47bd 3a0c d5bd 3d31 f3bd cf48 adbe
00000320: b2b1 513d c8a3 393d 21f0 ed3d 5b10 08be
00000330: d907 153e 38e0 d0bd aa05 083e 4c6b f63c
00000340: cb7d 47bc 45dc 5cbe ddf6 97bd 79c3 7d3d
00000350: 2c96 2c3e ac46 33bd e6bf cd3d 3db2 463c
00000360: 75ce 393e f671 8abd 29bf 0f3e 9b1d 813e
00000370: bc12 a43d 5b40 113e 31be c8bd ad0a b63d
00000380: 99fe 283e 1a84 293d 9cdd 163e 2211 59bd
00000390: f444 99bd a90e 43be 05ee d13d 2c0d a63c
000003a0: d758 343e cf4a 16be fbfc c43d c711 a13d
000003b0: 5886 493e 6093 ab3c 7f50 1a3b e33c 433e
000003c0: b412 2bbe 6e5a 9e3d b654 27be cbe9 90bd
000003d0: 2a7c 713e b03c 413e f08f 9dbd f4be aa3c
000003e0: aaee 393e 0733 c93d 00a5 5cbe d672 cfbd
000003f0: 89ee 853c 6dd7 103c 1093 513d 4f81 d33c
0.027778568 -0.009659702 0.10344949 0.10781356 0.071219034 -0.33488256 0.10646553 -0.09863668
0.18500508 -0.19365019 0.21599665 -0.22691865 0.04308101 -0.00052528037 0.028966019 -0.118034974
-0.18739812 0.055573296 -0.14814731 -0.15157554 -5.2114614e-05 0.13921437 -0.075222395 0.10710371
0.32108065 -0.1428965 -0.06562855 -0.04829576 0.18840848 0.02311735 0.06471807 0.12872602
0.11045917 -0.034110025 0.0082302615 0.026852807 -0.010003964 -0.14617363 0.18436967 0.016686955
0.033928286 0.10624269 0.06355172 -0.117308944 -0.05466344 -0.028208667 -0.14505549 -0.20844416
0.15543905 -0.17519404 -0.15039459 0.012869975 0.21447708 0.11600698 0.05612435 -0.06624724
-0.05354779 0.065563664 -0.037539154 0.049763877 0.16012447 -0.15366764 -0.1622688 0.008948801
0.10011848 0.007965402 -0.055163845 0.073647104 0.058105633 -0.22550732 -0.05138266 -0.006688229
0.23525727 -0.24263121 -0.017661516 0.016798114 -0.13373387 0.2449226 0.033206195 0.2238134
-0.09284978 0.13694203 -0.059085973 0.15577763 -0.24062544 0.05580165 -0.03148346 -0.0018959328
0.17153998 -0.14079025 -0.07368879 0.069319166 -0.105678655 0.048829563 0.17727919 -0.109957136
0.14773299 -0.12712622 0.0517606 -0.09299284 -0.29855195 0.106228076 0.034727696 -0.14844155
-0.17089811 -0.035755847 -0.122993834 0.06690486 -0.0791163 -0.0890284 0.018063588 0.11143702
-0.17643529 -0.13546172 0.07635507 -0.22690478 -0.052535973 -0.10415501 0.007845264 0.122388676
0.1554524 0.09352924 0.18205854 -0.07531546 0.1127973 -0.091964155 -0.07883614 -0.16116653
0.04260106 0.09734139 0.2701458 0.042246725 -0.022146083 0.021207111 -0.10394768 0.031749345
-0.04480142 -0.14538619 -0.03522724 -0.24297288 0.18124105 -0.12965989 0.025937194 0.14641693
-0.25496864 -0.15837495 -0.0068221265 -0.01806899 -0.07763078 -0.07354258 0.17249654 0.02754583
0.13222703 -0.056291863 -0.027193937 -0.038827755 -0.09057587 0.11490381 -0.11256207 -0.084186
0.18538545 -0.2047408 -0.1640204 0.07784054 0.16956587 -0.16138828 0.15713753 -0.161959
0.0989568 0.07232729 0.18081363 -0.17439297 -0.038680736 -0.17943859 0.037182715 0.051297065
-0.044703428 0.012615371 0.12433411 -0.03761967 0.17308673 0.12307081 0.025717575 0.14361016
0.013891394 -0.15675367 -0.004256924 0.14122231 0.15786807 0.123090535 0.113198094 -0.0032837421
0.19487877 -0.10795032 0.008376441 0.03886098 -0.048598714 -0.10402723 -0.11874626 -0.3384461
0.051194854 0.04532221 0.116180666 -0.13287489 0.14553775 -0.10199016 0.1328341 0.03008046
-0.0121759875 -0.21568401 -0.07420132 0.061953995 0.16854161 -0.04376857 0.10046367 0.012127456
0.18145163 -0.067600176 0.14037766 0.252179 0.08011386 0.14184706 -0.09801901 0.08888755
0.16503371 0.041385747 0.14732975 -0.052994855 -0.07483855 -0.19048561 0.10250477 0.020269953
0.17612015 -0.14676975 0.09618565 0.07864719 0.19680154 0.020944297 0.0023546515 0.19066195
-0.16706353 0.07732092 -0.16340908 -0.070758425 0.23582521 0.18870807 -0.076934695 0.020843007
0.1815745 0.09824186 -0.21547318 -0.10129325 0.016349094 0.008840424 0.05116564 0.025818495
