trained_models/mESC_left_out_model.pth (torch, 151526 bytes, 18 tensors)

lstm.weight_ih_l0 f4 [128, 9]
0	0x3d60a3a0	0.054843545
1	0xbe1d0a58	-0.15335977
2	0xbd01019c	-0.031495675
3	0x3dc85a06	0.097827956
4	0xbe6891b1	-0.22711827
5	0x3df69bc4	0.12041429
6	0x3c9598ff	0.01826143
7	0x3d4efabe	0.050532095
8	0xbcfcf584	-0.03087879
9	0xbd7c8498	-0.06164989
10	0xbd326fa8	-0.043563515
11	0x3d015b05	0.031580944
12	0x3d911779	0.07084555
13	0x3d00cc5b	0.03144489
14	0xbc35da0d	-0.011099351
15	0xbd66c87a	-0.056343533
16	0xbc951801	-0.018199923
17	0xbc85f15e	-0.016350444
18	0x3dffabf6	0.12483971
19	0x3e296b89	0.16544928
20	0xbd948e7b	-0.072537385
21	0xbdddd416	-0.10831468
22	0x3b36c261	0.0027886855
23	0xbdf8d3da	-0.121497825
24	0xbdd55533	-0.10416641
25	0x3be0ba07	0.0068581137
26	0xbd2539e8	-0.040338427
27	0x3e1e2e0d	0.15447254
28	0xbe8ba564	-0.2727462
29	0x3d54b815	0.051933367
30	0x3df91b4c	0.121634096
31	0x3e838802	0.25689703
32	0x3e31ec34	0.1737526
33	0xbd4c3859	-0.049858425
34	0xbda41604	-0.08012012
35	0xbe7fd689	-0.24984182
36	0x3e1906af	0.14943956
37	0xbe103fe2	-0.1408687
38	0x3cdcbbfd	0.026945109
39	0xbe1a9041	-0.15094091
40	0x3dbf3542	0.0933633
41	0xbe25d929	-0.16196121
42	0x3dfabf3a	0.12243505
43	0xbd4479c8	-0.047967702
44	0xbc709f16	-0.014686367
45	0x3cb4f6d7	0.022090359
46	0xbdedcf47	-0.11611801
47	0x3dcbd43c	0.0995259
48	0xbd8b855d	-0.068125464
49	0x3b7a1be0	0.0038163587
50	0xbe3812da	-0.17975941
51	0xbdc1e0ee	-0.0946673
52	0x3df8875b	0.12135192
53	0xbc761a8d	-0.015020979
54	0x3e35aef7	0.17742525
55	0x3dac8a6f	0.084248416
56	0xbd4ae40d	-0.049533892
57	0xbdc5c41f	-0.09656548
58	0x3d38fc17	0.045162287
59	0x3df99ada	0.12187739
60	0xbdf7d703	-0.12101557
61	0x3df9b3c3	0.1219249
62	0xbd2ca0c8	-0.04214552
63	0x3e410ab6	0.18851742
64	0xbde0bb29	-0.10973198
65	0xbd8e9cc4	-0.069634944
66	0xbd251a76	-0.04030844
67	0x3d168a1f	0.036752816
68	0xbe2cebf4	-0.16886884
69	0xbd6e797d	-0.05822133
70	0x3d9cacb9	0.07650132
71	0x3d52f260	0.051500678
72	0x3d918835	0.071060576
73	0x3d73eded	0.059553076
74	0x3da4e988	0.08052355
75	0x3d8fe0e4	0.07025316
76	0x3dad5ca6	0.08464937
77	0x3db4f6da	0.08836146
78	0xbe00ae33	-0.12566452
79	0x3de3379c	0.11094591
80	0xbe3dbe30	-0.18529582
81	0xbe101ea1	-0.14074184
82	0x3be471f6	0.006971593
83	0x3c6618c9	0.014043995
84	0x3dc9a2d5	0.09845511
85	0x3aa4f46c	0.001258505
86	0xbe6e6370	-0.2328012
87	0x3e4f0356	0.20216116
88	0xbab4a755	-0.0013782779
89	0x3e8bae5a	0.27281457
90	0x3d21564f	0.03938895
91	0xbe460f01	-0.19341661
92	0x3a8df64a	0.0010830846
93	0xbb91bb37	-0.0044473666
94	0xbd95b703	-0.07310297
95	0xbdca6fce	-0.09884606
96	0xbb691404	-0.0035564909
97	0x3cb7bdf8	0.022429451
98	0xbd8d7906	-0.06907849
99	0xbe01dbeb	-0.12681548
100	0x3e23188b	0.15927331
101	0xbd2fa3d1	-0.042880837
102	0x3d202f4a	0.0391076
103	0xbcae44d3	-0.021273052
104	0xbe70cbc2	-0.23515227
105	0xbe288d97	-0.16460262
106	0x3e4b06b1	0.19826771
107	0xbc1d48c8	-0.009599872
108	0x3e0e5526	0.13899669
109	0xbddeab5a	-0.108725265
110	0x3db0ccb1	0.08632792
111	0x3e08f669	0.13375248
112	0x3cf8c7f8	0.03036879
113	0xbdfcfc4d	-0.1235281
114	0x3d10b57b	0.035329323
115	0x3db6fa77	0.08934491
116	0x3e5828a7	0.21109258
117	0xbbb7d08f	-0.005609579
118	0xbe7f8a51	-0.24955107
119	0xbe823b10	-0.25435686
120	0xbe3d418a	-0.18482032
121	0xbde72105	-0.11285595
122	0x3e1c9a0f	0.15293144
123	0xbe0227bc	-0.1271047
124	0x3ca3c18e	0.019989755
125	0xbe13d5d9	-0.14437045
126	0xbe6f4fda	-0.23370305
127	0xbe3d8cfc	-0.18510813
128	0x3d34ff01	0.044188503
129	0x3e0cc43e	0.13746735
130	0xbe29324b	-0.16523091
131	0x3da5b27f	0.08090686
132	0x3d30eb91	0.043193404
133	0x3d2d1508	0.042256385
134	0xbc81b3c1	-0.015832784
135	0x3e15d184	0.14630705
136	0xbd9b4355	-0.07581202
137	0xbd3fb3f2	-0.04680247
138	0xbe20c695	-0.15700753
139	0xbe055e75	-0.13024314
140	0xbde48394	-0.11157909
141	0x3c04a26c	0.008095365
142	0xbd5bd627	-0.05367103
143	0x3d307737	0.043082442
144	0x3d7d6751	0.06186611
145	0xbe251858	-0.16122568
146	0x3db08c7e	0.08620547
147	0x3de8afb4	0.11361638
148	0x3df85264	0.1212509
149	0x3dd523b5	0.10407201
150	0xbe0370ac	-0.1283595
151	0x3e13a258	0.14417398
152	0xbcc1a815	-0.023639718
153	0xbe56e77d	-0.20986743
154	0xbda37600	-0.07981491
155	0xbe08ee22	-0.1337209
156	0xbe719a1a	-0.23593941
157	0xbd9cfc94	-0.07665363
158	0xbc941f3f	-0.018081306
159	0xbde44912	-0.111467496
160	0xbe49eaf4	-0.19718534
161	0x3d2b7a01	0.0418644
162	0x3d09f42e	0.033680134
163	0x3ccc94d7	0.024973316
164	0xbdc33605	-0.09531788
165	0x3d82d5a9	0.06388409
166	0xbe07d45e	-0.13264605
167	0xbd01ea65	-0.031717677
168	0xbdbde005	-0.09271244
169	0xbd83e02a	-0.0643924
170	0x3bac0556	0.0052496595
171	0x3cf68721	0.030093731
172	0x3d85bb38	0.0652985
173	0xbca11b02	-0.019666199
174	0x3e11549b	0.1419243
175	0x3e0281c5	0.12744816
176	0x3e09028a	0.13379875
177	0x3bfdca1e	0.0077450415
178	0xbe055a29	-0.13022675
179	0x3dd849d6	0.10560958
180	0xbdc27e11	-0.094967015
181	0x3d356eeb	0.044295233
182	0xbe43443a	-0.19068995
183	0xbd1223bc	-0.03567861
184	0xbe0a9f85	-0.13537414
185	0x3e0cc310	0.13746285
186	0xbe8871fa	-0.26649457
187	0xbe583856	-0.2111524
188	0xbdaf7d9e	-0.085688815
189	0xbe264628	-0.162377
190	0xbcf7274c	-0.030170105
191	0x3adbcd6c	0.0016769595
192	0xbe10ae53	-0.14129
193	0x3d4b3dfe	0.049619667
194	0x3dff4598	0.12464446
195	0xbe18ba06	-0.14914712
196	0x3e00ae17	0.1256641
197	0x3e4886e7	0.19582711
198	0x3e1c8fb7	0.15289198
199	0xbe9b2b55	-0.30306497
200	0x3d28b766	0.041190527
201	0xbe26ea8c	-0.1630041
202	0x3d212dae	0.039350204
203	0xbe071121	-0.13190128
204	0x3d974a75	0.073872484
205	0xbd5242a0	-0.05133307
206	0x3d970e45	0.073757686
207	0x3b606d13	0.00342447
208	0xbb88143e	-0.0041528037
209	0x3d3338c4	0.043755308
210	0x3c1ee1ea	0.009697417
211	0x3ca6f20e	0.020379093
212	0xbe41737f	-0.18891715
213	0x3e233c54	0.15940982
214	0x3e0a6344	0.1351443
215	0x3d95554d	0.072916605
216	0x3dcda6b2	0.1004156
217	0xbdef8553	-0.116953515
218	0xbddf3950	-0.10899603
219	0x3e147672	0.14498308
220	0xbe34ead3	-0.17667703
221	0x3e5b8548	0.21437562
222	0xbe03c815	-0.12869294
223	0xbdf49a09	-0.119434424
224	0xbc66a03d	-0.01407629
225	0xbe427b39	-0.18992318
226	0xbd0805ef	-0.033208784
227	0x3e139a73	0.14414386
228	0x3e1acc59	0.15117015
229	0x3e4549e0	0.19266462
230	0xbd7e2be6	-0.062053584
231	0xbe247ebd	-0.16063972
232	0x3e3673ce	0.17817613
233	0xbcb46f52	-0.022025738
234	0xbdbdfb6f	-0.09276473
235	0xbd35f31a	-0.044421293
236	0xbd654dc1	-0.055982355
237	0x3e0e8bb3	0.13920479
238	0x3e3bc4c3	0.18336777
239	0xbdf5f247	-0.12009101
240	0xbe18e661	-0.14931633
241	0xbcebe7a7	-0.028796984
242	0xb86da507	-5.6658897e-05
243	0xbd88786f	-0.06663596
244	0xbe33d056	-0.17559943
245	0xbb3c775f	-0.0028757674
246	0xbe117d85	-0.14208038
247	0xbe0f42df	-0.13990353
248	0xbde198bf	-0.11015462
249	0x3daed4cd	0.08536682
250	0x3e1f6766	0.15566787
251	0xbd363e8a	-0.044493236
252	0xbd8028f8	-0.06257814
253	0x3dcf4b2f	0.10121762
254	0x3c8b2bee	0.01698872
255	0xbdb790e4	-0.089631826

lstm.weight_hh_l0 f4 [128, 32]
0	0xbe1e83e6	-0.15480003
1	0xbdddb870	-0.10826194
2	0xbb965b18	-0.004588496
3	0xbde39d02	-0.11113931
4	0x3e286168	0.16443408
5	0xbd58114e	-0.052750878
6	0xbd533239	-0.051561568
7	0xbd01ff06	-0.03173735
8	0xbe03af98	-0.12859952
9	0x3e049590	0.12947679
10	0x3e162df0	0.14665961
11	0xbe024c0a	-0.12724319
12	0x3ccd991f	0.025097428
13	0x3e4d10ed	0.20025988
14	0xbd72c6bc	-0.05927156
15	0x3db3f02a	0.08786042
16	0xbe31fc3f	-0.1738138
17	0xbe5370bd	-0.20648475
18	0xbc517515	-0.012784262
19	0xbde886b0	-0.113538146
20	0x3e02f37b	0.12788193
21	0x3a5434de	0.0008095036
22	0x3c8ac792	0.016940866
23	0xbd934e32	-0.07192649
24	0x3d80316f	0.06259429
25	0x3e24d777	0.16097818
26	0xbd415831	-0.047203247
27	0xbdedc593	-0.1160995
28	0xbe7542ee	-0.23951313
29	0x3e785187	0.2424985
30	0x3df033cb	0.11728629
31	0x3dfed9a0	0.124438524
32	0x3cd8f7bd	0.026485318
33	0x3e02d80f	0.12777732
34	0xbc106628	-0.008813418
35	0x3d9ae4c0	0.07563162
36	0x3e2a2ecb	0.16619413
37	0x3dd96010	0.106140256
38	0x3e3c4633	0.18386154
39	0x3e58ff95	0.21191247
40	0xbce63a67	-0.02810402
41	0x3cd25b2c	0.02567824
42	0x3b1e3f72	0.0024146703
43	0x3db0a227	0.08624678
44	0x3db40ea1	0.08791853
45	0xbd0359fc	-0.032068238
46	0x3d42a011	0.047515932
47	0x3da0f8f8	0.07859987
48	0xbc933c81	-0.017973186
49	0x3dee1055	0.11624209
50	0x3dfb6b0e	0.122762784
51	0x3cf386a0	0.02972728
52	0x3d201915	0.03908642
53	0xbdcd43e3	-0.10022714
54	0xba2ebc57	-0.0006665638
55	0x3ca479ee	0.020077672
56	0xbe192e79	-0.14959134
57	0xbe5fce66	-0.21856079
58	0x3e07ae30	0.13250041
59	0xbb993108	-0.0046750344
60	0xbe14560a	-0.14485946
61	0x3d6772c4	0.056505933
62	0x3e0549c4	0.1301642
63	0x3e1088af	0.1411464
64	0x3dffa180	0.124819756
65	0x3c923a5e	0.017850097
66	0xbd8e8e42	-0.06960727
67	0xbe8c77ac	-0.27435052
68	0x3ce584e7	0.028017474
69	0xbd292280	-0.041292667
70	0x3d80d870	0.06291282
71	0x3d8cae4c	0.06869182
72	0x3e0fea29	0.14054169
73	0x3d6bcb14	0.057566717
74	0xbdcae3af	-0.099067084
75	0xbd45fc87	-0.048336532
76	0x3ca2cdcf	0.019873528
77	0xbdbcd8d6	-0.09221046
78	0x3e5bce0d	0.21465321
79	0x3e37f344	0.17963892
80	0x3d97deaf	0.074155204
81	0xbe2eae99	-0.17058791
82	0x3de510c2	0.11184837
83	0xbe182098	-0.14856184
84	0xbc6cf077	-0.014461628
85	0x3c6b7beb	0.014372806
86	0x3dabfcf9	0.0839786
87	0xbd48da0c	-0.04903607
88	0xbc1621a8	-0.009163298
89	0xbe4ee017	-0.20202671
90	0xbc94138c	-0.018075727
91	0xbe2cc260	-0.16871023
92	0xbd9d1971	-0.07670868
93	0xbbda4da5	-0.006662088
94	0x3e3c5c4e	0.18394586
95	0x3e00034d	0.12501259
96	0xbdcf4df9	-0.10122294
97	0x3cdcef26	0.026969504
98	0x3d95a752	0.073073044
99	0xbd494c18	-0.049144834
100	0x3e68e9ed	0.22745486
101	0xbc3ad108	-0.011402376
102	0x3e4d783d	0.20065399
103	0x3e0ae5fd	0.13564296
104	0xbdccf9a6	-0.10008554
105	0x3e259217	0.1616901
106	0x3d5d3d20	0.05401337
107	0x3da9d376	0.08292286
108	0x3e166ae5	0.14689215
109	0xbb83e603	-0.0040252223
110	0x3d5805dd	0.052739967
111	0xbd693734	-0.05693741
112	0x3d9fc4fa	0.07801242
113	0xbd66efb2	-0.056380935
114	0x3e229c94	0.15880042
115	0x3d2507de	0.040290706
116	0xbd515a4b	-0.0511115
117	0x3d62b467	0.055347826
118	0x3e0a4647	0.13503371
119	0x3cc87aec	0.024472676
120	0x3d863c24	0.0655444
121	0x3d23066e	0.039801054
122	0xbda3637b	-0.07977959
123	0xbe36b5c6	-0.17842779
124	0xbe804000	-0.25048828
125	0xbdb5f92b	-0.08885416
126	0x3e11490d	0.14188023
127	0xbdb9b193	-0.09067073
128	0xbcadaf40	-0.02120173
129	0xbc35b899	-0.011091375
130	0x3c2f94de	0.010716645
131	0xbb8a85c8	-0.0042273737
132	0x3db7db62	0.08977391
133	0x3d795acc	0.060877606
134	0x3e4fe322	0.20301488
135	0x3d9750d5	0.07388464
136	0x3c11b4e2	0.0088932235
137	0x3e0089e7	0.12552606
138	0x3e1b424f	0.15162013
139	0xbcaf3c0d	-0.02139094
140	0x3dc3242f	0.09528386
141	0xbde0a80b	-0.10969552
142	0xbc777c5d	-0.015105334
143	0x3e229c87	0.15880023
144	0xbe827aad	-0.2548422
145	0xbd305808	-0.043052703
146	0x3e56691e	0.20938537
147	0xbdc2a68b	-0.09504422
148	0x3d08f397	0.03343543
149	0x3d33a83c	0.043861613
150	0x3da56148	0.080751956
151	0x3dbb4aaf	0.09145104
152	0x3cb62e9a	0.022239018
153	0x3d126b84	0.035747066
154	0xbd8676c2	-0.0656562
155	0x3cf74c72	0.03018782
156	0xbcb5b946	-0.022183072
157	0x3df48f84	0.11941436
158	0xbbf6a929	-0.0075274897
159	0xbdd51b17	-0.104055576
160	0x3d3ae52e	0.04562872
161	0x3e15a45f	0.14613484
162	0xbd871aeb	-0.06596931
163	0xbd81e03c	-0.063415974
164	0x3d7b4c9d	0.06135236
165	0x3e1994e6	0.14998206
166	0x3d27a3a6	0.04092755
167	0xbe05e3dd	-0.13075204
168	0xbe07cb52	-0.13261154
169	0x3d9e99fa	0.077442124
170	0xbd151cec	-0.036404535
171	0x3da97b3b	0.082754575
172	0xbd56735d	-0.052356113
173	0x3d6b3fbf	0.05743384
174	0xbd8b11b0	-0.06790483
175	0xbe3e06f4	-0.1855734
176	0xbd9b2406	-0.0757523
177	0xbe417569	-0.18892445
178	0xbc9e864c	-0.019351147
179	0x3c4ea259	0.012611949
180	0xbdad96bc	-0.08476016
181	0x3e47aa2e	0.19498512
182	0xbd9c2fe1	-0.0762632
183	0x3ddb63bf	0.107123844
184	0x3daa5264	0.08316496
185	0xbdc58778	-0.09644979
186	0xbdef8547	-0.116953425
187	0x3c22e382	0.009941937
188	0xbd787202	-0.0606556
189	0x3e43077d	0.19045825
190	0xbe04e2cc	-0.12977141
191	0x3ac18c5a	0.001476656
192	0xbdffb277	-0.12485211
193	0xbd89d75c	-0.0673053
194	0xbe359a03	-0.17734532
195	0xbdab15d6	-0.08353774
196	0xbc23bcc9	-0.00999374
197	0x3d3c55a4	0.04598011
198	0x3e0b3920	0.1359601
199	0xbdac5223	-0.08414104
200	0xbd11e1e7	-0.035615828
201	0x3cf390dc	0.02973216
202	0x3e379dd6	0.17931303
203	0xbd97210d	-0.07379351
204	0xbdd21e06	-0.10259633
205	0x3e362813	0.17788725
206	0x3e0d3888	0.13791096
207	0x3e31fec8	0.17382348
208	0x3d965e53	0.0734221
209	0xbcd26a85	-0.025685558
210	0xbd93069c	-0.07178995
211	0x3d198dac	0.037488624
212	0x3e4a55f1	0.19759347
213	0x3daf5aa0	0.08562207
214	0x3e2fbcaf	0.17161821
215	0x3e5cca27	0.2156149
216	0x3dae48ec	0.085100025
217	0xbd8ffd4b	-0.07030734
218	0xbe3e965f	-0.1861205
219	0xbdf227dc	-0.11824009
220	0xbe6f8df0	-0.23393989
221	0x3e1ebf78	0.15502727
222	0x3e7956a1	0.24349453
223	0x3e9c4059	0.30517843
224	0x3e45aa65	0.19303282
225	0x3ddc4e7f	0.107571594
226	0xbd32ac33	-0.043621253
227	0x3dd53f95	0.10412518
228	0x3e2e7908	0.17038357
229	0x3d9f6588	0.077830374
230	0xbdf03d58	-0.117304504
231	0x3e03a230	0.12854838
232	0xbd87e29b	-0.066350184
233	0xbca49241	-0.02008927
234	0xbe05c9ee	-0.13065311
235	0x3dd866ab	0.10566457
236	0x3db2ea7c	0.087361306
237	0xbdbe98b4	-0.093064696
238	0x3cc9ed19	0.02464919
239	0xbd9c349b	-0.07627221
240	0xbde7603e	-0.112976536
241	0x3d3f4ccf	0.04670411
242	0xbd10d864	-0.035362616
243	0x3cb05528	0.02152498
244	0xbd4fb615	-0.050710756
245	0x3d12f1e7	0.035875227
246	0x3d6c5f66	0.057708167
247	0x3b8bd91a	0.004267824
248	0xbc7a72b8	-0.01528614
249	0xbe24f39f	-0.16108559
250	0xbce46403	-0.02787972
251	0xbe450777	-0.19241129
252	0xbd42ad58	-0.047528595
253	0xbe1174a5	-0.14204653
254	0x3ddfa6eb	0.10920509
255	0x3b8a054e	0.004212058

lstm.bias_ih_l0 f4 [128]
0	0xbbee3ef0	-0.0072706863
1	0x3e8daa48	0.27668977
2	0x3dce7fd5	0.10082976
3	0x3dfd52c2	0.123693004
4	0x3daa698e	0.08320914
5	0xbd963c1f	-0.07335686
6	0x3e8d9e84	0.2766
7	0x3e81d6cd	0.25359192
8	0xbdea77fb	-0.11448666
9	0x3dcf0d5d	0.10109971
10	0x3dd4cedd	0.103910185
11	0x3e20ddec	0.15709656
12	0x3e4c07c8	0.19924843
13	0x3d867a62	0.065663114
14	0x3e9ecbcd	0.31014863
15	0x3d95b5a7	0.07310038
16	0x3dc23a61	0.09483791
17	0x3c846268	0.016160205
18	0xbc6034cb	-0.013684462
19	0xbb0a0d58	-0.0021065082
20	0xbd5505e9	-0.05200759
21	0x3d298f4f	0.041396435
22	0x3e0497fc	0.12948602
23	0xbd8e1053	-0.06936707
24	0xbdaca17c	-0.08429238
25	0x3e51834a	0.20460239
26	0x3c43a5e7	0.01194141
27	0xbd1c9ce7	-0.03823557
28	0x3d6f1c44	0.058376566
29	0x3c99454d	0.018709803
30	0xbda37b10	-0.07982457
31	0x3da0b7ac	0.07847533
32	0xbd9aec80	-0.0756464
33	0x3d1959a0	0.03743899
34	0x3e4e4671	0.20144059
35	0x3df2df83	0.11859038
36	0x3e3828da	0.17984334
37	0xbe27060e	-0.16310903
38	0x3e3d58ae	0.1849086
39	0x3de97770	0.11399734
40	0xbccd3733	-0.025050735
41	0x3e4cb0bd	0.19989295
42	0x3e4e1ea1	0.20128872
43	0x3d69d924	0.057091847
44	0x3d837cfa	0.06420322
45	0xbb912215	-0.0044291117
46	0x3da412b1	0.080113776
47	0x3d23d883	0.040001404
48	0xbd824728	-0.06361228
49	0x3de90ea2	0.11379744
50	0xbd063539	-0.0327656
51	0x3df5c84e	0.12001096
52	0x3df70d13	0.120630406
53	0xbdc332fb	-0.09531208
54	0x3e6dca77	0.23221765
55	0x3d92e142	0.07171871
56	0x3df48e5e	0.11941217
57	0xbe2a1325	-0.16608866
58	0x3e40ea14	0.18839294
59	0x3d9cc6e0	0.0765512
60	0xbb94e1d8	-0.0045435242
61	0xbd7d7d12	-0.061886854
62	0x3d78a89b	0.06070767
63	0x3dcd8dbe	0.10036801
64	0x3d0ec454	0.0348552
65	0x3e1c566e	0.15267345
66	0xbe93accc	-0.2884277
67	0xbe741c7e	-0.23838994
68	0x3e0ddebd	0.13854499
69	0x3e061acd	0.13096161
70	0xbb86dcf2	-0.004115694
71	0x3da1363a	0.07871671
72	0x3e11e597	0.14247738
73	0x3e6502ab	0.22364299
74	0xbd910459	-0.070809074
75	0xbe0c7391	-0.1371596
76	0xbdcde449	-0.100533076
77	0xbd582614	-0.05277069
78	0x3e659354	0.22419482
79	0x3d041bfe	0.032253258
80	0xbe1fd9a7	-0.15610372
81	0xbcb98cea	-0.0226502
82	0x3da73294	0.08163944
83	0xbcffa9ea	-0.031208951
84	0xbcc557bf	-0.024089692
85	0x3e2f921e	0.17145583
86	0xbd7994f4	-0.06093307
87	0x3ddbd4aa	0.10733922
88	0xbd74e7d0	-0.059791386
89	0xbdbe093d	-0.09279106
90	0xbe34933c	-0.1763429
91	0xbc6edad1	-0.014578537
92	0xbdbd088b	-0.09230145
93	0xbd3ba52f	-0.04581183
94	0x3dd83d91	0.10558618
95	0xbd03ebd4	-0.032207325
96	0x3e8075f6	0.25089997
97	0x3e906f0b	0.2820972
98	0x3e831568	0.2560227
99	0x3e4cfa5d	0.20017381
100	0xbcf87db4	-0.030333377
101	0x3d39dacf	0.045374688
102	0x3d44b7c2	0.048026808
103	0x3dc97ba7	0.09838038
104	0xbdbda97b	-0.092608415
105	0x3cb9fded	0.022704089
106	0x3d90eb1a	0.07076092
107	0x3d369dc3	0.044584047
108	0x3dbd19cb	0.09233435
109	0x3dd7f4f4	0.10544768
110	0x3d3c7b7a	0.046016194
111	0xbc28eda8	-0.010310568
112	0xbd962bf9	-0.07332606
113	0x3e8a640f	0.27029464
114	0x3e2a1add	0.1661181
115	0xbddea19e	-0.1087067
116	0xbdbac5a3	-0.091197275
117	0x3d8e1dff	0.06939315
118	0xbc1c161b	-0.009526755
119	0x3dd81c7c	0.10552308
120	0x3d058880	0.03260088
121	0x3d833e57	0.06408375
122	0x3d302ec4	0.04301335
123	0xbd91b006	-0.07113652
124	0x3d7f08f4	0.062264398
125	0x3e909c27	0.28244135
126	0x3e81324a	0.2523368
127	0xbc5dae12	-0.013530271

lstm.bias_hh_l0 f4 [128]
0	0x3df44582	0.1192732
1	0x3e81ce73	0.2535282
2	0x3e626d4a	0.22112003
3	0x3e19f9f6	0.15036759
4	0x3e600729	0.21877731
5	0x3db54b78	0.08852285
6	0x3deb4ffc	0.11489865
7	0x3e8e66ed	0.278129
8	0x3e03c19d	0.12866826
9	0x3c8145c5	0.015780339
10	0x3e4fdb96	0.20298609
11	0x3e4972ad	0.19672652
12	0x3e892599	0.26786497
13	0xbad75bed	-0.0016430594
14	0x3db5b58f	0.0887252
15	0x3e65cabe	0.22440621
16	0x3e5eb575	0.21748908
17	0xbc83418c	-0.016022466
18	0x3e70e21d	0.23523755
19	0x3e0c6ffc	0.13714594
20	0x3e268143	0.16260247
21	0x3c625353	0.013813811
22	0x3d8dad5b	0.069178306
23	0x3e242fc3	0.16033845
24	0x3dbce84f	0.09223997
25	0x3e409b32	0.18809202
26	0xbca74224	-0.02041728
27	0x3cf303aa	0.029664833
28	0x3da8c63a	0.08240934
29	0x3e319eb3	0.17345695
30	0x3e1a174a	0.15047947
31	0x3e488fe4	0.1958614
32	0xbdbec13a	-0.09314199
33	0x3d785aef	0.060633596
34	0x3e440828	0.19143736
35	0x3d036bd2	0.032085247
36	0x3e225a48	0.15854752
37	0x3e0cf526	0.13765392
38	0x3e032c64	0.12809902
39	0x3de3e37b	0.11127373
40	0x3e05769f	0.13033532
41	0xbd93b596	-0.07212369
42	0xbc952ff4	-0.018211342
43	0x3e302b68	0.17204058
44	0xbd6ea4df	-0.058262702
45	0x3d772f7c	0.06034802
46	0x3d07a1ce	0.033113293
47	0x3d29d2e6	0.041460894
48	0xbb928593	-0.0044714897
49	0x3d051071	0.032486383
50	0x3d978c08	0.07399756
51	0x3e44c204	0.19214636
52	0x3dc6677a	0.09687705
53	0xbc14e2df	-0.009087293
54	0x3e5f5fac	0.2181384
55	0xbd7d425b	-0.06183086
56	0x3da5e45c	0.08100197
57	0x3c48e596	0.012261769
58	0x3db5651c	0.08857176
59	0x3e019bf6	0.1265715
60	0x3d65f147	0.056138303
61	0x3d29057c	0.041264996
62	0x3dd0f249	0.10202462
63	0x3d6fd5ae	0.05855339
64	0xbd498996	-0.049203478
65	0x3d7fce1f	0.06245243
66	0xbe5e2bea	-0.2169644
67	0xbdaddd4c	-0.08489475
68	0xbe0c9964	-0.13730389
69	0x3d7b207a	0.06131027
70	0x3e3bb86f	0.18332075
71	0xbd9d92bb	-0.07694002
72	0xbe117a4f	-0.14206813
73	0x3e778524	0.24171883
74	0xbd9fb373	-0.07797899
75	0x3d38b4f9	0.045094464
76	0x3dea3881	0.114365585
77	0xbd885ff4	-0.066589266
78	0x3d7fbd6f	0.062436517
79	0xbd1fdc53	-0.039028477
80	0x3e083010	0.13299584
81	0xbe913083	-0.28357324
82	0x3d01f6c2	0.031729467
83	0xbe230f00	-0.15923691
84	0x3e54e14f	0.20789073
85	0x3e04a314	0.12952834
86	0x3e715b23	0.23569922
87	0xbd7c2fa5	-0.061568875
88	0x3cae1fca	0.021255393
89	0xbe376f5a	-0.17913571
90	0x3db3e448	0.087837756
91	0xbdc7a1de	-0.097476706
92	0x3d4c6ede	0.04991042
93	0x3de19791	0.11015237
94	0xbdd75bd2	-0.1051556
95	0x3e38e3fc	0.18055719
96	0x3c3a2ed7	0.011363707
97	0x3e53e494	0.20692664
98	0x3d891bea	0.06694777
99	0x3e423085	0.18963821
100	0x3dfbbdcc	0.1229206
101	0x3e743117	0.23846851
102	0x3e3c5ab1	0.18393971
103	0x3e1dace1	0.1539798
104	0x3d21c042	0.039489992
105	0xbd97854e	-0.07398473
106	0x3cba7fcb	0.022766015
107	0xbc7f6b16	-0.015589496
108	0x3e510dcf	0.20415424
109	0x3d638cd5	0.05555423
110	0x3e4a7efb	0.19775002
111	0x3c96cb9b	0.018407634
112	0xbdf6cdbf	-0.12050962
113	0x3e2fa424	0.17152458
114	0x3e2074a8	0.15669501
115	0x3e1013cc	0.14070052
116	0x3e51befc	0.20483011
117	0xbdc49929	-0.095995255
118	0x3e0d27c3	0.13784699
119	0x3e3e6df7	0.18596636
120	0x3bad0aa5	0.00528081
121	0x3e150ed0	0.14556432
122	0x3e377b61	0.17918159
123	0x3dd4b28d	0.10385618
124	0xbdb8cac4	-0.090230495
125	0x3e5132cd	0.20429535
126	0x3e8c0881	0.27350238
127	0x3da989f3	0.08278265

lstm.weight_ih_l0_reverse f4 [128, 9]
0	0x3d88783a	0.066635564
1	0x3e798974	0.2436884
2	0xbe0445fd	-0.12917323
3	0xbe058023	-0.13037162
4	0x3e0ff1a9	0.1405703
5	0x3c170214	0.009216804
6	0xbe0c0147	-0.13672362
7	0xbe141749	-0.14462008
8	0xbd8793a6	-0.066199586
9	0x3d62e666	0.055395506
10	0x3e238266	0.15967712
11	0xbdfca07c	-0.123352975
12	0x3ca9adfa	0.020712841
13	0x3d8ff55b	0.0702922
14	0xbe671aa2	-0.22568753
15	0x3e07f7aa	0.1327807
16	0x3e2c81b4	0.16846353
17	0x3e95a764	0.2922927
18	0xbe8cb831	-0.27484277
19	0xbddaa35f	-0.10675692
20	0xbdbeba41	-0.09312869
21	0x3de4f10f	0.11178791
22	0xbd021028	-0.03175369
23	0x3da604e6	0.08106403
24	0xbe2a883e	-0.16653535
25	0x3ca6a15f	0.02034062
26	0x3dbc52cc	0.0919548
27	0xbd6fc3fb	-0.05853651
28	0x3cecfb9d	0.028928572
29	0x3d80a268	0.062809765
30	0x3d729c04	0.05923082
31	0x3d0e4603	0.034734737
32	0xbe14e96e	-0.14542171
33	0x3df68ab6	0.12038176
34	0xbdafe68d	-0.08588896
35	0xbe51e026	-0.20495662
36	0x3d2b3921	0.04180253
37	0x3df0f66f	0.117657535
38	0x3dcfe695	0.10151402
39	0xbdd2e903	-0.1029835
40	0xbdb2780c	-0.087143034
41	0x3c817f06	0.01580764
42	0x3d25fd44	0.040524736
43	0x3c699ac7	0.014258093
44	0xbde17f99	-0.110106654
45	0x3d248590	0.040166438
46	0xbdd1dd1f	-0.102472536
47	0xbe0f5fee	-0.14001438
48	0x3e1ac0dc	0.15112633
49	0xbdd17740	-0.10227823
50	0xbdf36223	-0.118839525
51	0x3e079f98	0.13244474
52	0xbda05f1d	-0.078306414
53	0x3de369ae	0.11104141
54	0xbd921739	-0.071333356
55	0xbdd65550	-0.10465491
56	0x3e05bc07	0.13060008
57	0x3baa12cc	0.005190229
58	0x3e49e665	0.19716795
59	0x3e0ab6ec	0.13546342
60	0x3e712c88	0.23552144
61	0x3e1bf616	0.15230593
62	0x3e1cd4b2	0.15315512
63	0xbd481e4f	-0.04885703
64	0xbcfc8506	-0.03082515
65	0xbd5387ac	-0.05164306
66	0x3c9f7b65	0.019468019
67	0x3e3ab345	0.18232448
68	0x3ce40b24	0.027837344
69	0xbe082ede	-0.13299128
70	0x3dbc3348	0.091894686
71	0x3d99fd4c	0.07519016
72	0x3c8cd6c2	0.017192248
73	0x3d58b7ce	0.052909665
74	0x3e6c857f	0.230978
75	0xbdd39cf0	-0.10332668
76	0x3e21fd9e	0.15819404
77	0x3e140bd3	0.14457636
78	0xbe7a7811	-0.24459864
79	0xbdb1469d	-0.086560465
80	0x3d2c9afe	0.04214
81	0xbe2be8d7	-0.1678804
82	0xbda7dfdb	-0.08196994
83	0xbddd25f2	-0.10798253
84	0x3dcdd498	0.10050315
85	0x3d9c0df9	0.076198526
86	0x3e078c36	0.1323708
87	0x3e675bc7	0.22593604
88	0x3db09d71	0.086237796
89	0xbe4a2ada	-0.19742909
90	0x3cb5e0b4	0.022201873
91	0x3e1a3b28	0.15061629
92	0x3d991f63	0.0747669
93	0xbd6520e1	-0.05593956
94	0x3e20ff7f	0.15722464
95	0x3d86aada	0.06575556
96	0xbdcdca62	-0.10048367
97	0xbe179dc8	-0.14806283
98	0xbe508eaa	-0.20366922
99	0xbe4531f7	-0.19257341
100	0xbdf46794	-0.119338185
101	0xbccf34df	-0.025293766
102	0xbe0de596	-0.13857111
103	0xbdab5115	-0.083650745
104	0xbde83154	-0.113375336
105	0x3e3dc522	0.18532231
106	0xbe1093b4	-0.14118844
107	0x3e4ac6c5	0.19802387
108	0x3d97a6a0	0.07404828
109	0x3e624ab4	0.2209881
110	0x3ba68f7f	0.005083024
111	0xbce1915d	-0.027535135
112	0xbd6d7f23	-0.057982575
113	0x3da233d3	0.07920041
114	0xbe2d2983	-0.16910367
115	0xbe08f2d8	-0.13373888
116	0x3df1bc10	0.11803448
117	0xbdacf8ca	-0.0844589
118	0x3e031b1b	0.12803309
119	0xbe2804b2	-0.16408041
120	0xbe001500	-0.12508011
121	0xbe3f1c33	-0.18663101
122	0xbd2b1243	-0.041765463
123	0x3db58cb9	0.08864731
124	0xbd0ab1b1	-0.033860866
125	0x3d6d75e4	0.057973757
126	0x3de46b55	0.111532845
127	0xbe6418ab	-0.22275035
128	0x3daf4d7a	0.08559699
129	0xbde0e46b	-0.10981067
130	0x3dba5874	0.09098902
131	0xbe328c51	-0.17436339
132	0xbd731c3d	-0.059353102
133	0x3e29b2c5	0.16572101
134	0xbc4385a5	-0.011933719
135	0xbd1a769e	-0.03771078
136	0xbe8367e6	-0.25665206
137	0x3df7cd1d	0.12099669
138	0x3dc4329e	0.09579967
139	0xbe628987	-0.22122775
140	0xbdbc52e9	-0.09195501
141	0xbe234c03	-0.15946965
142	0x3d3d78ee	0.046257906
143	0xbe5dedc0	-0.21672726
144	0x3db5ad6a	0.08870967
145	0x3e06a7e4	0.13149983
146	0xbdcabfc1	-0.098998554
147	0x3d3c29ef	0.04593843
148	0xbe450e7e	-0.1924381
149	0x3ca71514	0.020395793
150	0xbd9c08fd	-0.07618902
151	0x3dbd8654	0.09254137
152	0x3b8ad797	0.004237126
153	0xbe628cf8	-0.22124088
154	0xbc97d3e2	-0.01853365
155	0xbc68a86a	-0.014200309
156	0x3db1c6f1	0.08680523
157	0x3e567636	0.20943531
158	0xbd6fec04	-0.05857469
159	0x3e5f2ae6	0.21793708
160	0x3e0f1299	0.13971938
161	0xbe13a0bc	-0.14416784
162	0xbdd244e3	-0.10267045
163	0xbcc4ecf7	-0.024038775
164	0xbdc170fc	-0.09445378
165	0xbe945c9a	-0.289769
166	0xbe63605d	-0.22204728
167	0xbdffe13e	-0.124941334
168	0xbd8ab462	-0.067726865
169	0xbe62b718	-0.22140157
170	0x3e46704f	0.1937878
171	0xbe1bcd0f	-0.15214942
172	0xbda8e54d	-0.08246861
173	0x3d67cfb5	0.05659457
174	0xbe1b2ae1	-0.15153076
175	0x3e0d10c2	0.13775924
176	0x3d89e335	0.067327894
177	0x3d86d616	0.065838024
178	0xbdaedf13	-0.08538642
179	0xbd49d35f	-0.049273845
180	0x3d248429	0.0401651
181	0x3db14699	0.086560436
182	0xbdbda907	-0.09260755
183	0x3dc5f7d1	0.09666408
184	0x3bc412db	0.005983693
185	0xbdc02f86	-0.093840644
186	0xbe232a4c	-0.15934104
187	0x3de5a6da	0.11213465
188	0x3d60fad0	0.054926693
189	0xbd13b4cd	-0.036061097
190	0xbd0de67c	-0.034643635
191	0x3e117744	0.14205652
192	0x3e3eea2d	0.18644018
193	0x3d4ed056	0.050491653
194	0x3d885c42	0.06658222
195	0xbdf1c12c	-0.11804423
196	0x3d1f9f13	0.038970064
197	0x3d2be4b4	0.041966155
198	0x3d6eb878	0.05828139
199	0x39c076a5	0.0003670949
200	0xbdbc600d	-0.09198008
201	0x3e066caa	0.1312739
202	0xbe5ffd2d	-0.21873923
203	0xbe7346e3	-0.2375751
204	0x3d84db1f	0.064871065
205	0xbd710fce	-0.058852963
206	0xbe15b419	-0.14619483
207	0xbd14687a	-0.03623245
208	0x3dddfbe6	0.108390614
209	0xbd48d92d	-0.04903524
210	0xbe0bc02f	-0.13647531
211	0xbd23950f	-0.039937075
212	0xbcffc0da	-0.031219888
213	0xbd1d6ca9	-0.038433705
214	0xbe18a73c	-0.14907545
215	0x3e337137	0.17523657
216	0xbe07219c	-0.13196415
217	0x3e37a326	0.1793333
218	0x3ddf7b57	0.10912197
219	0x3d8850ca	0.06656034
220	0x3d876f49	0.06613023
221	0x3d9e48da	0.07728739
222	0xbc2e868b	-0.010652195
223	0xbd19a751	-0.03751308
224	0x3cf5123b	0.02991592
225	0x3d1f1912	0.03884227
226	0x3d0f8585	0.035039444
227	0xbe1e2a4d	-0.15445824
228	0x3ce8c4b7	0.028414113
229	0xbcbb1295	-0.022836009
230	0xbe59d778	-0.21273601
231	0x3e33a7cb	0.17544477
232	0x3e02c3eb	0.1277005
233	0x3e37a415	0.17933686
234	0xbe69a63f	-0.22817324
235	0xbce4035f	-0.027833639
236	0x3cb33392	0.021875177
237	0xbdf4cb9b	-0.11952897
238	0x3ba77dce	0.0051114326
239	0xbd50d133	-0.050980758
240	0x3d158501	0.036503796
241	0xbe05d892	-0.13070896
242	0x3d8ee170	0.069765925
243	0x3dd635a3	0.10459449
244	0x3e601ec9	0.21886744
245	0x3c5fd100	0.013660669
246	0xbd9760d0	-0.073915124
247	0xbdbe14a3	-0.0928128
248	0x3e737ab9	0.23777284
249	0xbdd268ba	-0.10273881
250	0x3c940a92	0.018071447
251	0xbe6a95ce	-0.22908708
252	0xbd3c7d7b	-0.046018105
253	0xbe354b70	-0.17704558
254	0x3d909c77	0.07061093
255	0x3d41e5a2	0.047338136

lstm.weight_hh_l0_reverse f4 [128, 32]
0	0x3dd4be0d	0.10387812
1	0x3db79a6c	0.089650005
2	0x3d13ff1c	0.036131963
3	0xbe02fab2	-0.12790945
4	0xbc8266e0	-0.015918195
5	0xbe693ee2	-0.22777894
6	0xbe84dbd3	-0.25948963
7	0xbcb1128a	-0.021615285
8	0x3d290019	0.04125986
9	0xbe0e66af	-0.13906358
10	0x3e154569	0.14577259
11	0xbd03cfa0	-0.03218043
12	0xbdc2c7d4	-0.095107704
13	0x3db71a13	0.0894052
14	0xbde4281c	-0.11140463
15	0x3e10f160	0.14154577
16	0xbdf62c54	-0.12020174
17	0x3e1f70b6	0.1557034
18	0xbdf4d5ec	-0.11954865
19	0x3e1d9205	0.15387733
20	0xbdd84c91	-0.10561479
21	0xbe1cb79f	-0.15304421
22	0xbd181c08	-0.037136108
23	0x3c2c1d5c	0.010505047
24	0xbd8a721d	-0.06760047
25	0xbde44149	-0.11145265
26	0xbe4d28ae	-0.2003505
27	0x3e280639	0.16408624
28	0xbdf22fe2	-0.11825539
29	0x3ce7eec8	0.028312102
30	0xbe3219b4	-0.17392617
31	0x3e444c51	0.19169737
32	0xbe293ffb	-0.16528313
33	0x3e6c8e31	0.23101117
34	0x3e2830db	0.16424887
35	0xbe7c8de4	-0.24663502
36	0xbe0eb44e	-0.13935968
37	0xbe5644e8	-0.20924723
38	0x3c8122e8	0.015763715
39	0x3d2ede04	0.0426922
40	0x3dacc8af	0.08436715
41	0xbd42d957	-0.047570553
42	0xbdc2960f	-0.09501278
43	0x3d3b60ca	0.045746602
44	0xbe379a22	-0.17929891
45	0x3d9dd08f	0.07705795
46	0xbc90620f	-0.017624883
47	0x3ce08f7c	0.027412169
48	0x3d559cb7	0.052151408
49	0xbd67d991	-0.056603972
50	0xbe330a7e	-0.17484471
51	0x3da0c5f6	0.07850258
52	0x3d4576a2	0.04820884
53	0x3d1b447a	0.0379071
54	0xbdaa59a0	-0.08317876
55	0xbe0edd97	-0.13951717
56	0xbd92f318	-0.07175273
57	0x3e54d2d9	0.20783557
58	0x3dbe2c24	0.09285763
59	0x3e7cd3fb	0.24690239
60	0xbdb0ffd1	-0.08642543
61	0x3d903409	0.07041175
62	0xbdb6ae20	-0.089199305
63	0x3e29658b	0.16542642
64	0xbdd19e78	-0.10235304
65	0x3e634535	0.22194369
66	0x3c1143c3	0.008866253
67	0xbd84b3aa	-0.06479581
68	0xbdaac58a	-0.08338459
69	0xbd62453c	-0.05524181
70	0xbc184e38	-0.009295993
71	0x3df2bb69	0.11852152
72	0x3d6e1ada	0.058131076
73	0xbdf7d7a7	-0.12101679
74	0x3e0f425a	0.13990155
75	0x3b1c3402	0.002383471
76	0x3db8fe73	0.09032907
77	0x3d797717	0.06090459
78	0xbe389e0a	-0.18029037
79	0x3e5455de	0.2073588
80	0x3e83d898	0.25751185
81	0xbe184bdd	-0.1487269
82	0x3dafe7dc	0.085891455
83	0x3cfc6620	0.030810416
84	0x3cae5c39	0.02128421
85	0xbe0e2901	-0.13882829
86	0xbc050337	-0.008118442
87	0x3bd26b0a	0.0064214515
88	0xbe3bf7c0	-0.18356228
89	0x3e2b456b	0.167257
90	0xbb9f8262	-0.0048678378
91	0x3dbcfa38	0.09227413
92	0x3e0cb401	0.13740541
93	0x3c40334d	0.011730981
94	0xbe728149	-0.23682131
95	0x3e010f32	0.12603453
96	0xbde21321	-0.11038805
97	0x3e7ab8b9	0.24484529
98	0x3e6147ed	0.22000094
99	0x3e2bd024	0.16778618
100	0x3e101f32	0.140744
101	0x3de86bf6	0.11348717
102	0x3ce1d00b	0.027565023
103	0xbda2c788	-0.07948214
104	0xbc94cab5	-0.018163064
105	0x3d68b067	0.056808855
106	0xbe4fb63b	-0.20284359
107	0x3dd33e2d	0.103145935
108	0x3cc50982	0.024052385
109	0xbe40afe1	-0.18817092
110	0xbcdca6c5	-0.02693499
111	0x3d9193ac	0.07108244
112	0x3e8651d3	0.26234302
113	0x3e123c75	0.14280875
114	0xbc8f038f	-0.017457752
115	0x3e28c52d	0.16481467
116	0xbe75eaca	-0.24015346
117	0xbe0c9d7b	-0.13731949
118	0xbdae9eaa	-0.085263565
119	0xbd3a2da6	-0.04545369
120	0x3e17dedc	0.14831108
121	0x3d81ac68	0.06331712
122	0xbde72a92	-0.112874165
123	0xbe54395d	-0.20725007
124	0xbdb59439	-0.08866162
125	0xbbdf442f	-0.006813548
126	0xbd27b10e	-0.040940337
127	0x3dda86f3	0.10670271
128	0xbe50efac	-0.20403928
129	0x3dfd4b31	0.12367857
130	0xbdcc5950	-0.099779725
131	0x3dc64c4d	0.09682522
132	0xbd2d3b73	-0.042293023
133	0xbd8d3713	-0.0689527
134	0xbd6ffb92	-0.058589526
135	0xbd20abbf	-0.03922629
136	0xbd9d0aba	-0.076680616
137	0xbdd1e817	-0.10249346
138	0xbe376ea2	-0.17913297
139	0xbe459c8c	-0.19297999
140	0x3d190592	0.037358828
141	0x3dd0557a	0.10172553
142	0xbe02da14	-0.12778503
143	0xbdbc0ed6	-0.09182517
144	0x3b4bc394	0.0031091915
145	0xbd6d41ee	-0.057924204
146	0x3d1764d2	0.036961384
147	0x3d99cc78	0.075097024
148	0x3d8646d3	0.065564774
149	0xbd843a85	-0.06456474
150	0xbe27bf96	-0.16381678
151	0xbdc8c54b	-0.09803256
152	0x3d89ad57	0.06722515
153	0x3cd9ceb8	0.026587829
154	0xbe06666d	-0.1312501
155	0xbc2f4f17	-0.010700009
156	0x3e1b69c3	0.15177064
157	0x3e4bd171	0.19904114
158	0xbdd80aff	-0.10548972
159	0x3e2de7d5	0.16982968
160	0xbd7235c5	-0.05913331
161	0xbd3fade5	-0.046796698
162	0x3dab0de5	0.083522595
163	0x3ccf11de	0.025277074
164	0xbc768372	-0.015045987
165	0xbe0de7d9	-0.13857974
166	0xbcce25c4	-0.025164492
167	0xbda716b5	-0.08158628
168	0x3e18f430	0.149369
169	0xbdfb2c73	-0.122643374
170	0xbe50ca84	-0.20389754
171	0xbbdb575a	-0.0066937627
172	0xbce4f344	-0.02794803
173	0xbc60f61d	-0.013730553
174	0x3d3a78c2	0.04552532
175	0x3df5624d	0.1198164
176	0x3e650c0a	0.22367874
177	0x3c8e9d73	0.017409062
178	0x3b28b327	0.0025741549
179	0x3dd157bd	0.10221813
180	0x3e02c4ac	0.12770337
181	0xbd99267f	-0.07478046
182	0xbd9ce962	-0.07661702
183	0x3cb8232d	0.02247771
184	0x3dc828a8	0.097733796
185	0xbd9460cf	-0.07245027
186	0x3de46475	0.11151973
187	0xbd18920e	-0.037248664
188	0x3e1996c3	0.14998917
189	0x3e230c1a	0.15922585
190	0x3c835c31	0.016035171
191	0x3c75c2e4	0.015000079
192	0x3db264e4	0.087106496
193	0x3e3403c2	0.17579558
194	0xbc16c0bf	-0.009201228
195	0x3e20c1a2	0.15698865
196	0xbe2e9f69	-0.17052998
197	0x3d52588d	0.05135398
198	0xbdb1aa02	-0.086750045
199	0x3e2085b7	0.15676008
200	0xbe20a224	-0.15686852
201	0xbc8d80f6	-0.017273407
202	0x3dfa0925	0.122087754
203	0x3ddd1c07	0.107963614
204	0xbe436f22	-0.19085363
205	0xbe1ad53a	-0.15120402
206	0xbe26e3e4	-0.16297871
207	0x3ddb1aad	0.106984474
208	0xbdfb6920	-0.122759104
209	0x3d2e9ee1	0.042631987
210	0xbdd4dd49	-0.10393769
211	0x3dc7304f	0.09726011
212	0x3d8da719	0.06916637
213	0xbe15cfec	-0.14630097
214	0xbdce441f	-0.10071587
215	0xbd3de1d0	-0.04635793
216	0xbb8fe085	-0.0043907785
217	0xbd1b2c78	-0.037884206
218	0xbd2c9ff7	-0.042144742
219	0x3d2051dd	0.03914057
220	0xbd12db51	-0.035853688
221	0x3d9686ce	0.07349931
222	0xbe586288	-0.21131337
223	0x3d7b905a	0.06141696
224	0xbe1e7517	-0.15474354
225	0x3e12850c	0.14308566
226	0x3cd49234	0.025948621
227	0xbdda0d57	-0.106470756
228	0xbe343bc9	-0.17600931
229	0xbe318969	-0.17337574
230	0xbe1f86ca	-0.15578762
231	0x3d328758	0.043586105
232	0x3e045d6b	0.12926261
233	0x3d9bab90	0.07601082
234	0x3d9611fa	0.073276475
235	0xbd833db3	-0.064082526
236	0x3d08b284	0.03337337
237	0xbdf679d4	-0.120349556
238	0xbdc06b9a	-0.09395523
239	0x3e217905	0.15768822
240	0x3e24ca1a	0.1609272
241	0x3df08f72	0.1174611
242	0xbd6d3718	-0.05791387
243	0xbcac4db8	-0.021033153
244	0xbe476346	-0.19471464
245	0xbd0ee448	-0.034885675
246	0xbce526ab	-0.02797254
247	0x3de85fd6	0.11346404
248	0xbe0d23d6	-0.13783202
249	0x3ce80e33	0.028327083
250	0x3cd807c4	0.02637089
251	0xbe0760c9	-0.13220514
252	0xbd3f2028	-0.046661526
253	0x3dea969c	0.11454508
254	0xbd4f76b5	-0.050650317
255	0x3dfa87fa	0.12232967

lstm.bias_ih_l0_reverse f4 [128]
0	0x3d2f5d42	0.042813547
1	0xbd8fa2e9	-0.070134945
2	0x3e271d96	0.1631988
3	0x3e0a3451	0.1349652
4	0x3e48fa44	0.19626719
5	0xbd2e6be0	-0.042583346
6	0xbd7a2144	-0.06106688
7	0x3e4b7508	0.19868863
8	0xbd138509	-0.036015544
9	0x3dfde67a	0.123974755
10	0x3e6dd9d4	0.23227626
11	0x3e220d31	0.15825345
12	0x3da88877	0.082291536
13	0xbdee0986	-0.1162291
14	0xbdd6657b	-0.104685746
15	0xbd9a83dd	-0.07544682
16	0x3dbbc78a	0.091689184
17	0xbdbc4bd4	-0.091941506
18	0x3e8a6fb0	0.27038336
19	0xbd72a86a	-0.059242643
20	0x3c0ae374	0.008477081
21	0x3e179c16	0.14805636
22	0x3c851e59	0.016249822
23	0x3e4148fd	0.18875499
24	0x3e15ff49	0.14648165
25	0x3e8895fa	0.26676923
26	0x3dd2c452	0.102913514
27	0x3e56a1bb	0.20960133
28	0xbddcca0e	-0.107807264
29	0x3d0b5ed2	0.034025975
30	0x3e2b9e33	0.16759567
31	0x3dccd131	0.100008376
32	0x3d9c5d44	0.076349765
33	0xbd2337db	-0.03984819
34	0x3e04fdf1	0.12987496
35	0x3daaf8f4	0.08348265
36	0xbd810205	-0.06299213
37	0x3d747760	0.059684157
38	0x3e2a2b28	0.16618025
39	0xbe034734	-0.1282013
40	0x3d600fe8	0.05470267
41	0x3dda9650	0.10673201
42	0x3e676350	0.22596478
43	0xbe0d5b6a	-0.13804403
44	0x3dfd0b62	0.12355687
45	0x3e290841	0.16507055
46	0x3e0ca085	0.13733108
47	0xbdd81817	-0.1055147
48	0x3d3489f7	0.044076886
49	0xbc0925da	-0.008370841
50	0x3d9acf16	0.0755903
51	0x3d3047dd	0.043037284
52	0x3d43204b	0.04763822
53	0x3e052512	0.13002422
54	0xbd696baa	-0.056987442
55	0xbdc2b30e	-0.09506808
56	0x3d90b44a	0.070656374
57	0xbddfbe78	-0.10925001
58	0x3e6071d8	0.21918428
59	0x3e23acc0	0.15983868
60	0xbd966118	-0.07342738
61	0x3e40a1a9	0.18811668
62	0x3bdc8176	0.0067293
63	0x3e0714ae	0.13191482
64	0xbe2ca2f4	-0.16859037
65	0x3dcc364a	0.09971292
66	0x3debd74f	0.11515676
67	0xbd052322	-0.03250421
68	0x3dac38e4	0.084092885
69	0xbcb96405	-0.0226307
70	0x3e197bdc	0.14988655
71	0x3e33ef61	0.17571785
72	0xbe2dc0bd	-0.16968055
73	0xbe32c361	-0.17457344
74	0x3e3eb4ae	0.18623611
75	0xbda14ed5	-0.07876364
76	0xbe3a7bc3	-0.18211274
77	0x3cdf6c15	0.027273217
78	0xbde6ec14	-0.11275497
79	0x3e18425e	0.14869067
80	0x3dfad198	0.12247008
81	0x3d8b2405	0.067939796
82	0x3cbdba7c	0.023160212
83	0xbe233f5c	-0.15942138
84	0xbe1778f3	-0.14792232
85	0xbdec6d4a	-0.11544283
86	0x3b555d85	0.0032556963
87	0x3e650d0e	0.22368261
88	0xbe003951	-0.12521864
89	0x3e6d56df	0.2317767
90	0xbd5855e3	-0.052816283
91	0x3d310aac	0.043223068
92	0x3dd7faa4	0.10545853
93	0x3daef834	0.08543435
94	0xbe136860	-0.14395285
95	0x3e90935f	0.28237435
96	0xbc917a66	-0.01775856
97	0x3e6dcc7d	0.23222537
98	0x3d50f568	0.051015288
99	0x3dbf85cb	0.09351691
100	0x3d471c70	0.048611104
101	0xbcdc0b05	-0.026860723
102	0xbdd4d5fa	-0.10392375
103	0xbd983a48	-0.07432991
104	0x3d80f117	0.06295984
105	0x3db8cb4d	0.090231515
106	0x3e82c537	0.25541088
107	0xbd5f238c	-0.05447726
108	0x3b0b37b6	0.0021242923
109	0x3d3698da	0.044579364
110	0x3df39d22	0.11895205
111	0xbd84aa7a	-0.06477828
112	0x3bb26296	0.0054438813
113	0x3db016a1	0.08598066
114	0x3d33c5fa	0.043889977
115	0xbd96e68d	-0.07368193
116	0x3e56493d	0.20926376
117	0xbd8173b1	-0.063208945
118	0x3e5b1cce	0.21397707
119	0x3c5ba656	0.013406357
120	0x3e6d058d	0.23146649
121	0x3ce69d59	0.028151201
122	0xbbcab8d2	-0.006186583
123	0x3e1656fa	0.14681616
124	0xbd0fe366	-0.035128973
125	0x3ca54e21	0.020178856
126	0x3e219f29	0.15783371
127	0x3e234cb4	0.15947229

lstm.bias_hh_l0_reverse f4 [128]
0	0x3d5266b9	0.051367495
1	0xbd6b4c06	-0.05744555
2	0x3e94748f	0.28995177
3	0x3d4a2bd7	0.049358215
4	0x3e525740	0.20541096
5	0x3e27e4f3	0.16395931
6	0xbca393e0	-0.019967973
7	0xbdd0da76	-0.10197918
8	0xbc451484	-0.012028817
9	0x3c99aa1c	0.018757872
10	0x3e00aa55	0.12564977
11	0xbd664b1f	-0.056223985
12	0xbd709ba0	-0.058742166
13	0x3e644031	0.22290112
14	0xbd96e28e	-0.073674306
15	0x3dfcf89a	0.123521045
16	0x3befa6cb	0.0073135844
17	0x3deed962	0.11662556
18	0x3d594998	0.0530487
19	0xbd5ff607	-0.05467799
20	0x3e539974	0.20664006
21	0x3e20d374	0.15705663
22	0x3dcf2c30	0.1011585
23	0xbdc16205	-0.09442524
24	0x3deb70be	0.11496113
25	0x3ca70219	0.020386742
26	0x3de29b58	0.11064786
27	0x3d3c5a5e	0.04598462
28	0xbd28ea46	-0.041239046
29	0x3e904065	0.2817413
30	0x3e66968e	0.2251837
31	0x3e1225a4	0.14272171
32	0xbcba7c48	-0.02276434
33	0xbdd0f8c4	-0.10203698
34	0xbc45a62f	-0.012063547
35	0x3c64e465	0.013970469
36	0x3e23e289	0.16004385
37	0x3cd6642d	0.026170814
38	0x3e4ec4a3	0.20192198
39	0x3e328083	0.17431836
40	0x3c80ac9a	0.015707303
41	0x3d1c505f	0.038162585
42	0x3e69f3a7	0.22846852
43	0x3dd5b70d	0.10435305
44	0x3e0976e8	0.13424265
45	0x3bdd471f	0.006752863
46	0x3d7c4e8f	0.061598357
47	0x3e43d04e	0.1912243
48	0x3e554582	0.20827296
49	0x3df95dd8	0.121761024
50	0xbd45eb1a	-0.048319913
51	0x3e1f3bcb	0.15550153
52	0xbda60a9a	-0.08107491
53	0xbdca2143	-0.098696254
54	0x3e036776	0.12832436
55	0x3dae9f00	0.085264206
56	0x3e42227e	0.1895847
57	0x3e264bf1	0.16239907
58	0x3e280f62	0.16412118
59	0x3dbe9c43	0.09307148
60	0x3df69c65	0.12041549
61	0xbd1919b8	-0.037378043
62	0xbd626d58	-0.05528006
63	0x3e3118de	0.17294642
64	0xbd96c148	-0.07361084
65	0x3e0c782c	0.13717717
66	0x3d53d419	0.051715944
67	0x3e1962bd	0.14979072
68	0xbe0be182	-0.13660243
69	0xbc8694cb	-0.016428372
70	0xbd0f2ce8	-0.034954935
71	0xbe095a36	-0.13413319
72	0x3ca953dc	0.02066987
73	0x3ddb1e6c	0.10699162
74	0x3c830e59	0.015998052
75	0xbe02dacf	-0.12778781
76	0x3dd72d9b	0.105067454
77	0x3dea85f1	0.114513285
78	0xbd9e54c3	-0.07731011
79	0xbdeb3902	-0.11485483
80	0x3dd4c8d9	0.10389871
81	0xbe3771f4	-0.17914563
82	0x3d71a8df	0.05899894
83	0xbb9d5fbc	-0.004802672
84	0xbd2c8095	-0.042114813
85	0xbe3901d4	-0.18067104
86	0xbe00cb92	-0.12577656
87	0x3d8858dd	0.06657574
88	0x3e12bdc3	0.14330201
89	0x3d4995ad	0.049215008
90	0xbe213078	-0.15741146
91	0xbd9c16f8	-0.076215684
92	0x3d856333	0.065130614
93	0x3df3f20f	0.119114034
94	0xbe14a393	-0.14515524
95	0x3e1a2fc4	0.15057284
96	0x3e49bb56	0.19700369
97	0x3d24f91a	0.040276624
98	0xbc5e7ceb	-0.013579587
99	0x3e931c60	0.28732586
100	0x3dde6a62	0.10860135
101	0xbd33055e	-0.04370629
102	0x3db7ff98	0.089842975
103	0x3dab7541	0.08371974
104	0xbdaf7d19	-0.08568782
105	0x3e080288	0.13282216
106	0x3e2959a9	0.16538109
107	0xbdef5688	-0.116864264
108	0x3e2732c3	0.16327958
109	0xbd0ea3d9	-0.034824226
110	0x3d21773c	0.03942035
111	0x3e837751	0.2567697
112	0x3b91431c	0.004433049
113	0x3df84b8c	0.121237844
114	0xbb0402ea	-0.0020143338
115	0xbceb1777	-0.028697712
116	0x3e2660a2	0.162478
117	0x3dd7c469	0.10535509
118	0xbd61fb97	-0.055171575
119	0x3dfd6b20	0.12373948
120	0xbd15dfe4	-0.036590472
121	0x3e6ed2a6	0.23322544
122	0x3e808b8a	0.2510646
123	0x3e543d20	0.20726442
124	0x3d7f050a	0.062260665
125	0xbd8dc947	-0.06923156
126	0x3e39044a	0.18068042
127	0x3d4a028c	0.049318835

lstm.weight_ih_l1 f4 [128, 64]
0	0xbd5c9403	-0.053852092
1	0xbd3ac6cd	-0.045599747
2	0xbd05c8a3	-0.032662045
3	0x3d981349	0.07425553
4	0x3e6a83e0	0.22901869
5	0x3d8778af	0.066148154
6	0x3de86d4e	0.11348973
7	0x3ddcf413	0.10788741
8	0x3de54c7a	0.11196227
9	0x3c1ecc90	0.009692326
10	0xbe69414d	-0.22778817
11	0xbd326399	-0.043552015
12	0x3e708f56	0.23492178
13	0xbdc5cb23	-0.09657886
14	0x3d9fdb13	0.07805457
15	0x3e1388cc	0.14407653
16	0x3bad69fe	0.0052921763
17	0x3dc45116	0.095857784
18	0xbe7cfb84	-0.2470532
19	0x3dc27fe7	0.09497052
20	0x3caebece	0.021331217
21	0xbe1525d7	-0.14565216
22	0x3d812399	0.06305618
23	0x3cc1ccd3	0.023657238
24	0xbe1a44bc	-0.15065283
25	0x3c8f43b1	0.017488332
26	0x3cb730ff	0.02236223
27	0x3dfe7580	0.12424755
28	0x3dcc2d3b	0.099695645
29	0x3d06a20f	0.032869395
30	0xbd3d870e	-0.046271376
31	0xbde801e1	-0.113284834
32	0x3d40c56c	0.047063276
33	0x3d96ea88	0.07368952
34	0x3d8ba058	0.068176925
35	0x3e64d771	0.2234781
36	0xbdf9fb1d	-0.12206099
37	0x3e00e2e9	0.1258656
38	0x3c0d72aa	0.008633295
39	0x3e0406ce	0.12893221
40	0xbc84557e	-0.016154047
41	0xbdf5de35	-0.12005273
42	0x3e498b58	0.19682062
43	0xbe50dd24	-0.20396858
44	0xbe25a465	-0.16175993
45	0xbe821d2d	-0.25412884
46	0xbe3ad8a2	-0.18246701
47	0xbe64b89f	-0.22336052
48	0xbc2fa360	-0.010720104
49	0xbd91a5c2	-0.07111694
50	0xbd2342f0	-0.03985876
51	0x3e5ac31a	0.21363488
52	0xbe1d0dbe	-0.15337273
53	0x3df54f12	0.11977972
54	0x3d7c9fc7	0.061675813
55	0xbd48b9c9	-0.049005304
56	0x3e0c8fc5	0.13726719
57	0x3d81e427	0.06342345
58	0x3d89c77d	0.067275025
59	0xbe3273c6	-0.17426977
60	0x3e0c4a84	0.137003
61	0xbda73f5f	-0.08166384
62	0x3d6043a4	0.054752007
63	0x3e5851e5	0.2112499
64	0xbdfc89fc	-0.12331006
65	0xbe5b9513	-0.21443586
66	0xbe97e727	-0.29668543
67	0xbe9cb7dc	-0.30609024
68	0xbe01bc3e	-0.12669465
69	0xbbed24e4	-0.0072370637
70	0x3e2a4ce4	0.16630894
71	0x3c073f57	0.0082548475
72	0x3e1be458	0.15223825
73	0x3d2cd66d	0.04219668
74	0x3e5979fc	0.2123794
75	0x3c19e7fd	0.009393689
76	0xbe505b01	-0.20347215
77	0xbd083658	-0.03325495
78	0x3de899ab	0.11357435
79	0x3c9bb23d	0.01900589
80	0x3e509161	0.20367958
81	0xbdf9d9ce	-0.12199746
82	0xbdcef423	-0.10105159
83	0xbe69093c	-0.22757429
84	0x3bc4d019	0.0060062525
85	0x3b93effc	0.0045146924
86	0xbe09ceba	-0.13457766
87	0x3e8f0c1f	0.27938935
88	0xbd21dc26	-0.03951659
89	0xbd62c9ac	-0.05536811
90	0xbd20e5f1	-0.03928179
91	0x3d05d87f	0.03267717
92	0xbe0c4b40	-0.1370058
93	0xbc871cf1	-0.016493293
94	0x3e5d4022	0.21606496
95	0xbd248a4d	-0.040170956
96	0x3d5633b8	0.052295417
97	0xbdf7d6a7	-0.121014886
98	0xbe15d35b	-0.14631407
99	0x3e3db6dd	0.18526788
100	0xba1118aa	-0.0005534986
101	0xbdbbb2cf	-0.091649644
102	0xbc12684f	-0.008936002
103	0xbd0a6120	-0.033784032
104	0xbda3da84	-0.08000663
105	0xbcfd0fa2	-0.030891243
106	0x3cf027ca	0.029315848
107	0xbea61e29	-0.32444885
108	0xbc0340b3	-0.008011031
109	0xbaf516dc	-0.0018698829
110	0x3d501a58	0.050806373
111	0xbe5a26d1	-0.2130387
112	0x3d8ed5c8	0.06974369
113	0xbe307dc2	-0.17235473
114	0xbc8f5ae7	-0.0174994
115	0x3e4b8d17	0.1987804
116	0xbe6ab5ce	-0.22920915
117	0xbe246fda	-0.16058293
118	0xbddf5d03	-0.109064125
119	0x3d4af1f8	0.049547166
120	0x3e1ad037	0.1511849
121	0xbc3bfc88	-0.011473782
122	0x3ce565be	0.028002616
123	0xbe356b5e	-0.17716739
124	0xbd7eae79	-0.06217811
125	0x3e78b070	0.24286056
126	0xbe53d516	-0.20686755
127	0xbd9b66b4	-0.075879484
128	0xbca2d482	-0.019876722
129	0xbe09887c	-0.13430971
130	0xbdc44611	-0.095836766
131	0xbdbf69f9	-0.093463846
132	0x3e2ebf73	0.1706522
133	0xbd9b8cd4	-0.0759522
134	0x3dc77000	0.09738159
135	0x3ea3160d	0.3185276
136	0xbe644292	-0.2229102
137	0xbae74e6e	-0.0017647275
138	0xbb96cac1	-0.004601807
139	0x3cc40879	0.023929821
140	0x3dc38a14	0.09547821
141	0xbe214f69	-0.15752949
142	0xbdcdf7b9	-0.10057015
143	0xbcc19bed	-0.023633922
144	0xbe28fda2	-0.16503003
145	0xbe018a22	-0.1265035
146	0x3d555433	0.05208225
147	0x3d66f0de	0.056382053
148	0x3dfe891d	0.12428496
149	0x3e6a5d2b	0.22887103
150	0xbd2a688f	-0.04160362
151	0xbd9192e5	-0.07108096
152	0x3c431a19	0.011908078
153	0xbe6fbac2	-0.23411086
154	0x3e266dba	0.16252795
155	0xbe9889b9	-0.29792574
156	0xbd90288c	-0.07038984
157	0xbd919d8d	-0.071101286
158	0x3e081988	0.1329099
159	0x3d836ef5	0.06417648
160	0xbe3f9b5e	-0.18711612
161	0x3e95606c	0.29175127
162	0x3e88e958	0.26740527
163	0xbdb9e3e7	-0.09076672
164	0xbe0d9a77	-0.13828455
165	0xbe8324e2	-0.25614077
166	0xbdd3fbc5	-0.103507556
167	0x3ec5995b	0.38593563
168	0xbc29a8ca	-0.010355184
169	0x3e84934b	0.25893626
170	0xbe6cbaef	-0.23118185
171	0x3da1aca7	0.07894259
172	0xbe806b05	-0.2508165
173	0x3e2f034f	0.17091106
174	0xbdaba645	-0.08381323
175	0x3da1eabe	0.07906102
176	0xbe01e6ef	-0.1268575
177	0x3e183d1b	0.1486706
178	0x3d3f83c9	0.04675654
179	0xbec0b0fc	-0.37635028
180	0x3cc4ee4f	0.024039416
181	0xbd5d6b6a	-0.054057516
182	0x3d42ebfb	0.04758833
183	0x3e27be82	0.16381267
184	0x3ea615d7	0.32438537
185	0xbc96960e	-0.018382099
186	0xbea7684c	-0.3269676
187	0x3d464673	0.04840703
188	0x3e91fb31	0.28511956
189	0xbd6a2248	-0.0571616
190	0xbe632874	-0.221834
191	0x3e12e2ba	0.14344302
192	0x3e2cf78f	0.16891311
193	0x3e14c2a1	0.1452737
194	0xbe148b81	-0.14506342
195	0xbc09c430	-0.008408591
196	0xbe02ecfa	-0.12785712
197	0xbc601b7a	-0.013678426
198	0x3e484ea8	0.19561255
199	0xbd59c73a	-0.053168513
200	0x3bcbce22	0.0062196413
201	0xbdf373b8	-0.11887306
202	0x3e2a0105	0.16601951
203	0x3d4b26a8	0.049597412
204	0x3dd53b3e	0.1041169
205	0xbe85fcca	-0.26169425
206	0x3e35ee67	0.17766725
207	0x3e1e6645	0.154687
208	0xbe78eae0	-0.24308348
209	0xbe0e1b01	-0.13877489
210	0xbdf3d52a	-0.11905892
211	0xbd9ad5f2	-0.07560338
212	0xbdb42aef	-0.087972514
213	0x3c84685b	0.016163042
214	0x3dfc05a4	0.12305763
215	0x3d77e956	0.06052526
216	0x3e244c6e	0.1604478
217	0xbb88fa48	-0.0041802265
218	0x3e2fe888	0.17178547
219	0xbe29ed98	-0.16594541
220	0x3e02791c	0.12741512
221	0x3d9be417	0.07611864
222	0x3dccb643	0.09995701
223	0x3e0276b2	0.12740591
224	0xbe039379	-0.12849225
225	0xbdff2921	-0.124590166
226	0xbc7f2031	-0.01557164
227	0x3dea251e	0.11432861
228	0x3bf5e28a	0.007503812
229	0x3de1dc9c	0.11028406
230	0xbde5362c	-0.11191973
231	0xbe21995a	-0.15781155
232	0xbdb854ba	-0.09000535
233	0x3e270e6e	0.16314098
234	0xbb31e024	-0.0027141655
235	0xbdd6add1	-0.104823716
236	0x3ca3e392	0.020005975
237	0xbc142f4b	-0.009044479
238	0xbb7eb5b6	-0.0038865632
239	0xbd89e35e	-0.0673282
240	0x3e1dfc85	0.1542836
241	0x3e1ff484	0.15620619
242	0xbea3f024	-0.3201915
243	0xbdf33697	-0.118756466
244	0xbd5499ae	-0.051904373
245	0xbe5e4f56	-0.21709952
246	0x3e53db57	0.2068914
247	0x3d10b097	0.03532466
248	0xbe1f7bb4	-0.15574533
249	0x3e5d38b8	0.21603668
250	0x3dc2857f	0.094981186
251	0xbe336113	-0.175175
252	0x3e78762b	0.24263828
253	0xbda891db	-0.08230945
254	0x3da29a77	0.07939618
255	0x3d8481e2	0.06470086
