trained_models/mESC_intra_cell_line_model.pth (torch, 151481 bytes, 18 tensors)

lstm.weight_ih_l0 f4 [128, 9]
00000000: 447e 5abd 7164 45be ce98 0cbe 5ffb c13d
00000010: aa21 92be f06b 573d 8680 52be c840 083d
00000020: 69b8 2537 ea5b 9abd bfc8 cf3c cbfa 8f3a
00000030: 5352 c43d fbf1 df3c cac8 b03d f65b 82be
00000040: 4378 e73d a790 3dbe 9956 5e3e bc25 243e
00000050: 358c 9f3c b2b8 1fbc 7c91 893d f48b 0b3e
00000060: 8710 3fbd 04e8 003d 4e91 ec3d 4516 1c3e
00000070: cd4a acbe 3b2d 8d3d e6c0 a73c 40ef 713e
00000080: 6a1f 8abd 7298 433d bef5 57be 3de5 66be
00000090: a1ad a63d e7ec 15be f503 b3bc 2e27 0cbe
000000a0: 3b03 9f3d e36e e6bd f96f 883d 4b0f adbd
000000b0: a51a 97be 69a7 e8bc ba54 9fbd 75aa 72bd
000000c0: 36f9 2bbe b5af 59bd 95c2 6abe 6021 10be
000000d0: 0e9c 0cbd e61a 883b 18b8 d93d e4b0 713e
000000e0: 922a 75bd da71 efbd 9575 d43c b80e 423e
000000f0: 1241 0dbe bd32 8c3d 3335 723d 32b3 0f3e
00000100: 6ad8 c7bd 07b3 1b3d 0611 523c 1b3d 023d
00000110: 63bf fabd f114 0cbd 8b6e 433e 5c16 003e
00000120: abd6 2c3e fcfb 223e ada1 8f3d 5a70 cc3d
00000130: 4c64 67bc 1778 283e 410c d8bd 2296 823d
00000140: b2cc 8f3d 9904 50be d88e 29bd eebe 7dbc
00000150: b0cf c2ba fcd0 0fbe 31d8 89be 0f7a 193e
00000160: 8fe1 0fbd 5e9e ef3d dc6f d03d 9ae9 ddbd
00000170: ca7a 713b 9e13 c73a 871f 01be 6561 ecbc
00000180: c35b 443d 0cf8 9b3c 3262 f8bd aa9a b2ba
00000190: 9896 9e3e 445a d8bb 464e 203e 9e42 673d
000001a0: af1f 50bd ef54 9fbe 7425 ad3d f3d0 de3d
000001b0: aaaa 623d c111 893b 9275 43bd a7c4 153d
000001c0: ad65 4b3d 1300 1cbe 54be 193d 5cfd 123d
000001d0: f0b9 573d 363e a33c b223 32be e433 1dbe
000001e0: 47b8 47be 2008 1abd 3545 263e b245 52be
000001f0: c893 7b3d 1acd 5cbe 9191 e6bd a9be f03d
00000200: d6e6 5a3d 1a62 593c 0ff6 17be 8a43 4fbe
00000210: cdd2 b23e 9833 e53d f376 c0bb 2865 2a3e
00000220: 61e4 463d 506e 383d 39d8 11bb fc43 e3bd
00000230: c342 c4bd 2053 77bd 2bac 943c f458 343d
00000240: a400 653d ca90 dbbd d90a ca3d f4b1 b93d
00000250: e9ae 273e b242 953d 0ca3 68bd ab0b 3e3e
00000260: 77ee 0e3d cb0e d4bd 542c eabd 0099 d5bc
00000270: 7428 a1bd 47d2 dfbc 3185 2f3e 4bc6 46be
00000280: c074 a7bc 1bd7 a43d a640 563d 2323 353e
00000290: bd42 183c cdaf 193e 1aba 8dbc 88a2 8abd
000002a0: ecdd 0bbe 43c3 ac3c db47 8f3d 0142 a43d
000002b0: a801 cd3d abcd 963d f9ba 283e 1b20 2e3e
000002c0: 93c0 4a3e 2ea4 e8bc 23ec fbbd a17a af3d
000002d0: 9f3a 4fbd 6ebd 30bc 3c26 06bd d9a4 98bd
000002e0: 61a6 e23c b8cc cb3e 1555 e3bd 8de6 d1bd
000002f0: f752 10bd d757 cabd 4d86 e63d bbd7 49bd
00000300: 31d7 b5bd 8767 733b 656a 1e3e 4141 f5bd
00000310: 5467 643d db8f 413e 98b1 2a3e 1861 76be
00000320: 6575 d83d f709 dfbd 3661 583e 2178 21bd
00000330: 508a 453e 4869 1bbe 6e89 da3d 4457 dabd
00000340: abe5 07be 442e 26bd 3a30 3bbd c241 a7bd
00000350: 8a80 4cbe 21bf 873d d4da f83c 5850 973d
00000360: f83f d93d c453 45bd 47cd 5ebe 04a3 723d
00000370: f3c1 7abe 833c 653e 2a11 5cbe 22a3 ddbd
00000380: 3bfa 9d3d d276 2dbe 0b52 a33d d607 b93d
00000390: 8356 9b3d 81ea 603e bb25 77bd 03c0 2cbe
000003a0: 5c0c 663e ddd5 c5bb 2033 f6bd 559a 2c3d
000003b0: 7b8f 2fbe f5d4 043e 3cd6 3e3d 1788 87be
000003c0: 68cf 60be ebe9 b63c a285 9e3d 1554 113c
000003d0: 54ab 07be fe09 0b3e 0d7f c5bd 560e fabd
000003e0: b73c 79bd 6654 fa3d 9aba 873e d1af bc3d
000003f0: a8ff 9fbd 5148 ed3d 85ed b9bd 4828 02be
-0.053343073 -0.19276597 -0.13730165 0.09471773 -0.2854131 0.05259317 -0.2055684 0.033264905
9.877703e-06 -0.075370625 0.025364278 0.0010984776 0.095860146 0.027337065 0.086320475 -0.25460786
0.11302235 -0.18512212 0.21712722 0.1603002 0.019476036 -0.009748625 0.06717202 0.13627607
-0.04664662 0.031471267 0.11551152 0.1524287 -0.33650818 0.06893393 0.020477723 0.23626423
-0.06744273 0.047752805 -0.21089837 -0.22548385 0.08138586 -0.14641152 -0.021852473 -0.13686821
0.07764288 -0.11251619 0.06661982 -0.084501825 -0.29512516 -0.02840014 -0.07779832 -0.05924459
-0.16794285 -0.053146083 -0.2292579 -0.14075232 -0.034328513 0.004153597 0.10630816 0.23602635
-0.05985505 -0.11691637 0.025934974 0.18950927 -0.13794354 0.06845615 0.059132766 0.14033201
-0.097580746 0.03801253 0.0128214415 0.031796556 -0.12243535 -0.03419966 0.19085138 0.1250853
0.16878764 0.15916437 0.07013259 0.09982367 -0.014123034 0.1645206 -0.10549212 0.06376292
0.070214644 -0.20314254 -0.041395992 -0.015487416 -0.0014862921 -0.14044565 -0.26922753 0.14987968
-0.03512722 0.11700128 0.101775855 -0.108355716 0.003684687 0.0015188341 -0.12609683 -0.028855035
0.047939073 0.019039176 -0.12128104 -0.0013626416 0.3097427 -0.0066025574 0.15654859 0.056460015
-0.050811466 -0.31119487 0.08454409 0.10879698 0.05533854 0.0041830246 -0.047719546 0.036564495
0.049657512 -0.15234403 0.037535027 0.035886154 0.05266756 0.019927125 -0.17396429 -0.15351826
-0.1950389 -0.037605405 0.16237338 -0.20534399 0.061420232 -0.21562615 -0.11258233 0.117551155
0.0534428 0.013268018 -0.14839958 -0.20240608 0.34926453 0.11191481 -0.005873555 0.1664015
0.048557643 0.045027077 -0.0022254123 -0.11096951 -0.09583046 -0.06038201 0.018148502 0.044030145
0.055908814 -0.10720976 0.0986535 0.09067145 0.16375317 0.07288112 -0.05679612 0.18559138
0.034895387 -0.10354384 -0.11434236 -0.026073933 -0.07869044 -0.027321948 0.17140652 -0.1941158
-0.020441413 0.080488406 0.052307747 0.17689185 0.009293255 0.15008469 -0.017300654 -0.067692816
-0.13658875 0.021089202 0.06996127 0.08020402 0.100100815 0.07363447 0.16477574 0.17004435
0.19800024 -0.0283986 -0.12300899 0.085683115 -0.050593015 -0.010787351 -0.032751307 -0.07453317
0.027667226 0.39804626 -0.111002125 -0.10249052 -0.03523537 -0.09880035 0.112560846 -0.049278002
-0.08878935 0.0037140565 0.15470274 -0.11975337 0.055762604 0.18902533 0.16669309 -0.24060476
0.10569266 -0.108905725 0.21130833 -0.039421204 0.19291043 -0.1517688 0.10670744 -0.10661176
-0.13271205 -0.040571466 -0.04570029 -0.08166839 -0.19970909 0.06628252 0.030377783 0.07388371
0.10607904 -0.04817559 -0.21757995 0.059237495 -0.24488048 0.22386365 -0.21490923 -0.10822131
0.07713743 -0.16939858 0.07974633 0.09034698 0.0758486 0.21964456 -0.060338717 -0.16870122
0.22465652 -0.0060374574 -0.1202147 0.04213937 -0.17144577 0.12971862 0.04659103 -0.26471016
-0.21954119 0.022328338 0.07740332 0.008870144 -0.1324895 0.1357803 -0.09643374 -0.122097656
-0.060848918 0.12223129 0.26509553 0.09213222 -0.078124344 0.11586059 -0.090785064 -0.12710679

lstm.weight_hh_l0 f4 [128, 32]
00000000: 1885 f3bd 7cb9 70bd 1945 06bd 23c1 40be
00000010: d52b 103e 509e 22bd c39c b2bd 3560 73bc
00000020: 5c1b cdbd 9176 0d3e 972b 383e abd3 12be
00000030: f915 38bc 0a45 2c3e b7f8 9ebd e214 043e
00000040: 0be5 3ebe 0e2c 4cbe 6c7a 2cbd 1e84 fdbd
00000050: 89d6 d13d ce9d b83b 56fc 47bd d5dc aabd
00000060: 4877 763d 08bb f23d 58a8 c43c 9cf3 09be
00000070: bc67 c9bd 1451 773e 1a77 f23d e6bf 573d
00000080: 2350 93bd 2e37 093c 68c0 4bbd 8f90 303d
00000090: 9fd8 8f3d a4da f43c b60a 593e f8b9 733e
000000a0: 5cf3 5ebd 3a62 e83c 489f ad3d 1f11 363e
000000b0: eaa8 5f3e b089 c03d 1d81 263d 8ec3 443e
000000c0: 40fb b2bd 1eb0 413d 90e7 ef3d 0d18 07bd
000000d0: bf5e 28bd 3622 9fbd 8868 c4bd f897 b13d
000000e0: a699 6cbe 9ab4 73be adcb 2b3d 7c29 953d
000000f0: c17c 5cbe 37f5 d23d 6e67 953e 51ed 273e
00000100: 25df 3b3e a225 7abd de3d 883c 130a 5fbe
00000110: c66a 803d 1678 503d 828f 78bc 5414 913e
00000120: 8318 00be 78f7 b23c 1c0d 31be 6313 583e
00000130: bf3d 7bbe a7cb ccbd ca39 783e c56d 3f3e
00000140: b714 d8bc 74ba ddbd 597b b43e 0c14 813d
00000150: 6981 373e a05d 673a 0bd6 823d bfb9 e5bd
00000160: a8f5 293d 6824 66be 9758 a83d 5a29 cbbe
00000170: 0cab 0dbe 0477 1ebe e91a 2d3e a47b 243e
00000180: 9ce2 d7bd c3a0 8cbd e57e c83d 9ade dcbc
00000190: 5319 7f3e fc25 ccbc ffaa f83d e1d7 3a3e
000001a0: 1734 c4bd e50c ab3d fc0e 00bd dbab 313e
000001b0: 89a4 963c c017 bdbc 0e34 cd3c b8de 79bd
000001c0: eb11 ce3d 5661 633d 564e f23d 9a1f 923e
000001d0: 49dc bc3c 053f 723d a6cd 2b3d 7131 38bd
000001e0: 1872 053e b76f 103d b836 9bbd 6624 dbbd
000001f0: 525c 4dbe 6ce7 49be 2d72 233e 4b98 0fbe
00000200: 9fd8 c9bd f6e1 84bd e7e7 fabc 2f22 a4bd
00000210: 240f 7d3d 5ff7 dcbc 2fa9 2e3e 6de8 bc3c
00000220: f816 313d 6d9a 9e3d 1fee 053e 21cc 8d3b
00000230: c46e 3c3e 2623 9b3d 0508 543d fe1a 583e
00000240: 3ccc 2fbe b32e ebbc 238f e53d 74e3 eebd
00000250: d6a8 19ba 84a6 3a3d 88bf c6bc d723 123e
00000260: 81c9 1abd 64ac e33c 5fb2 17be c14e f23d
00000270: dcb9 2abe c3bb 013e 2921 af3d 04f7 c8bd
00000280: 8cdd 4dbd 1ed0 59bb 9acd f8bc 1339 48bd
00000290: f40e ebbc 3b4a eb3d 4e7b 8f3d ff03 0fbe
000002a0: 1e6f 44be 6892 e83d 58d9 e83a cf5c 123e
000002b0: d208 59bd 73e2 183e ae55 94bd 8dcf edbd
000002c0: 7b10 86bd 1b63 74be 2c28 4f3c 74de 57bc
000002d0: b436 0fbe 34e1 5a3e 2c48 a0bc ef3f 203e
000002e0: 4a25 ad3d 4a55 00be d090 4bbe 8167 4d3b
000002f0: 6c94 16be 9520 1c3e a254 18bd 586f 763c
00000300: 7dba 3fbe f253 68be 7505 fbbd aaf4 86bd
00000310: ae0e 21bc 9f4a 713d 2b9d 993d 2fba 2dbd
00000320: dbf6 1dbe 197b d9bc bdf3 073e 2a67 903c
00000330: a79a 2ebe 7a29 4b3e 8f8d 9a3d df1a 7e3d
00000340: 67d6 8abc 4db3 1b3e 7ca4 d2bd 4d0c 113e
00000350: 5fce 973e 1ad4 17bd dee8 323e 2404 d63d
00000360: 3bf6 1f3e a595 86bd 4fa1 cebd 5d76 dbbd
00000370: f95d 68be b2c9 e93c e4a3 8c3e 7a85 563e
00000380: bb62 393e c9eb 8d3d 2117 a6bc 66de 943d
00000390: 74ba 443e c701 943d adf7 393c 3421 0e3e
000003a0: 32e6 1ebe f242 0fbd 6f90 18be befc 653e
000003b0: 8ae8 b93d ec2f bbbd 0ffc d03c 0b5f 8dbd
000003c0: e427 08be e79e d03d 7cb0 03be 06b2 f63d
000003d0: 10bd ebbd 7cfd 76bc 9932 04bd b528 90bc
000003e0: 0dfc 1c3c ac3e 26be 4caf 713d 6d20 64be
000003f0: f607 dabd 25b6 03be fe90 0b3e 5058 98bd
-0.1189062 -0.05877064 -0.03278074 -0.18823676 0.1407922 -0.03970176 -0.08721306 -0.0148544805
-0.10014984 0.1381476 0.17985378 -0.14338557 -0.011235707 0.16823211 -0.07762282 0.12898591
-0.1864206 -0.1993868 -0.042108938 -0.12378715 0.102459975 0.005634046 -0.04882463 -0.083429016
0.06017235 0.1185208 0.024006054 -0.13471836 -0.09834239 0.24152023 0.11839123 0.052673243
-0.07193019 0.008374972 -0.04974404 0.04310661 0.07023739 0.029889412 0.21195492 0.2380141
-0.054431304 0.02836715 0.08477646 0.17779969 0.2184178 0.09401262 0.040650476 0.19215223
-0.087393284 0.0472871 0.11714089 -0.03298192 -0.041105982 -0.07770197 -0.0959025 0.08671564
-0.23105487 -0.23799363 0.041942287 0.07283303 -0.21531965 0.10300677 0.29180473 0.16399123
0.18346842 -0.061071046 0.016631063 -0.21781187 0.062703654 0.050895773 -0.015170934 0.28335822
-0.1250935 0.021846518 -0.17290157 0.21101145 -0.24535273 -0.09999781 0.24240795 0.18694218
-0.026377065 -0.10826579 0.35250357 0.06302652 0.1792046 0.0008825902 0.06388482 -0.11217069
0.04149404 -0.22474825 0.08220022 -0.39679986 -0.1383478 -0.15475088 0.16904797 0.1606279
-0.10541269 -0.068666 0.09789828 -0.026961613 0.24912004 -0.024920456 0.1214199 0.18246414
-0.09580248 0.08352069 -0.03126429 0.17350714 0.018389003 -0.023082614 0.025049236 -0.061003417
0.10062011 0.05551275 0.11831348 0.28539735 0.023054259 0.05914213 0.04194417 -0.044969026
0.13031805 0.03526279 -0.07578796 -0.10700302 -0.20054749 -0.19717187 0.15961523 -0.14022939
-0.0985577 -0.06488411 -0.030628158 -0.080143325 0.061782017 -0.026973424 0.17056726 0.023060048
0.043234795 0.07744298 0.13079117 0.0043273126 0.18401629 0.075750634 0.05176546 0.21104047
-0.17167753 -0.028708791 0.11208942 -0.11664477 -0.00058616453 0.045568958 -0.024261251 0.14271484
-0.037789825 0.027792163 -0.14814137 0.11831427 -0.16672462 0.12669282 0.08551247 -0.098127395
-0.05026011 -0.003323562 -0.030371476 -0.048882555 -0.028693654 0.11488768 0.070059404 -0.13966368
-0.19183013 0.1135605 0.0017764969 0.14293216 -0.052986927 0.14930134 -0.072429046 -0.11611853
-0.06546112 -0.2386593 0.012643855 -0.013175596 -0.13985711 0.2137497 -0.019565664 0.15649389
0.08454378 -0.12532535 -0.1987946 0.003134221 -0.14705056 0.15246804 -0.037190087 0.015041195
-0.18723483 -0.22688273 -0.122569 -0.06589635 -0.00983016 0.058909055 0.075006805 -0.042413887
-0.15426199 -0.026547955 0.13276573 0.017627317 -0.17051183 0.19840041 0.075465314 0.062037345
-0.016947938 0.15205117 -0.10285279 0.14164849 0.29649636 -0.03706751 0.17471644 0.104500085
0.15621273 -0.06571511 -0.10089361 -0.107159354 -0.22692098 0.028538559 0.2746879 0.20949355
0.18104069 0.06929738 -0.0202747 0.07268982 0.19211751 0.072269015 0.011350554 0.13879853
-0.155175 -0.034975953 -0.14898847 0.22459695 0.090775564 -0.0914 0.025510816 -0.06902894
-0.13296467 0.10186558 -0.12860292 0.12045674 -0.1151067 -0.015075084 -0.032274816 -0.017597536
0.009581578 -0.16234845 0.059005067 -0.22277994 -0.1064605 -0.12862451 0.13629529 -0.07438719

lstm.bias_ih_l0 f4 [128]
00000000: 8499 813c 39c9 983e ec43 0c3e 5321 e73d
00000010: f887 f83d 28ed 2cbc 4909 833e 7852 883e
00000020: c006 5dbd 17f9 d23d a47d e93d 59a5 6b3e
00000030: 72c9 2a3e df57 793d 574c d93e 7bc8 633d
00000040: 4f59 d13d 15db bbbc 5081 a73d 1406 15ba
00000050: 9611 f4bc b2ac bd3d 2634 173e 98fd d6bc
00000060: 083f b7bc 04a7 aa3e daae 6a3c 96f3 b93c
00000070: 62bc 623d 422d 063b 0753 4abc fbae a23d
00000080: 1b71 3abd f2bb 153d ad58 fc3d 487a 733d
00000090: 5162 353e 5073 f3bd cd0e 3d3e 3a24 b33d
000000a0: 323e 9bbd 8f8c 4b3e 2731 253e d056 ea3d
000000b0: 55b4 c63d 1779 a13c 8094 043e 6aee 6c3c
000000c0: 24b2 3abd 6216 7f3d 1a65 86bc a28e e23d
000000d0: 3e51 993d dccd afbd 6009 3b3e 2146 063e
000000e0: 396b 0a3e 0c80 aabd 8d25 503e dca3 533d
000000f0: 9df9 1ebc 97ff 8dbd 5489 963d e738 b43d
00000100: bbe0 7a3d aec3 283e 77da 7cbe 5f7a 64be
00000110: 1b93 573e 618f 303e 5585 bcbc 5939 f03d
00000120: 6693 0d3e 6470 8d3e 9260 13be 5312 50bd
00000130: a4dc 25be 6206 d2bd 68b9 a93e 85b8 2f3c
00000140: df90 7cbe fc00 c63d 2fb4 c53d cf93 1c3e
00000150: 16ea fbbb aba2 4c3e 6aed 6abe 4b5e 753d
00000160: c0cb 29bd 506c 84be 226f 0fbe 86f8 00bd
00000170: 453d 84bd 1a71 88bd bf00 5a3d e73d 43bd
00000180: 4e28 903e 74d5 8a3e e698 8a3e 59b0 4f3e
00000190: 8504 91bc 41a5 ac3d 8721 693d e77d ce3d
000001a0: c620 76bd 67f9 2c3d 10ed 893d af28 2f3e
000001b0: 088d 853d cb0e e23d ab9b a03d c62a 6ebc
000001c0: 5fec 21bd 76ae 773e d1e0 923e ca08 9cbd
000001d0: 41da e73c 2e49 a13d 9cda ac3d 0296 fd3d
000001e0: b27c 803d e8c5 0b3e a027 7a3d b0b6 49bb
000001f0: 7690 ca3d b7e9 8e3e dbdc 9a3e cb47 2fbd
0.015820272 0.2984102 0.13697785 0.11285653 0.12135309 -0.010554589 0.25593022 0.2662542
-0.053961515 0.10301416 0.11400917 0.23012294 0.16678408 0.060874816 0.42441055 0.055611115
0.102221124 -0.022931615 0.08178961 -0.00056848046 -0.029793542 0.09261455 0.14765987 -0.02624397
-0.022368923 0.33330548 0.014323914 0.022699159 0.055355437 0.0020473753 -0.012348897 0.07943531
-0.045518022 0.03655619 0.12321601 0.05944279 0.17713286 -0.118872285 0.18462677 0.08747144
-0.07580222 0.19877838 0.16132031 0.114423394 0.09702364 0.01971106 0.12947273 0.014461139
-0.045580044 0.062277205 -0.01640563 0.11062361 0.07486199 -0.085841864 0.18265295 0.1311269
0.13517465 -0.08325204 0.20326824 0.05166994 -0.009703067 -0.069335155 0.07350412 0.08799916
0.061249476 0.16480896 -0.24692713 -0.22312306 0.2105221 0.17242195 -0.023012796 0.11729688
0.1382576 0.2762481 -0.14392307 -0.050798725 -0.16197449 -0.10255124 0.33149266 0.010725145
-0.24664639 0.096681565 0.09653508 0.1529076 -0.0076878173 0.19983928 -0.22942129 0.059904378
-0.041454077 -0.25863886 -0.14007238 -0.03148701 -0.06456999 -0.066621974 0.053223368 -0.047666457
0.2815575 0.27115977 0.27069777 0.20282115 -0.01770235 0.08429957 0.05691674 0.10082608
-0.06008985 0.042230036 0.06734669 0.17105363 0.0652104 0.11037978 0.07842191 -0.014536565
-0.03953206 0.24187645 0.28687146 -0.07618864 0.028302314 0.07875286 0.08440134 0.12382127
0.06273784 0.13649714 0.061072946 -0.0030779056 0.09890835 0.27912685 0.30246624 -0.042793076

lstm.bias_hh_l0 f4 [128]
00000000: e5c7 113e c8ec 8c3e 94b8 833e f0e0 0e3e
00000010: 5a8b 833e a1f4 1a3e 9cfa c03d 46e3 943e
00000020: aabb 413e 12f4 903c dc32 5a3e 071d 8a3e
00000030: 730d 713e d4bd d2bb 4edd 4f3e 55e2 533e
00000040: 9d44 663e 07c1 61bd 6853 a93e 2803 0e3e
00000050: fa3f 3d3e 5b2f 853d 92e6 b23d e159 503e
00000060: dadc 1d3e fb32 a23e 65be 93bc 248d b93d
00000070: eb95 a23d 898e 203e b52f 5f3e 368c 493e
00000080: 340d 81bd 40bc 743d 32dc e73d 9ab0 ddbc
00000090: bf93 1f3e 8541 3a3e 97e2 023e 888f ad3d
000000a0: 11fc a23d 82fe 95bd b549 6ebd f2df 6a3e
000000b0: e76b d0bc 4008 ad3d 8ee8 a83d 5e6c 823c
000000c0: 1327 5e3c 76f2 9bbc d00e b93d d126 3b3e
000000d0: 5355 513d e267 c839 959e 2c3e b1bc 1ebb
000000e0: be2b c63d f8c1 c23d 4cd8 d33d d142 d03d
000000f0: 36ce 503d 0186 0a3d d326 eb3d c12b 3d3d
00000100: a3da babc 14c3 983d b2ac 33be de9a 8ebd
00000110: 60c9 85bd b978 d23d 725e 283e db1e 1dbd
00000120: 6ecc 15be 83b1 963e dbb7 1abe df9a 063e
00000130: 03c7 583d 3052 eebd c0cd 2d3e 0609 78bd
00000140: 3de3 2d3d 1730 28be 53f8 3e3d aac9 cb3c
00000150: 6bab 653e beb3 213e dba3 893d 203c dfbd
00000160: 792c 223d 0ea2 b0be 162e fe3d 1242 eabd
00000170: 0a03 9f3d cff7 b63d ff4b 21be d20e 293e
00000180: 9a21 2c3d 45b0 483e ad2c a73d 48e6 443e
00000190: 5bcd 0a3e f905 8e3e dd75 453e 322e 203e
000001a0: 5979 933d 5c0f 5fbd 0a89 9e3c 8415 e33d
000001b0: 2a48 353e adc0 773d 60ae 6b3e ea5b 683c
000001c0: d397 b1bd eb8d 123e cb0d 8e3e 1061 313e
000001d0: d90e a63e bb6d b1bd 9c56 6d3e fd29 513e
000001e0: 1e11 113d d235 5f3e 0ff9 493e 240a 303e
000001f0: 4d7d 5bbd 0dcd 4d3e 09b3 a53e 6b38 5b3d
0.1423641 0.275244 0.2572676 0.13952994 0.25692254 0.15132381 0.094228 0.29079646
0.18919244 0.017694507 0.21308464 0.2697527 0.23540287 -0.0064313207 0.20299265 0.20691808
0.22487111 -0.055115726 0.33071446 0.13868392 0.18481436 0.06503173 0.08735384 0.20346786
0.1541628 0.3167952 -0.018035123 0.090601236 0.07938751 0.15679373 0.21795543 0.19682392
-0.063013464 0.05974984 0.11321296 -0.02706175 0.15583704 0.18189056 0.1278175 0.08474642
0.07958234 -0.07323934 -0.05817576 0.22936991 -0.025442077 0.08448839 0.08247481 0.015920814
0.013559121 -0.019036513 0.090360284 0.18276526 0.051106762 0.0003822437 0.16857369 -0.0024221356
0.09676312 0.09509653 0.1034399 0.10168994 0.050977908 0.033819202 0.114820145 0.046184305
-0.022809332 0.07459083 -0.17546347 -0.06963132 -0.0653255 0.10276932 0.16442278 -0.038359504
-0.14628765 0.29432306 -0.15109198 0.13145016 0.052924167 -0.1163677 0.16973019 -0.06055548
0.04245304 -0.16424595 0.04662354 0.024876434 0.22428672 0.15791222 0.06720706 -0.1090014
0.039593194 -0.34498638 0.12411134 -0.11438383 0.077642515 0.089339845 -0.15751646 0.1650956
0.042024232 0.19598491 0.08162818 0.1922847 0.135549 0.27738932 0.19283243 0.15642622
0.072008796 -0.054458007 0.019352455 0.11088088 0.1770331 0.060486484 0.23015738 0.01418207
-0.08671536 0.1431195 0.27744898 0.17322183 0.32433203 -0.086635076 0.2317757 0.20426174
0.035416715 0.21797875 0.19723915 0.17191368 -0.053586293 0.20097752 0.32363155 0.0535206

lstm.weight_ih_l0_reverse f4 [128, 9]
00000000: 3e03 cb3c 4321 653e 07eb 58be 0841 80be
00000010: acca c2bc 3359 293d 8084 01be b4a1 29be
00000020: 047a eabd 98a4 d43d b657 453e b20a 87be
00000030: 41cb b2bd c1a1 35be 0982 5ebe 1e9e 6e3e
00000040: 70ed 253c a755 803e dd79 48be 69f7 19be
00000050: 1bc8 e9bc cb2c 0b3e e358 a1bd 90d5 eb3d
00000060: a93b 25be eb92 5f3c 9219 153e 8eb8 dc3d
00000070: d6c9 ca3d f878 863d 870e 333e 9d65 83bc
00000080: 56ae cfbd 4dad 083e 536d 27be 78b2 4f3c
00000090: 50e1 babd a057 313e 0c78 093d c738 0fbe
000000a0: 726b 1cbc 9713 2ebd 5408 9fbd 8ebf 4c3d
000000b0: 6597 2dbe 323b 493d 4d3b 7f3b 89d6 1abe
000000c0: d182 123e 9a63 ddbd 29fd 03be 5e13 943d
000000d0: 72d7 04be f3b5 3e3e b1b9 6ebe c3cb 3dbe
000000e0: 15bd 033b 02e6 17bd 967e 053e 0fa3 a93d
000000f0: 25a8 f23c 66a0 663d 3912 0f3e 26fa ccbd
00000100: 80e9 ccbd e207 babd bedc 6dbc db83 5b3d
00000110: 8ca4 f13d dfdf 22be 68b5 00bd 7cab fc3b
00000120: e261 2dbc f64b fabd a7d6 4f3e 7dfb 3bbe
00000130: 9383 2e3e 3f2b 263e 0646 42be 66f4 39be
00000140: eadd 68bd 1da1 59bd 80fe 963d 9bae 80bd
00000150: 0374 663e a218 973d 58d0 d33d 22b4 4f3e
00000160: 7836 7fbb 410b 69be 5a25 153e 7e61 843e
00000170: 9284 e03d 7cb1 7fbc 8aa2 e53c 6dff 5c3d
00000180: c7e7 79bc 0d2c 36be df19 f8bd d0c4 92bd
00000190: 5d68 30bd 819a ef3c 0ee5 83bd af9b 00bd
000001a0: d770 3ebe f146 9a3e 47a3 91be d9e8 ff3d
000001b0: 5379 043e 7c10 4f3e 4728 d13d bed1 b03b
000001c0: bb4b c1bd 817b a73d 1596 99be dc45 30be
000001d0: 89ef b4bc 2d4f 63be a27e f93d 829c 35be
000001e0: e9f7 02be da39 0dbe d2df 203c 3448 003d
000001f0: 6221 e23b 0ac4 623d 14e5 cabc 47e7 5fbe
00000200: 19ab 5f3c 2b2f 5fbe 2182 81bd 37be 2dbe
00000210: 1337 dbbd 514d 113e 91f2 4ebe 4305 acbd
00000220: 6b60 8bbe 5193 ec3d 488d fe3d 1e0f 31be
00000230: 4a9c 67be 1db5 80be 6837 c83d ac9f 5bbe
00000240: 28a5 05bd a560 293e aae3 31be fbd6 e33c
00000250: bb3d 5fbe 9908 4b3d d1ea 14be 55a2 ab3c
00000260: 3d36 a3bc b79c 78be 4c27 fabd a8ae 5bbe
00000270: 8e5c d4bc a79f 0abc 0810 9cbd 8443 993d
00000280: c747 9cbd 8d84 67ba 5852 963e 56eb 803e
00000290: 2279 f13c 818a 963d 6ef6 663e 03e7 4ebc
000002a0: 9352 193d ccce a0bd 2248 ce3e 9a1a 0ebe
000002b0: ef5c 3dbc 70dc 0b3c a0d7 39be b74e 9f3d
000002c0: 92e2 103d c230 e03d 54f8 f8bd 1a4e d8bd
000002d0: 258f eebb 2b19 f9bd e0a1 53bd e763 203e
000002e0: e21c 8d3d 415c 0bbe 595e 5dbe 6ee6 e73d
000002f0: 9cbd 883d 2923 91bd 0219 0e3c aaa0 3a3e
00000300: 102b 173e b456 8cbc 4056 ab3c 4514 c3bc
00000310: be5a 7c3d 7200 99bc b1de 81bd daa9 f83d
00000320: f15d 43be 5cd7 af3d 57f2 dfbd 4c99 06be
00000330: 8720 2a3e 759d 003e 856f 683d 462a 8dbc
00000340: 7ee1 3c3d a871 8abd 5f1d 28be 2e63 71be
00000350: b4b9 ce3d 5f7b 9abb 6230 b7be b0ce 0e3e
00000360: 0f6d a7bc 67bf c0bd b63f a5bd 6c59 8cbd
00000370: dc30 713c 0bfc b7bd 9b78 1a3b 3ac0 37be
00000380: c598 453e 43be 3c3e 9d9a 2c3e b20f 2ebd
00000390: 9314 243e 375d 23bd 5d7d 83be 32ba 963e
000003a0: aa7e 493d a5eb 8b3e a2fd 5cbe a5b6 40bb
000003b0: 40d9 3f3e cbac 7dbd 5c60 4f3e 1de2 30bd
000003c0: 07c1 913d 1572 953d 6b2d 103d d7a6 5e3e
000003d0: 517d be3d 5e90 253d 7a6e 11be 330d 82be
000003e0: 74c9 583e 486d 7a3d bfff 13bd 9664 39be
000003f0: 9130 b0bd 0a0c eebd a3a6 81bd 8850 8cbc
0.02478182 0.2237597 -0.21183406 -0.25049615 -0.023778282 0.041344833 -0.12648201 -0.16565591
-0.11449054 0.10382956 0.1927174 -0.26375347 -0.08730174 -0.17737485 -0.21729292 0.23302504
0.01012741 0.25065348 -0.19577737 -0.15035786 -0.0285378 0.13591306 -0.07878282 0.11515343
-0.1613604 0.013645868 0.14560536 0.107773885 0.099017784 0.06566042 0.1748601 -0.016039664
-0.10140674 0.13347359 -0.16350298 0.012676828 -0.09125006 0.17318583 0.03356175 -0.13986503
-0.009547101 -0.04249915 -0.0776526 0.04998737 -0.16952284 0.04912872 0.0038945258 -0.15120901
0.14307715 -0.10810013 -0.12889542 0.072302565 -0.12972811 0.18624096 -0.23313023 -0.1853476
0.0020101715 -0.037084587 0.1303657 0.08283054 0.029621193 0.05630531 0.13971795 -0.100086495
-0.10005474 -0.09083535 -0.014517961 0.053592544 0.11798963 -0.15905713 -0.031423002 0.007710872
-0.010582419 -0.1222152 0.20296727 -0.18357654 0.17042379 0.16227435 -0.18972024 -0.18159637
-0.05685226 -0.053132165 0.07372761 -0.06283303 0.22505192 0.07377745 0.10342473 0.20283559
-0.0038942378 -0.227582 0.1456503 0.2585563 0.10962786 -0.01560628 0.028031606 0.05395453
-0.015253014 -0.17790242 -0.121143095 -0.07166445 -0.04306828 0.029248478 -0.06440173 -0.03139847
-0.18597732 0.3013225 -0.28444883 0.12495584 0.12936907 0.20221132 0.102127604 0.005396097
-0.094382726 0.081778534 -0.29997316 -0.17214149 -0.022086876 -0.22198172 0.121823564 -0.17735484
-0.12789883 -0.137916 0.009818988 0.03131886 0.006900952 0.05536274 -0.024767436 -0.21865569
0.013651633 -0.21795337 -0.06323648 -0.16967092 -0.10703864 0.1418965 -0.20209719 -0.08399441
-0.27222 0.11551536 0.12429291 -0.17290923 -0.22618213 -0.25138178 0.09776193 -0.21447629
-0.03262821 0.16540773 -0.17372003 0.027812472 -0.21800892 0.049568746 -0.145427 0.02095143
-0.019923324 -0.24278532 -0.122145265 -0.21453345 -0.02592304 -0.008460916 -0.07620245 0.07483581
-0.07630878 -0.0008831702 0.29359698 0.25179547 0.029476706 0.07350636 0.22554943 -0.01262832
0.037432265 -0.078519434 0.40289408 -0.13877335 -0.011557802 0.008536443 -0.1814866 0.077786855
0.035372324 0.109468 -0.1215674 -0.10561772 -0.0072802478 -0.121630035 -0.051668048 0.1566311
0.068902746 -0.13609411 -0.21618022 0.11323248 0.0667679 -0.070867844 0.0086729545 0.18225351
0.14762521 -0.017131187 0.02091515 -0.023813376 0.061609976 -0.01867697 -0.06341303 0.121417716
-0.19078805 0.085859984 -0.109348945 -0.13144416 0.1661397 0.12560065 0.05674698 -0.017232072
0.046113484 -0.067599595 -0.16417454 -0.2357299 0.10094014 -0.004714414 -0.357791 0.13946033
-0.020437745 -0.09411507 -0.080687925 -0.06852993 0.014721122 -0.0898362 0.0023570422 -0.17944422
0.19296558 0.18431954 0.16855855 -0.042495437 0.16023473 -0.03988382 -0.25681582 0.2943893
0.049193062 0.2732822 -0.21581128 -0.002940574 0.18735218 -0.061932366 0.20251602 -0.04318439
0.07116895 0.0729715 0.035199564 0.21743332 0.09301246 0.040420882 -0.142023 -0.25400695
0.21170598 0.061139375 -0.03613257 -0.18104777 -0.08603013 -0.1162339 -0.063306116 -0.017128244

lstm.weight_hh_l0_reverse f4 [128, 32]
00000000: 247e ed3d d382 bebc 2c8c 0b3d af51 b9bd
00000010: d7f2 8f3c 4b2c a5bd aeb1 5cbe c699 50bd
00000020: 6f2f 6bbc 3eeb f2bd 797d 233e 054b 263d
00000030: 21c8 82bd fced a83d 14f3 9cbd 062b 533e
00000040: e70f 02be 4f61 1e3e 2e91 7ebd 4aaa 243e
00000050: bea9 eabd 087d 30be 9ae4 e5bd 7c91 723c
00000060: ebcc c2bd 6faf 14be 59a3 2cbe 0919 d73d
00000070: 0660 36be 3fc0 813d 3d52 62be 78c3 453e
00000080: bba6 0fbe a2ff 753e b41b 1a3e 3259 edbd
00000090: 4d55 b2bd 54bb aabd ab1c 683d cf04 d9bc
000000a0: 26c7 cd3a a1c1 a0bd ea27 a2bc f1e6 863d
000000b0: f5a2 88bd 7123 263d df96 713d 1577 4dbd
000000c0: c677 603d f5d3 b4bd 2843 b1bd 1c69 a23d
000000d0: 594a 98bc c9a0 423d d3ec 9abc e9d4 28be
000000e0: 2f0a 153c f966 793e fbe6 cf3d 3d37 433e
000000f0: afcc 0abe 6699 f73d 44cd a4bd e0da 2d3e
00000100: 06ce c5bd f012 813e e1db 3fbb f8b0 b0bd
00000110: 17ba dbbd 3e7a 38bc c6ef 09bd 3720 193e
00000120: db21 243e fc99 c2bd 3308 f03d a191 043d
00000130: 5097 213e 080d 5e3d d1ca 3abe 3350 413e
00000140: 3a89 8b3e ab64 5bbd 0bd2 1d3e aa1e 8e3a
00000150: bad0 8bbb f16e c9bd e82e 843d 3d9d a83d
00000160: 7846 d8bd 2e5a 2a3e e0d1 a5bb 84cd c93d
00000170: 1103 fc3d 8c5e ca3c 4d48 3cbe f41e 0a3e
00000180: 7350 2dbe 3b2e 943e f944 763e 018c b73d
00000190: f02e af3d 869d 8fbb 97f9 b1bd 7361 58bd
000001a0: b352 a43d b8d1 753d 2ea4 7dbe 7390 d93c
000001b0: 5093 9dbd 2845 acbd bc7a 77bd e692 3c3d
000001c0: eb60 fb3d c607 033e 9ff7 103b 89ac 943d
000001d0: b60e 1fbd 44ad 16be 9c27 3e3e 8113 debc
000001e0: 0e14 673e c42c 373e 20b8 1cbe 1f01 d6bd
000001f0: b9d4 023d ffb4 88bd 6ab5 393e 46dc ef3d
00000200: c960 01be 4439 173e 5554 80bd f6a8 313e
00000210: d18f c0ba 12f5 d03c 4fe3 40be deda 30bd
00000220: 530f 1c3d c527 bcbd 30cf 04be ea8e 45be
00000230: 06b1 67bd 0ab2 a2bc 48e4 0abe cd26 36be
00000240: 4ec6 b2bd 076a 983d 94ab d9bd 49eb e73d
00000250: c28a 293e bb13 4e3d 1994 cfbd 0d6c 54bd
00000260: 7b7c fe3c b757 d43d 1da2 04be db47 e9bc
00000270: b9fa 503e c1a8 263e 73b1 d8bd 743d 513e
00000280: 7752 fcbd 0ba6 9c3c fe35 f43d fe6e 4fbd
00000290: 0483 53bd b84a 22be ff95 50bd 4a22 9cbd
000002a0: 78a7 6c3e feab 31be 8efa 46be a1f6 28bb
000002b0: 7632 2bbe c702 383c 831a 453d 2e15 8c3d
000002c0: 497f be3d 003a 0abc 3bd8 243d c2d5 5f3d
000002d0: 37ee 873e 4f27 b4bd 5755 153e 15b9 a43c
000002e0: 1a17 383e 1cad ea3c f42e a33d a105 b73b
000002f0: e5eb 923e d0c5 f53d ac87 8d3e 0533 303d
00000300: c501 ba3d 6fc1 3c3e d271 0e3d 3f26 493e
00000310: a1ce 79be a72c ce3d 04c9 17be 5e4b 123e
00000320: adb4 64bd ab8d 00be 2043 423e 1b67 a9bd
00000330: b4b4 75be c8f7 ffbc b66b 1fbe a005 ed3d
00000340: 36be 09be 55b7 373c eb8d ab3c f2d9 3a3e
00000350: 482a 433e 14eb 02bd 5851 de3d b8b8 55bd
00000360: dbb7 d6bc 6911 633d ca0d eebd 2c38 9f3d
00000370: e848 28bd 78f9 d23d 11de 40be e28f 633c
00000380: 640e d1bd 306e 063e 11e1 be3c 22d8 5abd
00000390: 7dbd 0dbe fb5b f6bd 5bd1 6bbe 4c73 3b3c
000003a0: cd03 e03d 260b 6fbc e075 a13d a9d8 b2bd
000003b0: 6ab8 6a3c 8920 2dbe 350d e3bd 979c e73d
000003c0: 658e e03d 60b1 733d d533 923d ad53 12bd
000003d0: 2ac3 37be 698f a0bc 7a3a c5bd 52ea 003e
000003e0: 0986 2fbe 9cee 8b3d f2bd b6bb 78bb 3abe
000003f0: 12ee 71bd 8451 d13d 6424 04be 8e21 f23d
0.11596325 -0.023255741 0.034069225 -0.09048783 0.01757185 -0.08065089 -0.21552154 -0.0509279
-0.014354571 -0.11861275 0.15965833 0.040598888 -0.06385828 0.08248517 -0.07663551 0.20621881
-0.12701379 0.15466808 -0.062150173 0.16080585 -0.11458157 -0.17235196 -0.11225243 0.014805194
-0.09511741 -0.14520048 -0.16859187 0.10502822 -0.17810068 0.06335496 -0.22101684 0.19312847
-0.14028446 0.24023297 0.1504963 -0.11589278 -0.08707676 -0.08336511 0.056667965 -0.02649155
0.001569961 -0.07849432 -0.019794423 0.06587017 -0.066717066 0.040561143 0.058981773 -0.050162394
0.054801725 -0.0882949 -0.08655387 0.07930204 -0.01859014 0.047516618 -0.018911755 -0.16487469
0.009096666 0.24355687 0.10151478 0.1906404 -0.13554643 0.12089805 -0.08046964 0.16978025
-0.096584365 0.2520976 -0.0029275345 -0.08627504 -0.10728853 -0.011259614 -0.03367593 0.14953695
0.1602854 -0.095020264 0.11720314 0.032365445 0.15780377 0.054211646 -0.18241431 0.1887825
0.27253133 -0.0535628 0.15412156 0.0010842879 -0.0042668255 -0.098356135 0.06454259 0.08233116
-0.10560316 0.16635963 -0.0050604194 0.09853652 0.12305272 0.024703287 -0.18386956 0.1348837
-0.1692522 0.2894152 0.24049748 0.089622505 0.085538745 -0.004382792 -0.086901836 -0.05282731
0.08023586 0.060014457 -0.24769661 0.026558137 -0.07694113 -0.08411628 -0.060419783 0.04603853
0.12274345 0.12795934 0.002212025 0.07259471 -0.03883239 -0.14714533 0.18569797 -0.02710891
0.22566244 0.1788817 -0.15304613 -0.104494326 0.03194115 -0.06675147 0.1813561 0.11711936
-0.12634577 0.14767939 -0.06266085 0.1734961 -0.0014691298 0.025507484 -0.18836711 -0.043177478
0.03810055 -0.09187273 -0.12969661 -0.19292799 -0.056565307 -0.019860286 -0.13563645 -0.17788239
-0.0872923 0.07442098 -0.10628429 0.11324174 0.16556838 0.050311785 -0.10135669 -0.051860858
0.031065216 0.10368293 -0.12952466 -0.028476646 0.20408143 0.16275312 -0.10580721 0.20433599
-0.123204164 0.019122144 0.11924361 -0.05064296 -0.051638618 -0.15848815 -0.050924297 -0.076237276
0.2311076 -0.17350766 -0.19431517 -0.0025781768 -0.16718468 0.011231131 0.048120987 0.06839977
0.093016215 -0.00843668 0.040245276 0.054647215 0.2654893 -0.0879656 0.14583336 0.020107785
0.17977563 0.028646998 0.0796794 0.005585388 0.28695598 0.1200062 0.27642572 0.043017406
0.09082369 0.18433164 0.034776516 0.19643496 -0.24395229 0.100671105 -0.14822775 0.14286563
-0.05583637 -0.12554042 0.18970919 -0.08271619 -0.23994714 -0.031246081 -0.15568432 0.115733385
-0.13451466 0.011213143 0.020941695 0.18247202 0.19059098 -0.03196247 0.10855359 -0.052178115
-0.026210716 0.055436525 -0.11623724 0.07774386 -0.041085154 0.10301489 -0.18834712 0.013889285
-0.10207823 0.1312797 0.02330068 -0.053428777 -0.13841815 -0.12029263 -0.23029082 0.011441063
0.10938225 -0.01459006 0.07883811 -0.08732731 0.014326194 -0.16906942 -0.110865034 0.11309164
0.109646596 0.05949533 0.071387924 -0.03572433 -0.17945543 -0.019599633 -0.09630294 0.12589386
-0.17140974 0.068326205 -0.0055768425 -0.18235576 -0.059064932 0.10220626 -0.12904507 0.11822806

lstm.bias_ih_l0_reverse f4 [128]
00000000: 763b c53d 6b2e 673c ad83 3b3e 618e 063e
00000010: 2d81 723e 9a1b 143c ae38 aa3c 6bec 543e
00000020: 014f 32bd e904 293e 3bb1 693e bce4 a63e
00000030: 7ad2 da3d c271 f8bc b336 cebc 623d 40bd
00000040: 9b1f 6e3d 4105 8c3c 79ad 983e afe0 32bd
00000050: dd11 0b3d 40f2 2f3e 65cb d53d 6fb6 5f3e
00000060: 8b7e 3a3e f836 b63e f4a1 093e b51d 553e
00000070: 0b86 71bd 13b7 47bd d487 af3d a302 a13d
00000080: f5d2 963d 9f15 ccbc a464 f73d 9121 703d
00000090: 8feb 2ebd 5211 913d b750 743e e88b ebbd
000000a0: 10fe 603d 2b6d 143e fc26 533e 7935 6fbd
000000b0: ef23 ff3d 59e6 3f3e 34fc 473e e1e4 61bd
000000c0: 80d3 683c 9101 ee3d 7b49 adbc 37da 533d
000000d0: 5a0b 833d f11d 183e 27ed 96bd 3dc8 25bd
000000e0: 0316 473c a9a8 cdbd 4084 873e df75 c83d
000000f0: f64e d4bc 4019 dc3d 019d 93bd 2617 d63d
00000100: 5a3b 3dbe bc63 bb3d cee6 1d3e 9924 13bd
00000110: 0402 7a3d abb5 783c 9ea5 473d bc7c 683e
00000120: 3588 e2bd 5052 26be b01f 143e c4bb 1cbe
00000130: 1e1f 28be b596 5c3d ec11 1ebe bf91 393e
00000140: fd3a f03c 7125 df3d e4a8 aabb 2485 09be
00000150: f95a 8abd 47e3 e3bd 702a d13d cced 513e
00000160: b798 91bd 1fea c53e c63a c4bd 6e37 1a3c
00000170: 0399 9f3d c03d b6bb 1a23 033d b156 a63e
00000180: 7518 a73c 7914 a03e 4cd1 a13d 7079 793d
00000190: ccf2 cd3d d6dd 0f3d d60b 24bd 62db 94bd
000001a0: 64d2 303d a6f5 1c3e fd61 7c3e a031 043d
000001b0: e2e2 a53c f0c5 e43d 77c1 223e afb1 923c
000001c0: cc40 0abd 9cd0 ff3d 29fd 003e 0d28 89bd
000001d0: efbd 803e 4474 9dbc a45f 923e 459b 1a3d
000001e0: 853f a83e 0688 fc3d d604 193d 9de8 203e
000001f0: 50f7 85bc 7501 cbbc a728 273e bfed 273e
0.09630482 0.014110188 0.18311949 0.1314025 0.23682089 0.009039784 0.02077898 0.20793311
-0.043532375 0.1650578 0.22821514 0.32596385 0.106846765 -0.030327681 -0.025172567 -0.04693354
0.05813561 0.017092349 0.2981985 -0.043671306 0.033952583 0.17182255 0.10439185 0.21846937
0.18212335 0.35588813 0.13440686 0.20812114 -0.058965724 -0.048758578 0.08570829 0.07861831
0.073644556 -0.024912653 0.120797426 0.05862576 -0.042705115 0.07083382 0.23858915 -0.115012944
0.054929793 0.1449477 0.2062034 -0.058400605 0.12458026 0.18740214 0.19529802 -0.055149917
0.014210582 0.116213925 -0.021153202 0.051721778 0.063986495 0.14855172 -0.07369452 -0.040474165
0.012151244 -0.10041935 0.26468086 0.09788107 -0.025916558 0.107470036 -0.072076805 0.10453634
-0.18479672 0.09149882 0.15420076 -0.035923574 0.06103708 0.015180032 0.04874193 0.22703832
-0.11061136 -0.16242337 0.14465213 -0.15306002 -0.1641812 0.053854663 -0.15436524 0.18122004
0.029325003 0.10895813 -0.0052081216 -0.13429695 -0.06755633 -0.11127334 0.102131724 0.20500869
-0.07109206 0.38655183 -0.09581523 0.0094126295 0.077928565 -0.0055615604 0.032015897 0.32488015
0.020397404 0.3126562 0.07901248 0.060906827 0.100560755 0.03512367 -0.04005035 -0.072684065
0.043169394 0.15328082 0.24646755 0.03227389 0.020249788 0.11170566 0.15894113 0.017906992
-0.0337532 0.12490961 0.12596573 -0.06697092 0.25144908 -0.019220479 0.28588593 0.037745733
0.32860962 0.12330632 0.037358128 0.15713735 -0.01635328 -0.024780968 0.16324101 0.16399287

lstm.bias_hh_l0_reverse f4 [128]
00000000: cabf d63d 2f8b db3c b3a7 9e3e 1297 3b3d
00000010: 26de 7b3e 8ac2 5c3e dd73 7d3d bceb bdbd
00000020: e01e a0bc ba1c 753d 1c03 f93d ef51 e43d
00000030: 7007 0cbd d41a 9e3e 6249 bf3b 66ae 1b3e
00000040: e7f2 d6bc 5613 673e 6299 a53d e52c 20bd
00000050: 85ae 6d3e b629 393e 1ad8 413e 4486 84bd
00000060: e536 1a3e ca44 e03d 648d 113e a04f 363d
00000070: be26 f93b acba 4b3e 5abc 123e 077d f83d
00000080: 10a5 d0bc 0562 b2bd b82d adbc 485b 32bc
00000090: aaa8 383e 0ddd 183d 3875 8c3e 8402 403e
000000a0: e186 823c f36c 9c3d 53b7 553e 036b 3c3e
000000b0: 9383 0a3e 8a3c ee3c 0dde f43d c662 773e
000000c0: bbb0 363e 8342 7c3e ab8a 14be 0321 283e
000000d0: 4c8e 84bd b330 a4bd 5f96 e43d b536 0f3e
000000e0: ef38 063e 0e56 2f3e 7aa5 563e afde fe3c
000000f0: c1f4 2b3e 91b8 f1bd fd4d 09be cd0f 153e
00000100: 64f1 b7bd 540f 043e 00e0 b93d 2fe3 153e
00000110: ce7d 23be 9829 af3c b05d 0bbe 5b99 a9bd
00000120: 6e4f a33d 1c02 f43d 3c93 d1bc 96ee 4ebe
00000130: d3e4 fb3d 717b 103e 458d f3bd 8599 a8bd
00000140: e42e 303c 9671 0dbe 81ee fa3c 4179 a63c
00000150: 13ae 1c3d d0bc 34be 1b5d dcbc cc30 443d
00000160: 5f2b 4a3e 58e2 503e 0038 4dbe c355 e1bd
00000170: a803 1a3d 5658 e63c 056e fc3c 43b7 453e
00000180: 64cc 703e 6f35 f73d 5639 6c3c 7c69 823e
00000190: 5267 243e 86bb 953c 7467 1d3e 3bd4 ae3d
000001a0: df04 d8bd 8b92 483e de2f 203e 30b3 f6bc
000001b0: a8c2 393e 684e 043d 21a1 a23d 30cc ad3e
000001c0: f964 0ebd c602 243e 9cf6 a33d 1b20 b4bc
000001d0: e592 513e 65ed 183e 6215 893c f5a1 173e
000001e0: a100 783d c321 a83e 6fd7 963e 54cd 5e3e
000001f0: 25f6 a53d dddb e9bd 628d 3e3e a482 5c3d
0.104857996 0.026799766 0.3098732 0.04579837 0.24596462 0.21558586 0.061878074 -0.092734784
-0.019545972 0.05984185 0.12158796 0.1114844 -0.03418678 0.30879843 0.0058376053 0.15203246
-0.026238872 0.2256597 0.08085896 -0.039105315 0.23211105 0.18082318 0.18930092 -0.06470922
0.15060003 0.109506205 0.14214092 0.04450953 0.0076034954 0.19895428 0.14329663 0.12133222
-0.025469333 -0.08710102 -0.021139964 -0.010886021 0.1803309 0.037320185 0.2743318 0.1875096
0.015933456 0.07637968 0.20870714 0.18400197 0.13526754 0.029081602 0.11956415 0.24158773
0.17840855 0.24634747 -0.14506023 0.16418843 -0.064724535 -0.08017101 0.111614935 0.13985713
0.13107656 0.17122671 0.20961562 0.031112043 0.16792585 -0.118027814 -0.13408656 0.14556809
-0.089815885 0.12896472 0.09075928 0.14637445 -0.1596596 0.021382138 -0.13609958 -0.08281203
0.079741344 0.11914465 -0.025582902 -0.20208201 0.12299504 0.14109589 -0.118921794 -0.082324065
0.010753367 -0.13812861 0.030631306 0.02032149 0.038251948 -0.17650151 -0.026899865 0.0478981
0.19743107 0.20398843 -0.20040894 -0.11002686 0.037601143 0.028118294 0.03081418 0.1930819
0.23515469 0.120707385 0.014417967 0.25471103 0.16055039 0.018277895 0.15371495 0.085365735
-0.10547804 0.19587152 0.1564326 -0.03011474 0.18140662 0.032301337 0.07940889 0.33944845
-0.034764264 0.16016683 0.080060214 -0.021987965 0.20466192 0.14934309 0.016733829 0.14807875
0.060547475 0.32838258 0.29461238 0.21758014 0.08103589 -0.11418889 0.18608621 0.053835526

lstm.weight_ih_l1 f4 [128, 64]
00000000: 9c5f ac3d ac17 cc3c 26ca ac3a 3df6 d93d
00000010: 05c8 643e 39ba 5e3d f499 41bd 1f7e c23d
00000020: 072d 833c 4a62 8bbd 95e6 babe 72be de3b
00000030: 5116 bcbd 64e6 72be ecaf 303d 0a58 a63d
00000040: 5e6f 48bd 2695 3a3e ed3f dabd 37ee 863e
00000050: 4680 193e 4867 26be ae0d de3d 812c ddbc
00000060: aa80 1cbd 0411 d2bb 0142 f43b 0758 73bc
00000070: bc65 483e fd70 a0bd 8bc4 a0bd 3439 dfbd
00000080: 99ba b7bd 5223 3f3e 8752 533e d9f4 663e
00000090: 4a23 38be f2f9 073e dd5b 52be 4c6e 443e
000000a0: 8d80 f53d 18b3 ffbd 0a66 323e 6a05 43be
000000b0: 0c37 a3be bd77 e5bd b693 3dbe 87c5 1dbe
000000c0: b74b 2fbe 9526 9c3c 0bf1 973e 42a8 843e
000000d0: ea03 023e f39d 883d 2749 643e 2866 c73d
000000e0: e0a0 983e 85b3 253e 4906 70bd 7772 bdbd
000000f0: 7cc8 9e3e b0fa dabd efd7 423e 9963 9b3e
00000100: f713 63be 466e 93be c9ee acbe 5ebd d6be
00000110: 561a a0bd 4408 3e3b a386 913e c27d 4fbe
00000120: 50d4 063e 86c1 143e 3850 3b3e 5f82 123c
00000130: 8b24 0ebe a88f e2bd 1b15 023e 3081 8d3e
00000140: f572 0d3e de26 2b3e 0bc7 97be f331 7ebe
00000150: 268c a53e f694 82bd f6bf 75be 27c2 103e
00000160: 0c08 27be fe13 51be 2c30 89bd a2c1 343e
00000170: b267 91be b27d ed3d 1427 673e 7d8c d6bd
00000180: cfff 2b3e 761c eabd 8a03 56be 1098 2c3e
00000190: 6dee 183e c663 a53e 2f4e 993d e89e 2bbe
000001a0: 78e7 44bd 87b2 5d3d 7b01 5e3e be62 72be
000001b0: f99f 7b3e fc5c f5bc 8250 5f3e c726 d2be
000001c0: 8ba6 8b3e 89b1 a8bd c02d 1bbf ff12 853e
000001d0: 5f7f 87be 47b2 86be 6595 44be cfd4 18bd
000001e0: 9f40 853d 87d9 51bd d7a7 3a3e d390 93be
000001f0: eb0c 3dbe 7bca e63e d56e 9cbe c412 d9bc
00000200: 82e7 0dbf fd38 c0be 2906 44be 8019 acbe
00000210: f1eb 0c3e b4e9 56be 4a8b 9c3e f727 e03c
00000220: fcfa 23bc 4bc1 23be 2410 603e 8f0b 8bbc
00000230: 38ba aa3e 30d1 453c b857 073d 7a82 613e
00000240: c8b1 e73b 025c 0a3a 3c70 f7be 6ea4 e8bc
00000250: b497 fd3d 13d6 d03d 337d 53be 7fe4 7fbc
00000260: 94d4 a3bd 7895 28be b062 243d 5dfa 263e
00000270: 815a 90be 6379 f83d 35e4 b13e 0b49 66bc
00000280: 2de1 483e 0bb1 10bd 03a3 03bc b458 313e
00000290: 07cd 893e 417a 7d3e f0ce d1bd 0bc5 c23c
000002a0: 8dfe dbbd 0d4c 6abd 3d44 36bd a60f 62bd
000002b0: 4af8 53bd f15d 03be f486 e43d ba38 cabe
000002c0: b3a1 2e3d a5d9 97be 1858 17bf afc1 39be
000002d0: e953 0bbe e5a6 333e 0480 b1bd 3d42 8fbd
000002e0: bd07 023d 4d95 b3bd e56b 8cbd 470c f4bd
000002f0: ece5 5d3d 9f6f f9bb 5350 79be f53c 45bd
00000300: 2104 10bc 51ec c6bd d2c7 b9be 0fc4 9dbe
00000310: 8287 03be 0aa0 113d e6e9 aa3e 6a9e a83b
00000320: 15e1 4b3d a542 853d 8392 083e 706b 9ebc
00000330: ae33 92bd b6c0 98bd 1cd2 df3e 2204 a63e
00000340: 8995 5fbe 6673 bdbc 4f50 38be 885c 18be
00000350: a879 933d 3bf7 0c3e 3595 ad3c 8eb6 d03a
00000360: 4458 4f3d 9dc1 01be 340d aabd 60c3 b8bd
00000370: 9460 16be 9da9 343e 3df7 ad3e 2267 513e
00000380: 90f6 5abd 0d62 47bd b802 0e3e c632 023f
00000390: 8640 963d ccdf fc3e b77f 01be adfe 86be
000003a0: 16ff 39bd 55af 85be 5354 c13e 0f81 babe
000003b0: 982c e63d 937c 5e3d a240 9e3d 07ae 95be
000003c0: 0ff0 b13e faa3 813d f755 b7be a019 273e
000003d0: 5cbe 583d af08 bebe 2f24 8f3e 7cc0 e8bc
000003e0: 1f4c 70bd 9cfe a53e 8cd4 c43c 81ca d7be
000003f0: 133b 473e d2b7 683d c266 9a3d cced 413e
0.084166735 0.024913631 0.0013182804 0.10642669 0.22341926 0.054376815 -0.04726596 0.09496712
0.016012682 -0.068058565 -0.36504045 0.006797605 -0.09183944 -0.237207 0.043136522 0.08122261
-0.048934333 0.18220958 -0.10656724 0.26353619 0.14990339 -0.16250336 0.10842453 -0.02699876
-0.03820864 -0.00641072 0.0074541573 -0.01485253 0.19570059 -0.07834051 -0.078499876 -0.108995825
-0.089711376 0.18665817 0.2063695 0.2255434 -0.17982212 0.1327894 -0.20542856 0.191827
0.1198741 -0.12485331 0.17421737 -0.19045034 -0.31877935 -0.11204479 -0.18513379 -0.15407382
-0.17118727 0.019061366 0.2967609 0.2590962 0.12696806 0.066707514 0.2229353 0.09736282
0.29810238 0.16181763 -0.058599744 -0.09250348 0.31012332 -0.10692346 0.19027685 0.30349424
-0.22175585 -0.2879507 -0.3377593 -0.4194135 -0.07817523 0.0028996626 0.28423032 -0.20262817
0.13166928 0.14526948 0.1829232 0.008942216 -0.13881128 -0.110625565 0.12703364 0.27637625
0.13813384 0.16714045 -0.29644045 -0.24823742 0.32333487 -0.06376068 -0.23999009 0.14136563
-0.16311663 -0.20417783 -0.06698641 0.1765199 -0.28399426 0.1159624 0.22573501 -0.10476015
0.16796802 -0.1143121 -0.20899788 0.16854882 0.14934702 0.32302684 0.074856155 -0.16759837
-0.04807231 0.054125335 0.21680252 -0.2367048 0.24572743 -0.029951565 0.21808055 -0.4104521
0.272755 -0.08236987 -0.60616684 0.25991055 -0.26464364 -0.2630789 -0.19197614 -0.037312325
0.06506466 -0.05123284 0.18228088 -0.2882143 -0.18461959 0.45076355 -0.30553308 -0.026498206
-0.5543138 -0.3754348 -0.19142975 -0.33613205 0.1376188 -0.20987588 0.3057502 0.027362807
-0.01000857 -0.15991704 0.21881157 -0.016973285 0.333452 0.0120738 0.03304264 0.22022429
0.0070707537 0.00052779925 -0.48327816 -0.028398719 0.12382451 0.101970814 -0.20653228 -0.015618443
-0.079995304 -0.16463268 0.04013318 0.16306444 -0.2819405 0.12132528 0.3474442 -0.014055501
0.19617148 -0.03532509 -0.0080344705 0.17318994 0.26914236 0.24753667 -0.10244548 0.023775598
-0.10741911 -0.057201434 -0.04449867 -0.055190705 -0.05175046 -0.12828805 0.11158553 -0.39496404
0.042634677 -0.29658237 -0.59118795 -0.1814029 -0.13606228 0.17544134 -0.08666995 -0.06995056
0.03174566 -0.08768711 -0.06856517 -0.11916404 0.05417435 -0.007612183 -0.24347048 -0.048153836
-0.008790047 -0.097130425 -0.36285263 -0.30813643 -0.12844661 0.035553016 0.33381575 0.0051458376
0.0497752 0.06506852 0.1333714 -0.01933834 -0.07138763 -0.07458632 0.43714988 0.32425028
-0.21834387 -0.023126315 -0.17999385 -0.14879048 0.072009385 0.13766186 0.021189312 0.0015923546
0.050621286 -0.12671514 -0.083032995 -0.0902164 -0.14685279 0.17642827 0.3397769 0.20449498
-0.053457797 -0.048677493 0.13868225 0.50858724 0.073365256 0.49389493 -0.12646376 -0.26366177
-0.045409285 -0.2611033 0.37759647 -0.3642659 0.11238974 0.054318022 0.077271715 -0.29234335
0.34753463 0.06330104 -0.35807773 0.16318369 0.052915916 -0.37116 0.27957293 -0.028412096
-0.058666345 0.32420814 0.024027131 -0.42146686 0.19456129 0.05681593 0.07539131 0.18938369

lstm.weight_hh_l1 f4 [128, 32]
00000000: fd78 ad3c 6a8f 76bc da39 f1bd 1ec9 f63d
00000010: 2ea9 a4bd f2db b7be c9bd 523d 693f 67bd
00000020: 5078 183e 0f2d 08be a940 633e 84d7 96be
00000030: 9da1 d73d 60c0 9f3c aec1 dabc 4cd2 18be
00000040: 26b2 93be afe7 1a3d 9d3e 75bd de52 e2bd
00000050: 40e6 3fbd eee6 4b3e 76ae c03b 8d06 6c3e
00000060: 441c c73e 2849 99bd 21ac c1bd e09d 9ebd
00000070: 4d7a 433e 512a 793b cd58 d73d 5137 163e
00000080: c14b 7e3c 39b5 e5bb 961f 80bd 95f0 59bc
00000090: 4d86 243e 1445 16be 5a10 713d b2d6 4e3d
000000a0: 6ca3 c83d 2661 343e 12bf 053e 8fa5 b7bd
000000b0: db59 88bc 5349 243d 4911 89bd 38f9 a3be
000000c0: 37ff 433e 62ff 04be 3b89 91be cede 183d
000000d0: c10c 0c3e 8ca2 933d c021 273e f4ec 803c
000000e0: aba3 84bd 0f20 c2bd eba4 353c 891e 233d
000000f0: 1f05 193e e0ef fdbd 8d15 6fbe 8756 213d
00000100: 0799 6d3d 29ca 733e 6ad9 4dbe 1fb1 9dbe
00000110: 3376 443e 3235 42be 6d9e 68bd 1605 a03d
00000120: 39a6 003e 8def dd3a f75f b0bd 52cc 703e
00000130: 6d6e 9dbe fc3f fbbc 5eb8 af3e 6666 cd3d
00000140: b35d 4a3e e420 083e a195 16be 2970 1e3d
00000150: 3f5d b9bd d7bf 5bbe 1111 cebd cbe2 bdbd
00000160: 4bd0 aabd c68e 42be a503 1c3e 3e24 32bd
00000170: 370f 8abe 1529 c7bd aae9 883c b538 2dbe
00000180: 379d 043e 5f32 87bc b150 353e b0af 3bbe
00000190: 94f3 56bc 3dfd ce3d 5f56 c33d 78cb 82bd
000001a0: 736a 46be 7b6e cb3d aaa4 fdbd c68a 183e
000001b0: cacc acbd 1534 05be f18d d73c 4360 073b
000001c0: 17dc a2bd 4f49 3cbe 1873 dbbc 13b0 7fbe
000001d0: d818 a7bb 6e26 8abe ad93 573d 4c19 263e
000001e0: 6dc1 0d3e 8656 d7bd d1ac 8f3e f0a4 21be
000001f0: 82f7 5e3d ef70 02be eec0 79bd db5e 0cbe
00000200: de2a 77bb 0c65 ab3e aefa b13e ada7 89be
00000210: 3bea 843c c8f5 adbd 309a eebd dbb2 dbbb
00000220: 19c5 f53c 32e7 da3a 0aea 4d3d b0ca 12be
00000230: 9f27 6d3e e979 1dbf 7357 813d 8d26 6d3e
00000240: 73ff 37be 9d97 14be 0611 0fbd 106a 74bd
00000250: 6fe3 ba3d 7cbc 19be a172 803e f820 fb3d
00000260: 5eae f13d 43fe b23d 1db9 a6bb f058 0fbe
00000270: 7e08 b0be 3421 843b 6889 c1bd 7003 f3bd
00000280: 9b18 1e3e e145 84be 24e4 92be d1e7 d83d
00000290: c469 003d dff2 7dbd a651 5a3e 219d 3bbe
000002a0: 349f 47bd 3b03 d0bb 6615 2b3e 5b78 83bd
000002b0: cbf7 05be 40a3 99bd 8e41 e1bc 8162 fb3b
000002c0: 4497 de3c 8e55 dc3a b5fb 0b3e 16e4 51bd
000002d0: d8b4 023c 32cd e53d dab2 c23c b933 183e
000002e0: ae30 b9bc 72d0 3cbe bfca 523d dde2 133e
000002f0: 968f 543e 0479 3a3e d9f8 fb3d 03b4 21bd
00000300: 7413 3f3e 3afa 77bd 3eab 3bbd bc1e aa3d
00000310: 8235 42bb 93ee 34be e37a 1fbe e728 a3be
00000320: 8208 b7bc 5dc0 e53d d825 de3d 5a7d cfbd
00000330: ff25 283e 4d4a 2ebd 9811 fdbb 4c31 86bc
00000340: 8461 1b3d 02f0 58be e649 8bbc fe8a 823d
00000350: d4e4 f03d 0f18 01be a615 193e 4c5c 783e
00000360: 4dd4 593e 6c38 9dbd c9a2 493e bf69 8c3e
00000370: d3e1 c73c 6067 0e3e e02c 15bc 390b e23d
00000380: 7c65 3a3e 8962 2a3e 0212 093e c4aa 1cbe
00000390: 6281 af3d b3c1 d6bd 10b2 153e a6f4 373d
000003a0: ab3d ac3d fb92 babc aaf3 2b3e 6a6e d33d
000003b0: b44a 5f3e a955 78bc b483 b13d 911d 063e
000003c0: d306 0cbe ce29 1c3c f1b0 89be 9c72 9abd
000003d0: cb6c 8e3e 8724 f23c b970 4f3c dc93 e53d
000003e0: f81e 373e c54f c2bc 130e 2fbe b97a b3bd
000003f0: 6ce4 93bd 88f8 d93c 46cb 013e cdfc 6c3d
0.021175856 -0.015048841 -0.117786124 0.12050079 -0.08040081 -0.35909992 0.051450524 -0.056456957
0.14889646 -0.13298438 0.22192635 -0.294613 0.10528872 0.019500911 -0.026703682 -0.14923972
-0.28846854 0.037818607 -0.059874166 -0.11050962 -0.046850443 0.19912311 0.0058801724 0.23049374
0.38888752 -0.074846566 -0.09456659 -0.07744956 0.19089623 0.0038019607 0.10514984 0.14669539
0.015520991 -0.007010129 -0.062560245 -0.013301988 0.16066857 -0.14674789 0.058853485 0.05049772
0.09796795 0.17615184 0.13061169 -0.08967125 -0.016644409 0.04010899 -0.0669275 -0.32026076
0.19140325 -0.12988046 -0.2842501 0.037321858 0.1367674 0.07208738 0.16321468 0.015737988
-0.0647653 -0.09478771 0.011086683 0.039824042 0.1494336 -0.12399268 -0.23348065 0.03938916
0.058007266 0.23807587 -0.20102468 -0.30799195 0.19185714 -0.18965605 -0.05679171 0.0781347
0.12563409 0.0016932354 -0.08612054 0.23515442 -0.3074831 -0.030670159 0.34320349 0.100292966
0.19762306 0.13293797 -0.14705516 0.038681183 -0.090509884 -0.214599 -0.10061849 -0.09271773
-0.0834051 -0.18999776 0.15235765 -0.043491594 -0.26964733 -0.09724633 0.016712982 -0.16916163
0.12950598 -0.016503511 0.17706563 -0.18328738 -0.013119597 0.10106895 0.09537958 -0.06386465
-0.19376545 0.09933182 -0.12384923 0.14896688 -0.08437498 -0.13008149 0.0263128 0.0020656742
-0.07952135 -0.1838734 -0.02678828 -0.2496951 -0.005099397 -0.26982445 0.05263107 0.16220587
0.13843317 -0.1051455 0.28061536 -0.15785575 0.05443526 -0.12738393 -0.060975008 -0.1370806
-0.003771476 0.3347553 0.34761566 -0.2688574 0.016224971 -0.08494145 -0.11650503 -0.006704671
0.03000121 0.0016700982 0.050272025 -0.14335132 0.23159645 -0.61514145 0.06315508 0.23159237
-0.1796854 -0.14510961 -0.034928344 -0.05967146 0.09125411 -0.15013307 0.25087455 0.12262148
0.11800836 0.08739903 -0.005087985 -0.1399877 -0.3438148 0.0040322784 -0.09450036 -0.1186589
0.15439074 -0.25834563 -0.28689682 0.105910905 0.031350866 -0.061999198 0.21320209 -0.18321659
-0.048735812 -0.0063480414 0.16707382 -0.0641944 -0.13082807 -0.075018406 -0.02749708 0.0076716547
0.027171738 0.0016810165 0.13670237 -0.05124291 0.007977687 0.112207785 0.023766924 0.1486348
-0.02260622 -0.1843889 0.051462885 0.1444201 0.20757899 0.18210226 0.12303323 -0.039478313
0.18659765 -0.06054137 -0.045817606 0.08306643 -0.0029633944 -0.17669134 -0.15574221 -0.31867144
-0.022342924 0.11218331 0.10847062 -0.10131331 0.16420744 -0.042551327 -0.0077230446 -0.016380928
0.037934795 -0.21185306 -0.017003011 0.06374167 0.117623955 -0.12606834 0.14949664 0.24253958
0.21272393 -0.07676777 0.19691004 0.27424428 0.024399674 0.13906622 -0.009104937 0.11037297
0.18202776 0.1663915 0.13385776 -0.15299517 0.085696 -0.10486164 0.14618707 0.04491105
0.084102 -0.022775164 0.16792169 0.10323794 0.2180584 -0.015157142 0.086676985 0.13097216
-0.13674478 0.009531451 -0.26892808 -0.07541391 0.27817377 0.029558433 0.0126611525 0.112098426
0.17882907 -0.023719678 -0.17095213 -0.08763642 -0.072213024 0.026607767 0.12675199 0.057858277
