trained_models/mNPC_left_out_model.pth (torch, 164173 bytes, 10 tensors)

lstm.weight_ih_l0 f4 [256, 9]
00000000: 0537 963e d1e0 073f 6ec7 42be 2ad4 4a3e
00000010: ccf0 023e 8041 ac3e 7bf6 163c 6fad af3d
00000020: b964 ed3b aaa1 c33c d0ac 813e d915 ef3d
00000030: 10b1 433b 4357 38bd b01e 46bc ea39 90bd
00000040: 6f90 29bd 49f1 023e 8d75 863e 8c6e 383e
00000050: 2608 323e 132a a5bd bd38 6a3c 516c 73bc
00000060: 805b 753e 612a e6bd 60e8 aa3e 6b87 9a3e
00000070: f217 81bf 64fd 3d3d a450 023e 91c6 9cbd
00000080: a2cd ad3e c9d8 c6bd 6678 2e3d e47d bbbe
00000090: f1c7 9abe 0a48 04bf 015e bbbe f5c4 b0be
000000a0: a0c6 83be 09e9 3bbe 1544 62bc 690b 03bd
000000b0: 980b 9cbe 9d29 9abd 5f4f 15bf 498b 18be
000000c0: 44e6 bcbe ecef b9be 45b1 13be c8a1 ce3d
000000d0: ec1d 5ebe 475b 8d3e f45f 3b3d 0cb0 f83d
000000e0: 31a2 013e 078f 19be 9240 e8bd 6a5f 133d
000000f0: 22c4 cdbd 3de7 d23b a471 1b3e f276 d63e
00000100: 97b3 b2bd 39f5 773e 51e4 413e 9f41 b0bd
00000110: 9787 01be 513f 63bd 3378 a33e 4815 8dbe
00000120: 4c56 863e e03e 74be 3252 25bd 004b a33e
00000130: f91f ee3d 634d 33be 2c70 b6be 3d65 8f3d
00000140: 6c96 04be 5637 03bf 7d11 05be d438 463c
00000150: 3615 a8be 7b28 bdbe 740b 0f3e bc41 16be
00000160: a596 13be c8fa cdbd b826 b1bd e815 2cbd
00000170: 7b68 5bbc b89e 44bd 7151 8bbe 04bd cbbd
00000180: abb3 a1be 9762 2bbe d435 cebe 651d d23d
00000190: 9d42 943d 34fe 72bd d891 ed3d 5c32 9dbd
000001a0: cbd3 47be 146f 1e3e 7618 78be 871a 53be
000001b0: 942a 5a3e 4064 213e 1779 a63d d535 b73d
000001c0: 1ac0 0d3d 6f50 56be fd83 85bc eba1 843d
000001d0: d909 0f3d 4a89 643e 2159 42be c181 0bbc
000001e0: e47e ab3d d43a 84be f520 1c3e 8f45 4d3c
000001f0: 32ad cdbc b993 333e 3393 613c 90c1 04bf
00000200: 0127 93be b1ad 0bbe 8067 d6bd 49a3 ebbe
00000210: cbd3 2cbe f636 aabc f020 943c c936 813b
00000220: ef77 963c fbe2 01be a0f7 c4be 0bba ddbd
00000230: 33ce 89be 8d3f 013d 024d 2cbe 4931 233e
00000240: e536 5e3e 8c43 333e eec0 d43c b904 893e
00000250: b457 383e f32e 263e d6ee 3abe 063c d4bb
00000260: a4a8 98be b9e5 913d 36f5 f0bc c7b7 a1be
00000270: 7ffa 463d 778e 42be 4d96 753d db44 fe3c
00000280: 9c76 08be 4bb8 1e3e 81a6 dc3d 5934 00be
00000290: 3675 d0bc 0b06 62ba 84fc 7fbb 3038 37be
000002a0: 5ce0 d2bd 0447 37be 4fc0 dabd f230 ac3d
000002b0: 7b28 883c 12d2 0d3d cd1c 1c3e 3854 f13d
000002c0: ea10 8d3e 6c4e 90be 72ad 82be e8e2 a7bd
000002d0: 2ef5 613e e4e6 663d ed14 52bd ef20 333e
000002e0: 4d77 693c 9e23 df3e 611b fa3c 4c8c 10be
000002f0: d949 56bf e291 8e3e a320 63bc f67a b73d
00000300: aae7 453e 79c3 7f3e 27a8 f1be 8726 393d
00000310: 2529 a63a e964 273e 7d70 153f 4429 643d
00000320: 4e19 c23e 5b37 c13e 94d1 e73d 2905 c4bd
00000330: a7e5 953e 06ee e83d b289 493f b42a 313e
00000340: 0b0c f43d 6a16 19be 2cf3 c23c a4ab b7be
00000350: eb11 07bf 4ecf a53c eb9c 2d3d e6ba a33e
00000360: 9a8a b7bd 6580 cdbd 4d5c 5a3d 1129 93be
00000370: f984 fabd c446 41be 48d8 b43d 2327 a93d
00000380: 5537 9abd 0f63 91bd 54ab 243d 5c2b e93c
00000390: 6af6 fd3d 42b2 ad3e ea8f c7be bbb3 5bbe
000003a0: 85a6 503d 8b32 773d 8527 68bc 1c49 7ebc
000003b0: 1224 35be 3650 19bd c588 d0bd e64c c0bd
000003c0: 06f7 80be 4b15 14bd 31b1 58be f308 cabe
000003d0: 516c 7ebd c1c2 d9be bfa1 22bf 8ba0 b2be
000003e0: 0f70 463e bf0c 62bd 66dd b63b 480b 62bf
000003f0: 2b39 6d3d 70e1 90bd a977 263e d259 64bd
0.29338852 0.5307742 -0.19021389 0.19807497 0.12787169 0.33643723 0.009214039 0.08578002
0.007244673 0.023880798 0.25327158 0.11674089 0.0029860176 -0.045005094 -0.012092277 -0.07042296
-0.04139751 0.12787355 0.2626156 0.1801092 0.17385921 -0.08064666 0.014295754 -0.014857368
0.23960686 -0.11238552 0.33380413 0.3018144 -1.0085433 0.04638423 0.12726074 -0.07655061
0.33945948 -0.09709317 0.04259529 -0.36619484 -0.30230668 -0.5167242 -0.36595157 -0.34525266
-0.25737476 -0.18350615 -0.013810177 -0.031993303 -0.30477595 -0.07527468 -0.58324236 -0.14896883
-0.3689443 -0.36315858 -0.14423092 0.10089451 -0.21691102 0.27608702 0.045745805 0.12142953
0.12659527 -0.14995967 -0.11340441 0.035979666 -0.10047175 0.006436257 0.15180069 0.41887623
-0.0872566 0.24214639 0.18934752 -0.08606266 -0.1264938 -0.055480305 0.31927642 -0.275553
0.26237714 -0.2385211 -0.04036159 0.31893158 0.11627192 -0.1750999 -0.35632455 0.070017315
-0.12948006 -0.5125631 -0.12994952 0.01209851 -0.32828683 -0.36944947 0.13969213 -0.14673513
-0.14412935 -0.10057598 -0.08649963 -0.04201308 -0.013391609 -0.04800293 -0.27210572 -0.09948161
-0.31582388 -0.16736828 -0.40275443 0.10259513 0.07239268 -0.05932446 0.11600083 -0.07675621
-0.19514386 0.1547206 -0.24228081 -0.20615588 0.21305305 0.15760899 0.08128565 0.089458145
0.03460703 -0.2092912 -0.016298288 0.06476196 0.0349215 0.22317997 -0.18979312 -0.008514822
0.08373812 -0.25826132 0.15246947 0.012528791 -0.025107 0.1753682 0.013768005 -0.5185785
-0.28740695 -0.13640477 -0.1046896 -0.46023014 -0.16877668 -0.02077816 0.018082112 0.0039432985
0.018367736 -0.12684242 -0.38470173 -0.108265005 -0.2691513 0.031554747 -0.16826251 0.1593677
0.21700628 0.17506236 0.025970902 0.26761416 0.18002206 0.16228847 -0.18255171 -0.006476882
-0.29816163 0.07123894 -0.0294138 -0.31585523 0.048578735 -0.18999659 0.05995779 0.031038692
-0.13326496 0.1549999 0.107739456 -0.12519969 -0.025446516 -0.00086221163 -0.0039060423 -0.17892528
-0.102966994 -0.17898184 -0.10681211 0.08407773 0.016620865 0.034624167 0.15245362 0.117836416
0.27551967 -0.2818483 -0.25522953 -0.08197576 0.22066185 0.05637254 -0.051289488 0.17493032
0.014249635 0.4358186 0.030530633 -0.14116019 -0.8370643 0.27845675 -0.013862762 0.08959
0.19326654 0.2497691 -0.47198603 0.04520276 0.0012677057 0.16347088 0.5837477 0.055703416
0.3790993 0.37737545 0.11319271 -0.09571297 0.29276773 0.11373524 0.7872573 0.17301446
0.119163595 -0.14949957 0.023797594 -0.3587314 -0.52761716 0.020240452 0.042385977 0.3197853
-0.08961983 -0.10034255 0.05331068 -0.2874227 -0.12232394 -0.18874651 0.08830315 0.08259418
-0.07530085 -0.07098972 0.040202454 0.028463058 0.124005154 0.33925062 -0.38976985 -0.2145528
0.050940055 0.060350936 -0.014169578 -0.01552036 -0.17689541 -0.03743001 -0.10182337 -0.09389667
-0.25188464 -0.03615312 -0.21161343 -0.39459953 -0.062115017 -0.42531398 -0.63528055 -0.3488811
0.19378684 -0.055187937 0.005580592 -0.88298464 0.057915848 -0.07074249 0.16256584 -0.05574972

lstm.weight_hh_l0 f4 [256, 64]
00000000: d755 fdbd db06 13bd 8ce7 96bc 7a78 e83c
00000010: 452a 3f3d 9a7c d43d 794a 79bc 80f0 773e
00000020: 4bba 2cbe a5cc 183d 58ee 083e 4805 a83d
00000030: b062 44be 9fb0 513d 5bb3 463e aaea d03d
00000040: 0277 44bd d1e2 c13d d2b3 d5bc b4b4 073e
00000050: fa93 d9bc 92f8 b2be 6165 abbd c7f1 fdbd
00000060: a721 53bd fd20 2f3e 0f79 ecbd aef6 8c3d
00000070: 72f1 103d e963 aa3c 3ab6 4bbd 58cd bbbd
00000080: 925e ff3d cc37 46bd 1bed 983c b3b0 5a3e
00000090: 4c09 c4bc 6f35 de3d 3be7 2bbe 9b04 b3bd
000000a0: d56c 383e 922d fabd 7b40 ff3d ab03 313d
000000b0: c2bb 983d bc60 513d ebc8 3f3e 658b 92be
000000c0: 58bd 98be 9c34 af3d 1ce4 9e3e dddf 1cbe
000000d0: 853d 4c3e ce54 d5bd 0f7a 693d 547a 303d
000000e0: 384e febd 85ae 59bc 38c4 1d3e 56e7 e5ba
000000f0: e69f 103e cf28 54be bf6d 113d df3d 5bbd
00000100: 93e8 c83d 1321 12be cef2 72be 96d3 11ba
00000110: 20f1 843e a447 873c f7f0 493c 18b0 343c
00000120: 09e3 59bc 3f09 15be 4437 0d3e c22d 2abe
00000130: 4b74 c7bd eb10 cabd a6e1 6bbe d486 033c
00000140: 1d04 6f3e 5215 cbbd 238f 463e 7225 c5bd
00000150: a854 903d 6393 0e3e 9339 0b3d 11fb d3bd
00000160: e600 9abc 7fe4 8dbc f16f 3b3e 73a0 80be
00000170: 8380 78bd ed8d 74be ca27 4bbe 8b5a 61be
00000180: 70c5 d33b 62b9 553d aae2 533e d446 e3bd
00000190: 310f a4bd 16a2 d4be 38fb 3abe e05c 08be
000001a0: b5ff 0bbb 952f 4cbe 8cb5 153e f340 dfbd
000001b0: 5d0c 04bd 6779 33bc a8e6 8f3e 873f 5c3e
000001c0: 4c94 a7bd fde3 72bd 7c93 6ebd 35f6 1b3e
000001d0: 774b e53c d3ca 0bbe 096f 59bd 78cc 7dbd
000001e0: 33dd 71be 9e84 913d 470d 83bd 3b2b 77be
000001f0: ab3e 40be dde2 033c b7e5 273c 808b a83d
00000200: f1ab 3abe 6a23 03bd 1893 ab3d ea9f 9f3e
00000210: ab84 113d 12fb 893e 54ed 573d 448d 433e
00000220: 349a c83c 098b babe b249 cdbe 28c6 92bd
00000230: dd1e 09bd ac52 1cbe cb0c 68bc fda2 983d
00000240: 9b2e 053f 14b2 4e3d 11bf e03d 1c38 c6bd
00000250: 69e5 cbbc 2cee f43c fac5 f73d 2d41 053e
00000260: 6afc a03b c4b0 2a3e c8ec 9a3d 2ef0 c2be
00000270: 7f36 e8be f64b c9be fbfa 5e3d 5b77 27be
00000280: 0bf6 913d 240a a8bd 0afa 393e 2177 fabe
00000290: 3c46 d5bd 43bd b7be f61a 1dbe c764 ccbe
000002a0: 0501 8dbe 444b efbd d341 efbc 18fb 62be
000002b0: 726e 0a3e a930 22be c4c6 5f3e 9b29 0f3e
000002c0: eae9 69be 65a7 68be 92a5 c73e 1551 7a3e
000002d0: 70fb a6bd ce75 2abf cf56 953e a840 e0be
000002e0: e094 42be a3a5 dd3e 2018 cc3c 1698 9ebe
000002f0: b4ed 5abe ccdf a1be 6b8a 10bf 736e 3d3e
00000300: 47f6 3d3d d3c2 913d 58bf 253c b415 54bd
00000310: 67d7 66bd 87d3 1b3e b90a bd3d f59a 16be
00000320: 3cc2 a9be ca5e 233e 7697 20be 6405 fb3d
00000330: ca8d eabd 8421 f93d dbf0 b33e 1041 6a3e
00000340: e55a afbd 0102 893e 4a1b 9b3d 00f1 dfbd
00000350: c4db 4e3e 4e09 fd3d ad1b e1bc f3fc 6a3d
00000360: 3d91 c6bc f6c3 3abe eee8 48bd d2a1 3c3d
00000370: a214 02be bca6 04bd 0677 2d3d fffb afbe
00000380: 3290 c2bd cd98 de3c 1ecf ed3d a85b 963e
00000390: f76f 31bd fe42 e63d e442 3a3e 07cd 7fbe
000003a0: 81ee 4cbd f1ed 353d f2c1 2d3d fcad 8bbe
000003b0: 81b4 e03c 729d c53d 32ee 543e 46fd b9bc
000003c0: 2bf1 eebd 870c 98bd 84b3 b7be c5e3 423d
000003d0: be5f c43d 8045 a6be f7fe 5f3e c1f8 0fbe
000003e0: 4915 8cbe e38d 8a3b 88f1 07be 3cd7 55bd
000003f0: 89dd 26bd 6e86 6dbd baf6 c2bd 43e9 e03d
-0.12369888 -0.03589521 -0.018420957 0.02837776 0.04667117 0.10375328 -0.01521551 0.24212837
-0.1686794 0.03730454 0.13372171 0.08204132 -0.19178271 0.05119383 0.19404356 0.102010086
-0.047965057 0.0946709 -0.026086722 0.13252527 -0.026559819 -0.3495527 -0.08368946 -0.12399631
-0.051545765 0.17102428 -0.115465276 0.06882988 0.03538651 0.020799594 -0.04973433 -0.091700256
0.1246921 -0.048393056 0.018667748 0.21356468 -0.023930214 0.108500354 -0.16787426 -0.08741113
0.18010266 -0.12215723 0.124634705 0.04321639 0.07457687 0.051117644 0.18728988 -0.28621975
-0.29831958 0.08554956 0.3103341 -0.15319772 0.19945343 -0.10416566 0.05700117 0.04308541
-0.12417263 -0.013286238 0.15406883 -0.0017540257 0.14123496 -0.20718692 0.035505053 -0.0535258
0.09809985 -0.1427043 -0.23725435 -0.000556284 0.25965214 0.016513653 0.012325517 0.011028312
-0.013298758 -0.14554308 0.13790613 -0.16619018 -0.09738978 -0.09866508 -0.23035297 0.008027751
0.23341413 -0.09916176 0.1939054 -0.09626283 0.07047397 0.13923411 0.033990454 -0.103506215
-0.018799257 -0.01732087 0.18304421 -0.25122413 -0.060669433 -0.23882265 -0.19839397 -0.22007196
0.0064627454 0.052178748 0.20691934 -0.11097494 -0.0801071 -0.41529912 -0.18259895 -0.13316679
-0.002136213 -0.19940026 0.14620036 -0.1090106 -0.032238353 -0.010954238 0.28105664 0.21508609
-0.08182582 -0.059299458 -0.05824612 0.1523064 0.027990086 -0.1365159 -0.053084407 -0.061962575
-0.23619537 0.07105373 -0.06399017 -0.24137585 -0.18773906 0.008049694 0.010247639 0.082297325
-0.18229653 -0.032016195 0.08377665 0.31176692 0.035526913 0.26949364 0.052716568 0.19096857
0.024487592 -0.364342 -0.40095288 -0.071667016 -0.0334767 -0.15265912 -0.014163206 0.074529625
0.5202424 0.050462797 0.10973943 -0.09678671 -0.024889665 0.029898725 0.12098308 0.13013144
0.0049129026 0.16668993 0.07564694 -0.38073868 -0.45354077 -0.39315766 0.054438572 -0.16354124
0.07127007 -0.08205059 0.18161789 -0.48919013 -0.10413787 -0.35886583 -0.15342316 -0.39920637
-0.2753984 -0.11684278 -0.029206192 -0.22166097 0.13518694 -0.15838875 0.21853167 0.13980715
-0.22843137 -0.22720106 0.38993508 0.24444993 -0.08153427 -0.66586006 0.29167792 -0.4379933
-0.19002104 0.43290433 0.024913847 -0.30975407 -0.21379739 -0.31616056 -0.5646121 0.18499164
0.046377447 0.07117238 0.010116421 -0.05177851 -0.056357767 0.1521741 0.09230561 -0.14707549
-0.33156002 0.15954128 -0.15682778 0.122568876 -0.11452825 0.12164596 0.35144696 0.22876382
-0.08562259 0.2675934 0.07573564 -0.10934639 0.20201021 0.1235529 -0.027479017 0.057370137
-0.024239177 -0.18238816 -0.049050264 0.04605276 -0.12703183 -0.032385573 0.042349838 -0.34371945
-0.09500159 0.02717247 0.1161177 0.29366803 -0.04331967 0.112432465 0.18189579 -0.24980555
-0.050032143 0.04441637 0.04242129 -0.27281177 0.027429821 0.09649171 0.2079399 -0.022703778
-0.11667093 -0.074242644 -0.35879147 0.0475805 0.09588574 -0.324749 0.21874605 -0.14059736
-0.2735999 0.00422834 -0.1327573 -0.052207217 -0.040738616 -0.05798953 -0.095197156 0.10981991

lstm.bias_ih_l0 f4 [256]
00000000: b26a 063e 5dd8 7c3e 2958 033f d65a 6d3e
00000010: c30f 063e 6cf7 703e 2a81 803e 22fd 5a3c
00000020: 2555 233e afe9 1a3f c2d1 373e ee49 d63e
00000030: 8311 813e 89b9 333f 0861 323d 5c5c c53e
00000040: d5da f43e a2a2 913e baac ae3e e3ab 783e
00000050: e2cd a43d 9158 a83e c1ac 993e 35c2 313e
00000060: 2242 673e 1bfe 413e 3df1 073f a62c 6c3e
00000070: 5711 573e f302 093e 2c9c e63e 00d9 153d
00000080: 8832 f73e bca5 7dbc 280a 46bc 0b9f 783e
00000090: ad86 943e 4f03 8e3e 2f5d 863e 4f64 953d
000000a0: 1e62 bb3e 7fc4 cf3d 036c 3bbe 688c 1c3e
000000b0: a798 cd3e b0de 413e f02e 783e 6c84 423e
000000c0: c93d cf3d 3ad9 ac3d 1e20 883e 12ad 853d
000000d0: ead2 ad3d 4db2 053b 17c0 d93d 650b 9c3e
000000e0: e41e 093e bb1d 6a3e ca7f 793e 2878 123f
000000f0: 467a 103e 3b5d 823d b20b c13d 6ae6 953d
00000100: 05ef a83c e3cd 9c3d ab49 5c3d 4675 7ebc
00000110: e207 0d3e 8665 403a 3003 d33d e81a 1dbe
00000120: cf53 193e dca4 0abd 2cab 883d bd34 573e
00000130: c584 253e 3203 b1bd 0f6e a73e 8a33 993e
00000140: dcea b73d 1783 0f3e 8778 2fbd a521 df3c
00000150: 64f6 833d 32f1 8c3d d91b 7ebd 5abe a83d
00000160: 3443 ef3d e53f 073e fd70 ee3c 65b6 c8bc
00000170: 7c97 973d 4fbd 133d c33d bc3d 066e 19bc
00000180: 114a 923e 64ff 653e 72a0 fe3d 8ff8 d63d
00000190: b8a9 1c3d f7ab f0bd f910 d43d 1afd 3d3d
000001a0: 5be1 583e e77a c6bc 0dba 85bc 0639 433d
000001b0: 3855 9bbb 9762 783d 8876 b73d 6764 0c3e
000001c0: d530 d33d d120 94bd 2d96 043e f01c 3b3e
000001d0: e033 013e 4459 85bc f8e8 153e 7806 a63d
000001e0: d8df 383e edd5 443e 8616 1e3e 57b0 823d
000001f0: 20e4 fa3d 8812 cc3d 7cac b1bd 96e8 dc3c
00000200: 618c 8f3d 3c5f 5bbd e4a3 a2be ce5d 2bbd
00000210: ece4 323e 34f4 023e 8d83 f43d 8df8 4a3d
00000220: 8f4b 4d3e bd85 9abd b642 4cbe 74ff 4dbe
00000230: cc73 6dbe b689 b43d 6f43 12bc 94e4 583e
00000240: db69 443e 7b29 d03c 0e09 763c 49c5 6cbe
00000250: 48c0 5abd 68b5 e9bc c4ed 13be 0096 7d3d
00000260: 9553 61be ae8a 5b3c 3d6d 1ebe c63f a9be
00000270: 5acc 2c3e be02 dfbd bd07 96be 4199 e63d
00000280: 1c75 6d3e 0d94 183d 7897 1c3e 6d6e 8a3d
00000290: 1ea5 b6bc fcd2 61be 2cc2 fdbd 6b04 9fbe
000002a0: 1cbc 73be 3edc 923d 3b69 0e3e c6a4 32be
000002b0: b6f5 0a3d 65f6 09be 0fb1 cc3d 9fb8 143e
000002c0: 9341 56bd 12db 72be 55ff 2fbd c6d2 733e
000002d0: 5bea 1abd 4b57 65be 0eb4 6b3e e417 46be
000002e0: 89cb febd e761 673e 2134 18bd 8aac 52be
000002f0: d360 cabd 4497 01be 2068 ae3c 61de 7c3e
00000300: c9d7 a23d ad4a 7f3e bf1c 043e 37f5 7e3e
00000310: a249 be3e bbe2 2f3e f8b8 5e3e f958 c63d
00000320: 2c44 893e 0b03 2f3f bc0a e93d 343c d33d
00000330: 29df 0f3c d8e9 223f 69d8 d73d d931 5d3e
00000340: 88db 813e 5b43 163e 7c63 e53d 8eb1 083e
00000350: 5f1e ae3d e072 8b3e bb66 0e3e c373 213e
00000360: eb4f 0d3d c5c8 8e3e 36a7 813e aa7f 183e
00000370: 9b94 813e 057c 253e 7b25 493e 4a3a 263e
00000380: 2316 a73e c79e 4b3d 5927 90bb c022 b73e
00000390: 58ae 283d 93be c13d 1903 5b3e 39d4 493e
000003a0: e03c b43d 9bf9 5b3e 04b9 7bbd eb11 8b3d
000003b0: df82 0a3f b5c1 963d 56ee 1c3e 7732 6b3e
000003c0: e3f4 453e 62c8 803c db75 833e adda 0c3e
000003d0: ba77 743e b07f f13d ea29 8f3e 14d5 813d
000003e0: 9f63 8ebb 25a5 483e 992f e63d 5c25 4f3e
000003f0: 6d9f e83d d798 b3bc 4318 923c befe 363d
0.13126639 0.24691911 0.51306397 0.23179182 0.1309195 0.23531884 0.25098544 0.013366016
0.15950449 0.6051282 0.1795111 0.4185328 0.25208673 0.7020498 0.043549567 0.38547027
0.47823206 0.2844439 0.34116155 0.2428432 0.080470815 0.3288007 0.30014613 0.1735924
0.22583821 0.1894459 0.53102475 0.23063907 0.21002708 0.13380031 0.45041025 0.0365839
0.4828074 -0.015481409 -0.012087382 0.2427942 0.29009 0.277369 0.26242968 0.07294523
0.36598295 0.101449005 -0.18302922 0.15287936 0.40155527 0.18932605 0.24236655 0.18995827
0.101192065 0.0843987 0.26587003 0.06527151 0.08487494 0.0020400465 0.10632341 0.30477443
0.1339069 0.22862904 0.24365154 0.57214594 0.14109144 0.063654386 0.09426059 0.073193386
0.020621786 0.07656457 0.053781193 -0.01553089 0.13772538 0.0007339347 0.10303342 -0.15342295
0.14973377 -0.03384863 0.066732734 0.21016212 0.16163929 -0.086431876 0.32701156 0.29922134
0.08980343 0.1401485 -0.042839553 0.027237723 0.0644348 0.06881942 -0.062038276 0.08239432
0.1168274 0.13207968 0.029106611 -0.024501035 0.0740194 0.03606921 0.091914676 -0.009364611
0.28572133 0.22460705 0.12432946 0.104966275 0.038247794 -0.1175155 0.103548 0.046383955
0.21179716 -0.024228526 -0.016324067 0.047661804 -0.0047403835 0.060640898 0.08958155 0.13710175
0.10312048 -0.07232822 0.12947913 0.18272758 0.12617445 -0.016277917 0.14639652 0.081067026
0.1805414 0.19222231 0.1543828 0.063812904 0.12250543 0.09964472 -0.08675477 0.026966374
0.07009197 -0.05355762 -0.31765664 -0.041837506 0.1747014 0.12788469 0.11939154 0.049553443
0.20048355 -0.0754504 -0.19947323 -0.20116979 -0.23188704 0.08815329 -0.00892721 0.21180946
0.19181006 0.025410404 0.015016807 -0.23122133 -0.05340603 -0.028528884 -0.14446169 0.06191063
-0.2200454 0.013399763 -0.15471359 -0.33056468 0.16874829 -0.10889195 -0.2930278 0.112596996
0.23189205 0.037250567 0.15292156 0.06759343 -0.02229553 -0.2205314 -0.12390551 -0.31058058
-0.23802227 0.07170914 0.1390733 -0.17445669 0.033925734 -0.13472898 0.09994709 0.14523552
-0.05230863 -0.23716381 -0.042968113 0.23810872 -0.037821155 -0.22396581 0.23017904 -0.19345051
-0.12441165 0.2259594 -0.03715909 -0.20573631 -0.09881749 -0.1265536 0.021289885 0.24694206
0.07951314 0.2493083 0.12901591 0.2489823 0.37165552 0.17176335 0.21750247 0.09684939
0.26809824 0.6836402 0.113790005 0.10314217 0.008781233 0.6363807 0.10539324 0.21601047
0.25362802 0.14674132 0.11200616 0.13348982 0.085018866 0.2723608 0.13906376 0.15766816
0.034500044 0.2788755 0.25322884 0.1489245 0.2530869 0.16160591 0.19643204 0.16233173
0.32634076 0.04971197 -0.004399222 0.357687 0.041181892 0.09460177 0.213879 0.19709863
0.088006735 0.21481936 -0.06145574 0.06790527 0.54105943 0.073611654 0.15325293 0.2296847
0.19331698 0.01572055 0.25675854 0.13755293 0.23873797 0.117919326 0.27961665 0.063394696
-0.004345372 0.19594248 0.11239547 0.20229095 0.11358533 -0.021923466 0.017833835 0.044676535

lstm.bias_hh_l0 f4 [256]
00000000: dc51 d1bb b147 d03c 54a5 013f 98ba 193e
00000010: 0f66 243d 0063 ce3e 2846 513e 016c 6bbc
00000020: 1c74 ef3d ca6e 2c3f 0934 353e e84f ba3e
00000030: 653e 3c3e 4f65 323f 05ef 4d3e bfbd b73e
00000040: b152 cc3e 0e73 bc3d 1037 593e 9950 4f3e
00000050: 44e0 1b3e b093 a83e 5327 a63e 4bba b83c
00000060: 6b0c 933e 703a 153e e8f3 fd3e 6e69 af3e
00000070: 2cf1 2a3e 326f 693e 2ac1 a63e 0b95 133d
00000080: 94ac 073f 10d9 2c3e 9451 873d 5336 ab3e
00000090: d4af 463e 110b 263e 357b b63e 6485 213e
000000a0: eecb bc3e 214d fe3d ede0 93bd d052 ac3c
000000b0: 36cb 573e 9380 5d3e cbc5 9b3e 9ec9 2c3e
000000c0: 37b2 0a3a 3241 bebc 51ca 1a3e 2709 183e
000000d0: 2ef1 a53d cc0d 06bd 41ba e53d 499f b33d
000000e0: 4c08 6fba f5b4 4e3e 32cc 5e3e 1ea2 d73e
000000f0: ba3c 2f3d a13e b73d a175 913e 86ba e4bc
00000100: a7ff 85bc cb91 173e 0cba 103e b813 6cbc
00000110: aad5 163c 32b6 123d c826 4fbd c839 043d
00000120: f0e3 ad3d 8ff0 bcbc d1d6 0c3d 1e63 be3d
00000130: c083 183e 24df d6bd e125 b03e bf74 f83d
00000140: a566 3bbd 38c8 393d 7d03 aebb 99b3 ec3d
00000150: f8ab 87bc d829 b73d 86a8 c4bd f1bc a73d
00000160: c162 3bbd 1f97 583e d893 3c3c b171 9abd
00000170: af89 883d 3f5c 5b3c 3ce5 f33b f259 263e
00000180: d1e9 873d ac7f 963d 482e 133e c78f 853d
00000190: 0f77 553e a205 9e3c d826 bd3b 293d 04bd
000001a0: f557 2f3e de18 0b3e 1878 df3d b6ba 233d
000001b0: 3179 323c 0717 943d 0ed5 863e 0b1a 393e
000001c0: 6bfd 683d f2e5 f43d 438d 293c 6cb9 d23d
000001d0: 5379 e63c 3ece e5bb 45a3 3b3e 829d e63d
000001e0: 32a8 3f3d e343 a53d 5905 2e3e 8d35 efba
000001f0: b00b 213d 4c80 1d3e 16b2 0d3c 42fe 8c3d
00000200: 34df 5e3c 73cc 21be 2aea 89be 3be9 763d
00000210: 982a 453e 4f62 993e 1662 95bd 3e71 f0bc
00000220: 3878 0b3e b447 49bd e0a8 d4bd 3ce8 3dbe
00000230: 04af 3cbe afca a83d da66 633d 60ba ab3e
00000240: bd5f 813c 0ac1 2b3e 874d 643e 7067 10be
00000250: 841b 28bc 31bc 63bc dc7e 24be 58c5 183e
00000260: cd32 62be 20da f73d cfd0 eeba acc6 71be
00000270: 47ee 17bd f433 fdbd ff01 88be 085f d2bd
00000280: 98d1 843e f001 11be dfe2 9f3d 298a 71bd
00000290: 2125 5abe 435d 04be 49e5 79be d762 a4be
000002a0: 9a1e 52be f58c 0ebd bdc2 153d 2746 3dbe
000002b0: 5f5e 1abd 8277 813c 6789 503e 55cf 6e3e
000002c0: b1d1 96bd a0fe 71be b3c6 553c 78cd c93a
000002d0: 3893 f33d 1a1c 82be bfd8 9e3d 23ef c3bd
000002e0: dcc6 05be 1ef5 a03e aa51 57be 1357 80be
000002f0: 14c4 77bd 15b4 1ebd 9f4c ab3b 1848 863d
00000300: c9f7 183e 17ce 903d 71e4 783e 6493 a73e
00000310: 94ae 893e 766c 893e 6aaa 053e e263 da3d
00000320: 8c76 8b3e 20d8 fd3e eb36 823d 100a b63d
00000330: cf59 883d 3570 0b3f e780 903e adb9 523e
00000340: fe8f 893e f7df 103e 11dc 703e b934 b53d
00000350: 0fb7 873e 76ef bf3e 2d98 bd3d c171 c23d
00000360: 5713 123b 2381 9c3d 5636 ca3e 40b9 3d3e
00000370: fd01 553e ea37 d03d 1f55 1f3e d134 123e
00000380: 6049 c33e b579 483e 822b 82bc 7289 3c3e
00000390: af67 683d 0991 143e 44ff f83d 39f4 253d
000003a0: c4e7 0f3e 0d88 6f3e 3a51 c53d 0a0b 8d3d
000003b0: c721 fb3e f223 723e 373c 353e ddfa d53d
000003c0: 7273 133e 3048 323d ad2a a53e 40eb c7bb
000003d0: c620 9a3e 0e94 76bd 5df1 7d3e a3dd 923d
000003e0: 75c3 56bd bd32 003e 9da4 563e bfbb 943e
000003f0: 21c2 ef3d c5f5 553d d623 8d3c 714e 1d3e
-0.006387932 0.02542481 0.50642896 0.15012586 0.040136393 0.40309906 0.20436919 -0.014369012
0.11692068 0.6735655 0.17695631 0.3638909 0.18383177 0.69685835 0.2011071 0.35886952
0.3990684 0.092016324 0.21212411 0.2024559 0.1522227 0.32925177 0.32451877 0.022549769
0.28720412 0.14573073 0.49600148 0.34260124 0.16693562 0.22796324 0.32569247 0.03603081
0.5299771 0.16879678 0.06607357 0.33439884 0.1940301 0.16215159 0.35640875 0.1577354
0.36874336 0.12417055 -0.072206356 0.021035582 0.21073613 0.21631078 0.30424342 0.16873786
0.00052908383 -0.023224447 0.1511624 0.14847241 0.08102642 -0.032728 0.11217166 0.087706156
-0.0009118363 0.20186217 0.21757582 0.42115873 0.042782523 0.089474924 0.28410056 -0.027920973
-0.016357256 0.1480171 0.14133471 -0.014408998 0.009206215 0.035818286 -0.050574094 0.032281667
0.08490741 -0.023063926 0.034384552 0.09296249 0.14894009 -0.104917794 0.344039 0.121316426
-0.045752186 0.04535696 -0.0053104744 0.11557693 -0.016561493 0.08943528 -0.09602456 0.081903346
-0.045748476 0.21151398 0.011509858 -0.07541216 0.06666886 0.013388692 0.0074430984 0.16245249
0.06636394 0.0734857 0.14373124 0.06521564 0.20846198 0.019289795 0.005772453 -0.03228489
0.17123397 0.13583705 0.10911578 0.039972983 0.010893152 0.072309546 0.26334423 0.18076341
0.056882303 0.11957921 0.010348621 0.10289273 0.028134024 -0.0070131114 0.18324001 0.11260511
0.046791263 0.08069589 0.16994227 -0.0018250212 0.039317787 0.15380973 0.008648416 0.06884433
0.01360302 -0.15800647 -0.26936466 0.06028102 0.1925453 0.29957816 -0.07294099 -0.029350873
0.13620079 -0.049140647 -0.10383773 -0.18545622 -0.18426138 0.08241784 0.05551801 0.3354063
0.015792722 0.16772857 0.222952 -0.14101958 -0.0102604665 -0.013899849 -0.16064018 0.1491903
-0.22089691 0.12102151 -0.0018220189 -0.23610944 -0.037092473 -0.12363425 -0.26564023 -0.10272032
0.25941157 -0.14160895 0.07806944 -0.05896965 -0.21303226 -0.12926202 -0.24403872 -0.3210666
-0.20519486 -0.034802396 0.03656267 -0.18483792 -0.037687656 0.015804056 0.20364915 0.23321278
-0.07364214 -0.23632288 0.013047862 0.0015396317 0.11893314 -0.25412065 0.07756185 -0.09567096
-0.1306414 0.3143701 -0.21027246 -0.25066432 -0.06048973 -0.03874596 0.00522764 0.065567195
0.14938273 0.070705585 0.24305893 0.32729638 0.26891005 0.26840562 0.13053289 0.106635824
0.27238882 0.49578953 0.06358131 0.08888638 0.06657755 0.5446809 0.28223345 0.20578642
0.2686767 0.14147936 0.23521449 0.08847947 0.2650685 0.37487382 0.09257541 0.09494353
0.002228936 0.076418184 0.3949458 0.18527699 0.2080154 0.10166915 0.15559815 0.1427796
0.38141918 0.19577678 -0.015889887 0.18411806 0.056739505 0.14508452 0.12158063 0.040516112
0.14053255 0.23391743 0.09634633 0.06886871 0.49049208 0.23646525 0.17698751 0.10448239
0.14399508 0.043525875 0.32259122 -0.006101042 0.3010313 -0.06019979 0.24799104 0.0717118
-0.052432496 0.12519355 0.20961232 0.2904949 0.11706949 0.052236337 0.017229002 0.15361954

lstm.weight_ih_l0_reverse f4 [256, 9]
00000000: 6e36 1bbe aae3 b63e 7dc4 04be d580 1a3e
00000010: d2b3 b7bd f083 db3c 9d19 fabd 4829 2b3e
00000020: b827 76be 9924 aebe efd6 c33e e8ad cfbe
00000030: cde0 7ebe c46a 92be 02b0 8e3e 9411 44be
00000040: 70f1 83bd 860c 40be adbf f5be fa85 6fbf
00000050: 7f6b b6be d3ec 5dbe 4747 50bf b596 093e
00000060: 6a97 c43d 3838 c13d 5b77 2ebf ca1d 0abd
00000070: 084c ea3c 40c8 68be 9ccb f83d 2b13 853e
00000080: 3559 9bbc 532f 65be e6a7 adbe a452 c2bd
00000090: 60eb 9dbd c078 68be 1624 203d 2403 4c3e
000000a0: 22a4 df3d 1454 b43e 8fb3 cfbd bd63 29be
000000b0: 7562 9dbe 677d b63e d217 81bf 437d 5d3e
000000c0: 41d1 813b f2e1 73bd fd0d 423e 27a9 0d3f
000000d0: 0bb5 483e 0ef1 ff3e 485c 253e 14d3 ea3d
000000e0: 5a13 9cbd c37f 30bd 7970 c3be 0539 5d3e
000000f0: c1d2 8ebb 2cdb 78be 347c 5cbe 6e04 b1bb
00000100: 13a9 483e af02 9dbe 14df 0f3d c137 1fbe
00000110: 9f57 613e 77d3 20be e882 61be 6026 99bd
00000120: 5310 e7bd 03b9 c73e 0763 f63d 8b51 803e
00000130: 689e 17be 0817 143f 31b4 2d3e d345 26be
00000140: fb15 a1be 68df d03d 4de2 913e 5fd8 143a
00000150: cb76 303c b5ae 95bd 4cba 413d 841c 8b3c
00000160: 6932 f4ba 1b3e 943d f1f4 3a3e 0358 09bf
00000170: 30d4 0b3c 904c 8ebe d66e da3d 2a37 09be
00000180: adc1 5e3e 9ed0 3e3e e9ab 5cbd 57bb 933c
00000190: 92c1 473e 9e13 c03b ed3d 153e 76fa 5b3e
000001a0: 8dab acbe e479 d03b f115 55be 722c 25bc
000001b0: 35d6 18bd 3012 083f 8435 583e 0135 a03e
000001c0: af84 163d 13e0 073e 7861 193e e6a5 0cbe
000001d0: 073a bfba e6da 84be 35c1 a9bd 94ac 98ba
000001e0: c47e 073e 192d c7bd 5117 5e3e c257 e63d
000001f0: 6125 c0bd 8a39 773e 5cf0 633f 738c f63d
00000200: df44 653e f724 653f 4080 d73d f182 0b3e
00000210: e613 bcbe bc21 b43c fe84 76be d149 bb3e
00000220: 74ef d5be 5282 a5be 3103 00be 8544 d0be
00000230: 0793 f43d df83 8dbe 4b32 40be c54d 4e3e
00000240: b923 03bf c1fe 41bf 5865 24bf 5a27 94be
00000250: 8261 69bf 6565 cdbe fa7a 2ebe 04bf 35be
00000260: bce9 8ebe cbb1 bb3d 8ceb 3f3e 1b97 89be
00000270: 7f95 843d 6d2f cb3c 67b4 83bd 436b 6ebd
00000280: a3e3 d13c 97a7 4cbe 3498 993d 3771 7c3d
00000290: c4c1 2b3e a58e abbd 952d 123e 0563 64be
000002a0: f5a1 843e a083 ea3d e023 b53d ab90 26be
000002b0: 41b5 683d f92a 21be de78 923e 7657 243e
000002c0: a3aa 63bd 02c5 db3d a686 3a3d 262f 3c3e
000002d0: de9d 483d 144d ab3b d4df a83c 54ca 583e
000002e0: 2d53 90bd 4999 af3d 139c f53b 7612 acbc
000002f0: bb78 a4be 997d b1be 0a4b b13e fd97 86be
00000300: 7de7 d5bd 8841 d3be b779 babd bac9 463c
00000310: eceb 9bbd 7217 40be 4a04 babe 71cb c6be
00000320: 9ae4 4cbe 7b2a be3d 7b7f b33d 4735 243c
00000330: dd6f 14be ba30 6abe 888e 913c 988b 87be
00000340: f922 ff3d 5b74 02be 0795 b2bd dc9a 95bc
00000350: b83f 943e 24b1 34bf d5d8 d3be cbb9 2fbf
00000360: f290 1f3f b951 df3d 9f6c 7b3e 07c9 c73e
00000370: 1c45 1ebe e1ff c7bd edd8 043d bd90 233e
00000380: 0ac8 033f c284 58be 8cf9 75be 2261 c9bd
00000390: 16e2 9bbe 942c e6bd 27db c2be 5825 033e
000003a0: ddc3 51be 094e 91be 68c9 f6bd 5e98 293e
000003b0: 7769 a13e f2de f6bc 2fd6 543e 349d 0d3f
000003c0: 493f babe c989 b93e f156 0bbf 3077 1ebe
000003d0: 00cc 0ebe 74ab 953e a168 f3be c819 12be
000003e0: 024a e3bd c682 553e e4cd a7be 5c0a 853e
000003f0: 9d9e a93d d6b7 04bf 201b 5fbe b204 5d3e
-0.15157482 0.3572057 -0.1296558 0.15088208 -0.08969845 0.026796311 -0.122119166 0.16714966
-0.24038589 -0.34012297 0.3824992 -0.40562367 -0.24890442 -0.2859708 0.27868658 -0.1914733
-0.06442535 -0.18754777 -0.479978 -0.93563807 -0.35628888 -0.21672373 -0.8135876 0.13436396
0.095991924 0.09434551 -0.6815087 -0.033719815 0.028600708 -0.2273264 0.121482104 0.25991186
-0.018963436 -0.22381334 -0.3391716 -0.09488419 -0.0771091 -0.22702312 0.039096914 0.19923073
0.10919978 0.35220397 -0.1014167 -0.16541953 -0.3073918 0.3564255 -1.0085394 0.21629815
0.0039617126 -0.05954165 0.18950649 0.5533623 0.19600312 0.49988598 0.16148484 0.11466041
-0.076208785 -0.043090593 -0.38171747 0.21603782 -0.00435862 -0.24302357 -0.21531755 -0.0054021394
0.19595747 -0.3066611 0.035124853 -0.15548612 0.22006081 -0.15705667 -0.22022593 -0.074780226
-0.112824105 0.3900834 0.12030607 0.25062212 -0.14806521 0.5784764 0.16963269 -0.16237573
-0.31462082 0.10198861 0.28492966 0.0005677994 0.01077051 -0.07308713 0.047296807 0.01698137
-0.0018630746 0.07238408 0.182575 -0.5364992 0.008534476 -0.27792788 0.106656715 -0.1339995
0.21753569 0.18634269 -0.053874884 0.018033667 0.19507435 0.0058617136 0.14574404 0.21482262
-0.33724633 0.0063621867 -0.20809151 -0.010081397 -0.03731366 0.5315275 0.21114165 0.3129044
0.03674763 0.13269071 0.14978588 -0.1373516 -0.0014589437 -0.25948256 -0.082888044 -0.0011648112
0.13231951 -0.097253986 0.21688582 0.11247207 -0.093821295 0.24143043 0.89038634 0.12038507
0.22389553 0.8950953 0.105225086 0.13624169 -0.3673393 0.021988742 -0.2407417 0.36579755
-0.4178425 -0.3232599 -0.12501217 -0.40677276 0.11942106 -0.27639672 -0.18769185 0.20146854
-0.51226383 -0.7577935 -0.6421714 -0.28936273 -0.9116441 -0.4011642 -0.170391 -0.17748648
-0.279127 0.09164771 0.18742198 -0.26873097 0.064738266 0.024802888 -0.064308934 -0.05820776
0.025621241 -0.19985805 0.074997336 0.061631408 0.16773134 -0.08376817 0.142752 -0.22303398
0.25904813 0.11450887 0.08844733 -0.16266124 0.056813482 -0.15739049 0.2860784 0.16048989
-0.055582654 0.10730936 0.045538567 0.1837736 0.04897868 0.0052276943 0.020614542 0.21170932
-0.070471145 0.08574159 0.007495412 -0.021004897 -0.3212336 -0.34666136 0.34627563 -0.26287833
-0.104445435 -0.41260934 -0.091052465 0.012133056 -0.07613358 -0.18758944 -0.36331397 -0.38827088
-0.2000908 0.09285446 0.08764549 0.010022468 -0.14495797 -0.2287015 0.01776816 -0.2647369
0.124578424 -0.12739699 -0.08719831 -0.01826232 0.28954864 -0.70582795 -0.41376367 -0.6864287
0.62330544 0.10904259 0.24553154 0.3902056 -0.1545605 -0.09765602 0.03243344 0.15973182
0.5147711 -0.21144393 -0.24020976 -0.0983298 -0.30445927 -0.11238971 -0.38057825 0.12807214
-0.20484872 -0.2837985 -0.12050134 0.1656203 0.31525776 -0.030135605 0.2078483 0.55318
-0.36376408 0.36237934 -0.5442954 -0.15475154 -0.13945007 0.2923237 -0.47540763 -0.14267647
-0.110981 0.20850667 -0.3277427 0.25984466 0.08282206 -0.5184301 -0.21787691 0.21583822

lstm.weight_hh_l0_reverse f4 [256, 64]
00000000: b971 a93d 670c 47be 9dee 293d 4750 3c3e
00000010: b1bf 983e 4d49 12bf 2448 6ebd efba ed3d
00000020: 43ec 7fbd 05b3 4d3d 36cd 1cbc 3500 4d3e
00000030: 58b9 133d 0604 e33e 46a6 593d dc51 c9be
00000040: 1d7f 3b3e 6d31 d1bd a931 66be f636 8c3e
00000050: 7f07 1fbd 075d 053f 2ccb ccbd 7325 5fbe
00000060: 0b9e 793e 6922 903e aa7a 7e3e 3634 0b3e
00000070: 6929 7cbc 2b15 663e 2d49 2f3e a7d2 a43e
00000080: d6b9 3ebd cffb c0be 428d f43d 98e0 b0be
00000090: 73f1 763d e4b3 71bb d461 8fbd 07b6 b4bd
000000a0: 844a 643e 3f17 c6bd 967e fa3d f87c 2f3d
000000b0: 18cb 0ebe 93ee 003e 400d 643d 699f 34be
000000c0: f6c9 673e eedb 233e 8827 353e 9094 d13d
000000d0: 83fc c8bd 296c 11be f4e4 3f3e 1162 adbd
000000e0: 6495 833d 65bc 1ebe f434 19be 7599 55bc
000000f0: 3f0d f33c fe28 9cbd 08b0 463d 4d5a 65bd
00000100: d14d 42be d9b0 c3bc 3413 903e 8212 de3d
00000110: d221 503d 2498 69be 838b 8cbe 31ef a63d
00000120: 5739 3a3d 650b 77be 88c6 dfbe c6f1 013e
00000130: a588 b5bc 0764 2abe 17b5 233e 4183 bbbe
00000140: 8a5d 3a3e 8ef6 38be 311d 06be 8826 cf3d
00000150: e781 633e 45ab d6bc 090c cb3d 5e27 c2bc
00000160: ba7c 6abe 01a5 ff3c f419 d43c e120 023e
00000170: 8014 0abd be7a 0e3f e7d9 e93d 549d fb3c
00000180: 0d35 a93e 7b08 30be b420 903d dba7 8cbe
00000190: 360d fb3b b086 06be d00f bbbd ca88 c4be
000001a0: 27ff 893e 50d7 d63d 9e79 91be faa1 00be
000001b0: 2ccd 1cbe de2f aebe b70a 933e 39bd 873b
000001c0: 1e8d 753e 3942 793e 93c9 6dbd f3ed 0ebe
000001d0: 42db 93bd be83 c23d eaff d43e af44 0ebe
000001e0: e7c3 133e a77c b7bd c51c 87bd 207e 833d
000001f0: 4b3f 043d cc37 16be 2e28 713c 10ce 7fbe
00000200: 0a07 bebd 9a69 b23e 0ccb 143e 6d5f 1c3d
00000210: 583d b93e 9cc1 1a3d bc0d 06bd 1a72 e23c
00000220: a20b 0fbf 140d 053e 78c6 99be a268 613e
00000230: 4b45 b73e 0949 493e f8f5 34bb 590e a33d
00000240: 94e4 333e 7878 c43d 7f75 7abe 9213 4abe
00000250: 4ed8 c0bd 0c5c 88be 88c5 be3d 1bdb 593e
00000260: 3b8b 9b3d 44a3 11be c8fc 813e 151b 383e
00000270: fac3 903e fe6a a63c bb53 6fbd 6077 be3c
00000280: 867c 413e bb75 083e e227 0e3d 657b 02bf
00000290: e28c d03e ef44 af3e bb70 d23c 2909 be3b
000002a0: cac3 983e 2082 2abe 687d ddbd a181 1d3c
000002b0: c228 43bd 5aeb e5be 7ac9 ef3e a6ca 3fbc
000002c0: fa39 813e 0bb6 4d3f d244 073e 8c03 903e
000002d0: 7f8d 893e c7fa 253e af54 1d3e f5c8 08bf
000002e0: f36f 863e 5864 fabd 77f8 e1bc 8b90 c33c
000002f0: 064e 053e 0279 363d f6f0 c53e 2ccb 2cbe
00000300: cd97 12bd 626c be3a 851c d63e 459f 91bc
00000310: 439d 143c 5d81 243d cd07 103d 0382 8e3d
00000320: 95fe 12be 6289 bbbd b076 0fbe 0227 113e
00000330: 4c9e b53d 9e70 913d 8afd b3bd 6c3c 3e3e
00000340: eb13 a8bd 236e cfbd 814b 753d 9a4f f33d
00000350: 4cd0 7e3d 99c9 633b 3946 c1be ca43 21be
00000360: c698 183e 36c0 273e 06e0 563e a7ae 9a3e
00000370: 6d66 75bc a748 813e 9a4c a539 e9ca a33e
00000380: f778 c23e 44db ec3c 6a4f 8f3b 72b7 5fbe
00000390: a143 14bd 8468 4cbe 897c 33be 49d0 5fbe
000003a0: cd58 853d 327a 19be 9942 04be cc7a 34bc
000003b0: 40d8 07be 746d fbbe 15a7 f6bd f6b9 d4be
000003c0: 1a3a 603e c789 0abe 6c54 e1bd 8e50 fabd
000003d0: 522e 07bc 3477 8b3d 747b 1c3e 32ef 71be
000003e0: 6474 36be cea2 b93d bc3d de3d a785 55bc
000003f0: 41ee 193e eedf 16be b4cb 9bbd 16b0 d23d
0.08273644 -0.19438325 0.041487325 0.18389998 0.2983375 -0.571431 -0.058174267 0.116079204
-0.062481176 0.050219554 -0.0095704105 0.2001961 0.03606543 0.44339007 0.053137086 -0.39320266
0.18310209 -0.10214505 -0.22479881 0.27385682 -0.03882551 0.52095073 -0.099996895 -0.2179163
0.24376695 0.28151253 0.2485148 0.13594136 -0.015390732 0.22469012 0.17117758 0.32191965
-0.046563946 -0.37692115 0.11941005 -0.3454635 0.060288858 -0.0036880905 -0.07001081 -0.088237815
0.2229405 -0.096724026 0.122311756 0.04284379 -0.13944662 0.12591009 0.0556767 -0.17638935
0.22635636 0.16001865 0.17690861 0.10233414 -0.09813788 -0.14201416 0.18739682 -0.0846597
0.064249784 -0.15501554 -0.14961606 -0.013037075 0.029669402 -0.07625006 0.04850772 -0.05599432
-0.18974997 -0.023888038 0.2813965 0.10843374 0.050813504 -0.22811943 -0.2745019 0.08151091
0.04546484 -0.2412544 -0.43706155 0.12689885 -0.022159884 -0.1663972 0.15987049 -0.36623576
0.18199745 -0.18062803 -0.13097073 0.10114771 0.22217523 -0.026204715 0.09914405 -0.023700412
-0.22899142 0.03120661 0.025891282 0.12707855 -0.033710957 0.5565604 0.11418515 0.030714668
0.33048287 -0.17190735 0.070374876 -0.27471814 0.007661487 -0.13137317 -0.09133875 -0.38385612
0.26952478 0.10490286 -0.284131 -0.12561789 -0.15312642 -0.34020895 0.28719112 0.00414243
0.23979613 0.24341668 -0.058053564 -0.13957958 -0.072195545 0.09497784 0.41601497 -0.13893388
0.144302 -0.089593224 -0.06597284 0.06420541 0.032286923 -0.14669722 0.014719052 -0.2498095
-0.09278686 0.34846193 0.14530581 0.038176943 0.36179614 0.037782297 -0.032727942 0.027642298
-0.55877125 0.1299327 -0.30034232 0.2201257 0.35795054 0.19656767 -0.002761243 0.07961721
0.17567664 0.0959329 -0.24458884 -0.19734028 -0.09416257 -0.26632726 0.0931502 0.21274988
0.075949155 -0.14222437 0.2538817 0.17979081 0.28274518 0.02031469 -0.05842946 0.023250282
0.18895158 0.1332616 0.034706004 -0.50969535 0.40732485 0.3423228 0.02568852 0.005799432
0.29836875 -0.16651201 -0.10814935 0.0096134255 -0.04764629 -0.44906121 0.46833402 -0.01170603
0.25239545 0.803559 0.13209847 0.28127706 0.26865765 0.16208945 0.15364335 -0.53431636
0.26257285 -0.1222617 -0.027584298 0.023872634 0.13018045 0.044548996 0.386604 -0.16874379
-0.0357893 0.001452815 0.41818634 -0.017776141 0.009070697 0.040162433 0.03516369 0.069583915
-0.14354928 -0.09157063 -0.1401012 0.14175037 0.08868083 0.07101558 -0.08788593 0.18577737
-0.08206924 -0.10128429 0.05988646 0.11880417 0.062210366 0.0034757613 -0.37748888 -0.15748516
0.14902028 0.16381916 0.20983896 0.30211374 -0.0149780335 0.25250742 0.00031528325 0.31990746
0.37982914 0.028913148 0.0043734806 -0.21847323 -0.03619731 -0.19961745 -0.17527975 -0.21856798
0.06511078 -0.1498802 -0.1291603 -0.011015605 -0.13266087 -0.49106944 -0.12043587 -0.41548127
0.21897164 -0.1352912 -0.1100243 -0.12222396 -0.00825079 0.068098456 0.15281469 -0.23626402
-0.17817837 0.09064256 0.10851619 -0.0130323535 0.15032293 -0.1473386 -0.07607213 0.10287492

lstm.bias_ih_l0_reverse f4 [256]
00000000: 327a 0f3e e169 4e3e 2456 503e d491 4b3e
00000010: 6a3b 483e a230 793e e206 6f3e 7597 173e
00000020: 84a2 173e 4fda a23e 0f9a 003e aaa1 483d
00000030: c0f1 693d 17a1 723e 7626 8f3e 2f4e 973e
00000040: d2d1 1c3e ce73 b03d 61ed 7e3d 0a6a 613e
00000050: d9e2 ee3e 845e 403e 478c 563e d86a 093f
00000060: 22d1 c03e 17d0 2b3e bf2e 0e3b 2bf4 643e
00000070: 9ecb c5ba e82e 5b3e e747 583e 3d58 863d
00000080: 3153 633e a3f2 7e3d 6946 623e 396b 8c3e
00000090: 3d09 7b3e 47dd 823e 8d22 7e3e 7720 883e
000000a0: bf32 353e ee1e d43e 3d21 7d3e 02fa 183e
000000b0: f730 223e 1c35 033f d2ea a63d 6d94 053e
000000c0: 033a 2e3e ae6c 543e 7849 813e 4e0d 9f3b
000000d0: c02e a63e 3869 0c3e d52f 943e c690 bd3e
000000e0: a768 b03e bddc ab3d 5a9e ba3c dd4c a73e
000000f0: 1471 d13d ea4f 8d3e 1ade 0e3e 192a 3e3e
00000100: dbc2 6bbd ade3 8cbd 7177 06bc afe4 5e3d
00000110: 0530 2ebd f392 623e 6e3b 473d 72af a13b
00000120: 4015 0e3e 1f24 c23d 8a13 123e e53c b03d
00000130: 3829 933d 8246 24bd 64e7 023c a835 fb3d
00000140: 7702 8e3d 4d67 fc3d 86a8 e23c d82a 05bd
00000150: 558a 59bd 0222 763d 6733 003c 37f9 123e
00000160: 763e 043e 6e60 4a3e e5c9 1b3e 8f2e 0c3e
00000170: 46a6 d23d 5690 97bc 9421 d43d 39b8 ffbb
00000180: 2293 2c3d 3369 fa3d d1e2 893e 0188 563c
00000190: 4a80 94bd c7aa e23c 6a47 9f3d 03f9 88bb
000001a0: 5ffd 2c3e 45af 023d 56a7 a33e bdb7 85bd
000001b0: 09ca ef3c 4177 213e c465 143e 4739 573d
000001c0: e2e5 cebd ec67 8c3d 17a4 3f3d cb80 c33d
000001d0: 1692 613e bd2e b9bd 6113 583e 3b19 74bd
000001e0: 7667 9d3c d611 7b3d 89ef 883c 32d9 1ebd
000001f0: 3e5c d2bd 7ab6 5bbd 863e bb3c 0a55 143e
00000200: 361e 84bd 845b 993c 460d fbbd 9943 2e3e
00000210: 9126 9fbd 9b32 d0bc b38c 4b3e d839 6ebd
00000220: 51cf a03d 6096 63be 69b0 56be 92d1 453e
00000230: 4411 11bd 6d91 8d3e 35ae 81bd 3336 1ebe
00000240: df14 debd 9b55 cebd 8967 acbe 0385 26be
00000250: 3b34 5a3e c95d ea3d 19f4 39be ea19 84be
00000260: 9cef 8b3e 4518 a83d eb80 273c 6aba 473c
00000270: f5d3 56bd 7ff0 433e f2b4 dbbd 8aea 1ebe
00000280: 9a1d e53d 1bfc 413e ac22 a13e 1bf3 76bd
00000290: 619e 59be 1bad c9bd 0963 08be d214 19be
000002a0: b1b2 e33d fac5 1bbe d72b d4bd 0e48 71bd
000002b0: d6c1 0fbe fb37 0ebe 97a5 a5bd 4529 34be
000002c0: 89b8 413e e6a2 ebbd 1d0b 08bd e880 1cbe
000002d0: 5441 febc ec66 c3bd 8cbd 6a3e 20e6 213c
000002e0: e72f b83d bb53 9fbd dacd 06be e053 3b3e
000002f0: fd48 42bd d357 f4bc 42db cc3d 6b78 77be
00000300: 59ef 483e a974 dd3e 93ed 053e 6d03 473e
00000310: c345 833e 899c 853e b419 193e 41c9 063e
00000320: 2aed 9f3d 283a 803d 87ea 523d e957 0f3e
00000330: b055 c23d eccf b43d 7539 2c3e 814a 873e
00000340: 4ffc 34bd f61e ebbc 4bc9 c53d e275 853e
00000350: 1008 8c3e f617 1a3e 2c98 f83d 098f 593e
00000360: dbfe ab3b a679 803d bb2b 823d 4796 193e
00000370: fc5c 173d ec81 b33d 35b1 323d f6d3 833e
00000380: 9b1f 9a3e 680c a23c ccb5 863d f54b 843e
00000390: c78d d83e 47b6 a73e 2db2 643e dcd1 cc3d
000003a0: ff2b a83e 2c87 893e ea2a a43d be47 4bbc
000003b0: 1213 a23e fd75 4f3e 902c 1b3e a477 753d
000003c0: a31b edbb 2b3e 583e ae9d e73d 5583 fd3d
000003d0: 0c41 683e aecb 763e 422c a53d 2fc4 b83e
000003e0: d65f 023f 1f3b 0b3e c3a2 cf3c 3e85 7c3d
000003f0: b6ee a03d 2467 f03d cf79 bc3c d0ef 933d
0.14011458 0.20157577 0.2034536 0.19879848 0.19553915 0.24334958 0.2334247 0.1480387
0.14808089 0.3180718 0.12558769 0.0489823 0.057115316 0.23694263 0.2795903 0.29551837
0.15314415 0.08615838 0.0622381 0.22013107 0.46657446 0.18786055 0.20951949 0.53678656
0.37659556 0.16778599 0.0021695343 0.22358768 -0.001509059 0.21404612 0.21121179 0.06559799
0.22199704 0.062243115 0.22097172 0.27425554 0.24515243 0.25559446 0.24817868 0.2658727
0.1769514 0.41429847 0.2471971 0.1493912 0.15838991 0.51252913 0.08150257 0.13044901
0.17014317 0.20744583 0.25251365 0.004853881 0.32457542 0.13712013 0.28942743 0.37024516
0.34454843 0.08391712 0.022780586 0.3267583 0.10226646 0.27600032 0.13951913 0.18570746
-0.057558876 -0.06879363 -0.008207188 0.05441731 -0.042526264 0.22126369 0.04864066 0.004934245
0.13875294 0.09479546 0.14265266 0.08605365 0.07185596 -0.040106304 0.007989738 0.122660935
0.06934064 0.123243906 0.027668249 -0.032511562 -0.05311044 0.060091026 0.007824755 0.1435288
0.12914452 0.19763348 0.15213735 0.13689636 0.102856204 -0.018501442 0.10357967 -0.0078039435
0.042132504 0.122270964 0.2693086 0.013093949 -0.07251032 0.027669324 0.07777293 -0.004180075
0.16893528 0.03190543 0.31963605 -0.06529186 0.029271143 0.15768148 0.14491946 0.05254486
-0.101024404 0.06855759 0.046787348 0.0954605 0.22028384 -0.09042118 0.21101142 -0.059594374
0.019214373 0.061296307 0.016715782 -0.038781352 -0.102715 -0.05364082 0.022856962 0.14485565
-0.06451075 0.018720396 -0.12258391 0.17017974 -0.07771028 -0.025414756 0.19877891 -0.058160633
0.078520425 -0.22225332 -0.20965733 0.19318226 -0.035416856 0.27650014 -0.063320555 -0.15450363
-0.108438246 -0.10074922 -0.3367274 -0.16261677 0.21308987 0.11443669 -0.18159522 -0.2580102
0.27331245 0.08207754 0.0102236075 0.012190441 -0.05244823 0.1913471 -0.10727872 -0.15519157
0.11187287 0.18943827 0.31471765 -0.060290437 -0.21251823 -0.098474704 -0.13319029 -0.14949349
0.11118067 -0.15212241 -0.10359924 -0.058906607 -0.14038786 -0.13888542 -0.080882244 -0.17593868
0.18918051 -0.1150568 -0.033213723 -0.15283549 -0.03103701 -0.09541115 0.22923869 0.009881526
0.08993512 -0.07779642 -0.13164464 0.18293715 -0.04743289 -0.029827034 0.100027576 -0.2416703
0.19622554 0.43253067 0.13078909 0.194349 0.2563916 0.2609599 0.14951211 0.1316271
0.07808907 0.062610924 0.051493194 0.13998379 0.09489 0.088287205 0.16818793 0.2642403
-0.044185933 -0.028701287 0.09657534 0.260665 0.273499 0.15048203 0.121383995 0.2124597
0.005248887 0.062732026 0.06355997 0.14998733 0.03695391 0.08765015 0.04362603 0.2574765
0.30102238 0.019781306 0.06577644 0.258392 0.42295668 0.32756254 0.22333594 0.10000965
0.32846066 0.2686094 0.08015998 -0.012407241 0.31655174 0.20259853 0.15153718 0.05992855
-0.0072359606 0.21117465 0.11309372 0.12378565 0.22681063 0.24101135 0.08065082 0.36087176
0.50927484 0.13596772 0.025346166 0.061650507 0.078580305 0.117384225 0.023007302 0.07223475

lstm.bias_hh_l0_reverse f4 [256]
00000000: b597 2a3e 7904 6b3e 23d1 8e3e f722 1c3e
00000010: 5d33 8a3e 36f1 603e a08f ae3e 6121 153e
00000020: fdfc 633d c536 aa3e 7b28 433e f0cd 773e
00000030: 5954 173d e951 a33e 285b 883e ca64 4f3e
00000040: 6192 353e 1dac 3ebd 15a8 2a3e bd2f 253e
00000050: 0a57 fa3e 2903 f53d df2d 693e b5e3 053f
00000060: 28c0 863e 3437 a1bc ebc2 2f3e 3aa8 af3e
00000070: a916 a4bd 90de 843d 5725 9ab9 8620 823d
00000080: 905e 9b3e d95b 803e f061 ae3e e3d9 7f3e
00000090: b327 be3e 41a2 6f3e f088 8f3e 3a6f 1b3e
000000a0: 05e5 6b3e c293 1e3f 0965 b83d 6f44 473e
000000b0: bd9c 8c3e 6571 e13e e02d d23d 7a73 a53e
000000c0: e16d 013e c48b 843e 35aa b53d db5d 6e3d
000000d0: e764 053e 6137 af3d 9cce 913e f2f4 9a3e
000000e0: 0ab2 f13e f7c6 7c3d ddbd 123d d5e2 a23e
000000f0: c2cb f0bc 3fa2 d03e e32d 573e bd21 463e
00000100: bfa4 6c3d 2943 60bb 3cbc 093e 9422 cabc
00000110: 3436 b03d 4f29 673e 0be5 7dbc e4b9 2d3d
00000120: 35f6 003e 9127 583d ffb4 c63d de94 a63d
00000130: 1947 843d d898 24bd 0476 dc3d bb66 373e
00000140: 0999 6d3c 7e8f 073e fb01 953d c486 50bd
00000150: e7ef 48bc 2291 573d 8592 393e 3217 413e
00000160: a262 9c3d 6ed9 ed3d 22bc ed3d 07a6 b43d
00000170: 9ec8 e43d 2427 a4bc b6c1 723d f20f b53d
00000180: 901c a8bb 3fdb 363e a720 023e f11c 8c3d
00000190: 0736 1a3e a67d 973d b7bf d33d 7545 4c3e
000001a0: b53f 013e ad8b f9bc 2a6e 9d3e 2b97 1b3e
000001b0: 9d79 3b3e 7054 ea3d 5043 dfbc b510 cf3d
000001c0: fe1b 96bd ca02 473e 9c1e 9a3d ea27 c73d
000001d0: 54e7 183e 7ad2 7dbd 3996 383d 410f 06bc
000001e0: a8c1 0ebe b1f8 623d c0da af3d 0f5e 8ebd
000001f0: 9e14 803d 2bb0 fabc f7fb 093d 69d2 743e
00000200: 5b63 8fbd 9e31 f23d 3fcc 74be f7a3 9e3c
00000210: 1092 cbbd 164e 1abe 795d 063e 3c6e 4fbd
00000220: f239 ccbd 346a eebd 41eb 21be 4069 903e
00000230: 0df0 27bc d86b f83d 121b 14be 146f afbd
00000240: aa4f 78be 3a84 d6bd b5e1 e6be 3426 b8bd
00000250: 851f 423e ac9e b9bd f5af 4bbe f0a3 47be
00000260: 0b92 7c3e 2241 433e 2dbd bd3c cd37 d63c
00000270: f0e2 24be ec4a 9f3e e31e 5abc 85d2 18be
00000280: 7f89 583e c7fa cc3d 8d30 883e 403d 1bbd
00000290: 0d39 f8bd 66de 80bd 9acf a0be 0fc7 d4bd
000002a0: 1f66 653e 3eea a1be 007b 38be c017 10be
000002b0: 1325 31bd e645 d1bd 216d 0fbd 6f84 18be
000002c0: 2f01 813e f47d abbb 1ff6 97bd 4c8b f9bd
000002d0: a4de 3bbe f5a8 723d 2908 873e 7e8c f0bd
000002e0: 3a55 47bd 4d9d 0b3e 9393 873a 4d8d c63d
000002f0: 248d 88bb 3638 bfbd e1e9 c5bc 9880 9cbe
00000300: 24bd 1b3e cd82 af3e bdad 7c3e 2212 663e
00000310: 7a6f 573e 31c1 1c3e 8d59 553e 885c 403e
00000320: 1445 2b3e 7dbe d63c 4ca8 b13c a03e 4d3d
00000330: 2b91 083e f93f 643e 93af ad3e 771f e63e
00000340: 2a4d a1bd ffa2 3cbd e29d dd3d d7c8 683e
00000350: 12f8 663e 8d03 493e 97f3 213e edc5 2b3e
00000360: a204 d23d 71d9 3b3e 3536 393e d0f0 253e
00000370: b316 e8bc b493 753e 66f7 093e 8fc3 ea3d
00000380: 6f8a bb3e b37a c23d c569 4e3d 9d6c 983e
00000390: 58ac c73e 1d2b d23e 336f 203e ab2f bc3d
000003a0: 45b3 ac3e 0858 b03e 85b2 7a3e 79e4 2a3e
000003b0: 83ae f53e 436d b63e b126 403e 6094 1e3e
000003c0: a6b5 8ebc 6fe7 c43d cc24 283e 7729 043e
000003d0: 992f 0e3e 34ca 3d3d e37c 443e 8640 e73e
000003e0: 1497 f83e 072f f73d 80e4 ff3b 8983 c63d
000003f0: 2088 a03c 7551 053e 663a 4cbb b436 6d3d
0.16659434 0.22950925 0.27893934 0.15247713 0.26992312 0.21967015 0.34093952 0.14563514
0.05566119 0.3324491 0.19058411 0.24199653 0.036945675 0.3189843 0.26632047 0.20253292
0.1773162 -0.04655086 0.1666568 0.16131492 0.4889453 0.119634934 0.22771405 0.5230058
0.2631848 -0.019679643 0.17164199 0.34308034 -0.080121346 0.06487763 -0.0002940099 0.063538596
0.30345583 0.25070074 0.34059095 0.24985461 0.37139663 0.23401739 0.28034163 0.15179148
0.23036583 0.6194421 0.09003646 0.19459699 0.27463332 0.44031826 0.10262656 0.32314664
0.12639572 0.25887883 0.08870355 0.058194976 0.13026772 0.085554846 0.28477943 0.30265003
0.47206146 0.061713185 0.0358256 0.31813684 -0.029394034 0.40748784 0.21013598 0.19348808
0.0577743 -0.0034219718 0.13450712 -0.024674691 0.086040884 0.22574352 -0.015496503 0.042413607
0.1259392 0.05277211 0.09702491 0.08133863 0.06458873 -0.040184826 0.10764697 0.17910282
0.014501818 0.13238332 0.07275768 -0.050909773 -0.012264228 0.052628644 0.18122299 0.18856505
0.07636 0.11613737 0.11608149 0.0882073 0.11171077 -0.020038195 0.05926677 0.08840932
-0.005130358 0.17857073 0.12707768 0.06841458 0.15059672 0.073970124 0.10339301 0.19948371
0.12621959 -0.03046211 0.3074811 0.15194385 0.1830811 0.114418864 -0.027253777 0.101106085
-0.07329558 0.19434658 0.075253695 0.0972441 0.14931995 -0.061968304 0.04506514 -0.008182348
-0.13941061 0.05541295 0.08586645 -0.06951534 0.062539324 -0.030601582 0.033687558 0.2390839
-0.070013724 0.1182587 -0.23906039 0.019365294 -0.099399686 -0.1506885 0.13121594 -0.050642237
-0.0997199 -0.116413504 -0.15812398 0.282053 -0.010250104 0.121299446 -0.14463452 -0.08566108
-0.2424914 -0.10474439 -0.45094076 -0.08991662 0.18957336 -0.090634674 -0.19891341 -0.19496131
0.24665086 0.19067815 0.023161495 0.026149655 -0.16102195 0.31111848 -0.013313028 -0.14924057
0.211462 0.100087695 0.2659954 -0.03790021 -0.121202566 -0.06292419 -0.31408387 -0.1038953
0.22402237 -0.31624025 -0.18015671 -0.1407156 -0.043248247 -0.1021841 -0.035016183 -0.1489427
0.25196216 -0.0052335206 -0.07419991 -0.12184772 -0.1834665 0.05924316 0.26373413 -0.11745547
-0.048665263 0.13634224 0.0010343663 0.0969492 -0.004167216 -0.09336893 -0.024159374 -0.3056686
0.1520887 0.3427948 0.24675651 0.22467855 0.21038619 0.15308072 0.20834942 0.18785298
0.1672557 0.026213879 0.021686696 0.050108552 0.13336627 0.22290029 0.33923015 0.4494588
-0.07876046 -0.046053883 0.108211294 0.22732864 0.22555569 0.19630261 0.15815578 0.16774721
0.1025479 0.18344666 0.18087085 0.16205144 -0.028331136 0.23982126 0.13473281 0.11463081
0.36629054 0.09496059 0.05039384 0.29770365 0.38998675 0.41048518 0.15667419 0.091887794
0.33730522 0.34442163 0.24482162 0.16688718 0.47984704 0.35630235 0.1876476 0.15486288
-0.017420601 0.09614455 0.16420287 0.12906443 0.13885345 0.046335414 0.19188266 0.45166415
0.48552763 0.12069517 0.0078092217 0.09693057 0.01959616 0.13019355 -0.0031162738 0.057913497
